model_real_15_64_100.pkl (torch, 608420 bytes, 38 tensors)

init_gate f4 [1, 3]
0.3333 0.3333 0.3334
00000000: 4ca6 aa3e 4ca6 aa3e 68b3 aa3e

mkaarma.models.0.Phi f4 [84, 1]
0.0 1.0 1.0 0.0 0.0 1.0 0.0 1.0
1.0 0.0 0.0 0.0 1.0 1.0 0.0 0.0
1.0 1.0 0.0 0.0 1.0 0.0 0.0 1.0
1.0 0.0 0.0 0.0 1.0 1.0 0.0 0.0
1.0 1.0 0.0 1.0 0.0 0.0 0.0 0.0
1.0 0.0 0.0 1.0 0.0 0.0 1.0 1.0
1.0 0.0 0.0 0.0 1.0 0.0 0.0 0.0
1.0 0.0 1.0 0.0 1.0 1.0 0.0 0.0
0.0 1.0 1.0 0.0 1.0 1.0 0.0 1.0
1.0 0.0 1.0 0.0 0.0 1.0 1.0 1.0
0.0 1.0 1.0 0.0
00000000: 0000 0000 0000 803f 0000 803f 0000 0000
00000010: 0000 0000 0000 803f 0000 0000 0000 803f
00000020: 0000 803f 0000 0000 0000 0000 0000 0000
00000030: 0000 803f 0000 803f 0000 0000 0000 0000
00000040: 0000 803f 0000 803f 0000 0000 0000 0000
00000050: 0000 803f 0000 0000 0000 0000 0000 803f
00000060: 0000 803f 0000 0000 0000 0000 0000 0000
00000070: 0000 803f 0000 803f 0000 0000 0000 0000
00000080: 0000 803f 0000 803f 0000 0000 0000 803f
00000090: 0000 0000 0000 0000 0000 0000 0000 0000
000000a0: 0000 803f 0000 0000 0000 0000 0000 803f
000000b0: 0000 0000 0000 0000 0000 803f 0000 803f
000000c0: 0000 803f 0000 0000 0000 0000 0000 0000
000000d0: 0000 803f 0000 0000 0000 0000 0000 0000
000000e0: 0000 803f 0000 0000 0000 803f 0000 0000
000000f0: 0000 803f 0000 803f 0000 0000 0000 0000
00000100: 0000 0000 0000 803f 0000 803f 0000 0000
00000110: 0000 803f 0000 803f 0000 0000 0000 803f
00000120: 0000 803f 0000 0000 0000 803f 0000 0000
00000130: 0000 0000 0000 803f 0000 803f 0000 803f
00000140: 0000 0000 0000 803f 0000 803f 0000 0000

mkaarma.models.0.initial_state f4 [1, 4]
0.417022 0.7203245 0.000114374816 0.30233258
00000000: e883 d53e 3067 383f 83dc ef38 56cb 9a3e

mkaarma.models.0.A f4 [84, 4]
0.22031227 0.41756648 -0.03734213 0.43316826 0.39780518 0.48031604 0.20011172 0.17880051
0.016059265 0.49924287 -0.4789218 -0.14959729 -0.5287748 -0.8273259 -0.11176773 -0.52838856
-0.065154925 -0.39229196 0.24749747 0.18407683 0.48763153 0.8788708 -0.06443885 0.2699215
0.28756943 0.31254706 0.17446473 0.5045126 0.51077473 0.72454405 0.12146288 0.284416
-0.35626128 0.0023936979 -0.58705354 -0.25829488 -0.21818657 -0.42788282 0.04421613 0.05792308
-0.056575965 0.037194647 -0.11206403 0.1725356 0.04371664 -0.20558089 0.26277754 0.16486996
0.17569669 0.33653885 -0.036045756 0.22223683 -0.216777 -0.04253687 -0.26678988 -0.0530198
-0.079209305 -0.22867961 0.08540322 0.0062408927 0.23302163 0.08144007 0.41010204 0.34458026
0.33363092 0.41018802 0.11765158 -0.02906859 -0.04603439 0.18436863 -0.20198476 -0.020836132
0.42455447 0.17995337 0.58559823 0.3845815 0.15172324 -0.027581373 0.16024415 0.39247715
0.045726325 0.10721868 -0.0019554738 -0.0049139527 -0.11686497 -0.11373476 -0.07347199 0.11285797
0.033432253 0.09495821 -0.038260475 0.43006253 0.0074975532 0.09016766 -0.035278596 0.32280666
0.1798322 -0.0037108306 0.1371738 0.06868727 0.0036784331 -0.14991602 0.1893441 -0.10502455
0.041671965 -0.0381279 0.10480786 -0.15607882 0.19572029 0.0677764 0.16402866 0.22219975
-0.027177585 -0.12950586 0.043877687 -0.067931324 -0.017540121 -0.0870125 0.025504416 0.22798803
0.017029451 0.1945669 -0.09116536 0.17681186 0.084924124 0.020356558 0.12953892 -0.14506122
0.115649864 0.14001602 -0.009095038 0.36389333 0.030683892 -0.06852372 0.07675203 -0.11626184
-0.043290026 0.3598691 -0.24388453 0.03905527 0.033263683 0.030537307 -0.02106165 0.24396642
0.014486466 -0.1378701 0.13285698 -0.15299848 -0.047337566 0.010234411 -0.1894401 -0.12072784
0.10359553 0.2541442 -0.12395822 0.284169 0.044256873 -0.055319615 0.06956544 0.032164313
-0.18029882 0.054718904 -0.3323143 -0.0712363 0.08859479 0.15289037 0.039553974 -0.07511478
-0.011187602 0.34020644 -0.23677345 0.06736234 -0.055544645 0.18101119 -0.12777711 0.216235
-0.11026335 -0.18224597 0.0016296511 -0.031554878 0.1911105 0.05282016 0.09459428 0.25786644
0.025591299 0.029720344 0.03589026 0.040690854 0.050041858 0.06719392 -0.00643268 0.109550305
-0.11342445 -0.06286976 -0.10000615 0.13818449 0.080544904 0.1553351 -0.027380249 0.04066654
-0.10587308 -0.09699443 -0.060729016 -0.11582057 -0.11593607 -0.10417664 -0.17847699 -0.24590099
-0.11079446 -0.08589085 -0.09465645 0.019892894 0.03174911 -0.006804875 0.01752818 -0.0012092622
0.072315685 0.07265692 -0.024916906 0.091814265 -0.010896104 -0.072411194 0.034740835 -0.057119295
0.075400986 0.19642721 -0.08149466 0.10272378 0.06892858 0.1278618 -0.06527859 0.035436295
0.27023 -0.0100595765 0.23982063 0.016778937 -0.22973767 -0.030954614 -0.29722977 -0.197866
-0.06637427 0.047454555 -0.0860532 0.48719448 0.15146068 0.0012806107 0.10356005 -0.020021455
-0.23550883 -0.07103538 -0.28842944 -0.13857831 0.1056232 -0.07745383 0.09811098 0.09905223
00000000: 8a99 613e 46cb d53e 10f4 18bd 3bc8 dd3e
00000010: 1fad cb3e fceb f53e 16ea 4c3e 7b17 373e
00000020: b88e 833c c39c ff3e 3d35 f5be 0830 19be
00000030: c95d 07bf a1cb 53bf 7be6 e4bd 7944 07bf
00000040: f26f 85bd 7eda c8be fa6f 7d3e a37e 3c3e
00000050: d7aa f93e adfd 603f 84f8 83bd 2733 8a3e
00000060: 4d3c 933e 2b06 a03e e2a6 323e bd27 013f
00000070: 22c2 023f b87b 393f 88c1 f83d f99e 913e
00000080: e167 b6be 96df 1c3b 2449 16bf 3a3f 84be
00000090: 4d6c 5fbe 7513 dbbe f91b 353d c040 6d3d
000000a0: 33bc 67bd 6a59 183d d381 e5bd 2cad 303e
000000b0: 3810 333d cc83 52be c78a 863e acd3 283e
000000c0: d5e9 333e d24e ac3e b7a4 13bd 0d92 633e
000000d0: cafa 5dbe 243b 2ebd af98 88be 4a2b 59bd
000000e0: 7d38 a2bd fd2a 6abe e2e7 ae3d 6780 cc3b
000000f0: 399d 6e3e 0dca a63d e5f8 d13e d36c b03e
00000100: acd1 aa3e 2a04 d23e 50f3 f03d 4021 eebc
00000110: 8e8e 3cbd 21cb 3c3e 18d5 4ebe 89b0 aabc
00000120: 345f d93e b245 383e c4e9 153f dee7 c43e
00000130: 565d 1b3e 55f2 e1bc 0b17 243e c4f2 c83e
00000140: 874b 3b3d 7895 db3d 6827 00bb 3905 a1bb
00000150: e756 efbd c5ed e8bd 7c78 96bd 1422 e73d
00000160: 42f0 083d 7379 c23d 04b7 1cbd 2831 dc3e
00000170: 09ae f53b d2a9 b83d 4a80 10bd ea46 a53e
00000180: ef25 383e 6831 73bb 4a77 0c3e e9ab 8c3d
00000190: de11 713b 9683 19be 6be3 413e 1c17 d7bd
000001a0: 39b0 2a3d 002c 1cbd 81a5 d63d 20d3 1fbe
000001b0: e66a 483e 5ace 8a3d 21f7 273e 5588 633e
000001c0: 87a3 debc 2f9d 04be 17b9 333d 941f 8bbd
000001d0: 4db0 8fbc 9c33 b2bd a3ee d03c b275 693e
000001e0: 5981 8b3c 8c3c 473e e7b4 babd 2b0e 353e
000001f0: b3ec ad3d ccc2 a63c daa5 043e ee8a 14be
00000200: d6d9 ec3d 5c60 0f3e 5b03 15bc 3a50 ba3e
00000210: c95c fb3c 2a56 8cbd 2b30 9d3d b01a eebd
00000220: e250 31bd c340 b83e debc 79be 6bf8 1f3d
00000230: 803f 083d 6029 fa3c 7b89 acbc 55d2 793e
00000240: a458 6d3c d22d 0dbe a90b 083e a2ab 1cbe
00000250: 09e5 41bd 3bae 273c 96fc 41be 2840 f7bd
00000260: e529 d43d 301f 823e cfdd fdbd 997e 913e
00000270: b246 353d d296 62bd 5378 8e3d babe 033d
00000280: 41a0 38be ee20 603d 1a25 aabe 56e4 91bd
00000290: 2f71 b53d 4b8f 1c3e 5903 223d c7d5 99bd
000002a0: 344c 37bc 8a2f ae3e bd74 72be 44f5 893d
000002b0: c882 63bd ff5a 393e 01d8 02be b56c 5d3e
000002c0: c0d1 e1bd b09e 3abe 049a d53a b03f 01bd
000002d0: 79b2 433e f459 583d a5ba c13d 1207 843e
000002e0: d8a4 d13c 1478 f33c aa01 133d 74ab 263d
000002f0: b1f8 4c3d f79c 893d 3bc9 d2bb e95b e03d
00000300: 144b e8bd dcc1 80bd 06d0 ccbd 3c80 0d3e
00000310: baf4 a43d 2a10 1f3e 8b4c e0bc f591 263d
00000320: fcd3 d8bd 04a5 c6bd fdbe 78bd 5633 edbd
00000330: e46f edbd 905a d5bd acc2 36be 78cd 7bbe
00000340: 35e8 e2bd 8be7 afbd 3edb c1bd 6cf6 a23c
00000350: 5b0b 023d 6efb debb 4297 8f3c 1b80 9eba
00000360: 3f1a 943d 27cd 943d 8a1e ccbc 1e09 bc3d
00000370: 9385 32bc 524c 94bd 684c 0e3d ecf5 69bd
00000380: d56b 9a3d 3724 493e ace6 a6bd d860 d23d
00000390: 6d2a 8d3d 34ee 023e c8b0 85bd a625 113d
000003a0: 965b 8a3e ecd0 24bc 8a93 753e fb73 893c
000003b0: 5a40 6bbe 8894 fdbc 802e 98be 629d 4abe
000003c0: 3cef 87bd b55f 423d a93c b0bd 8e71 f93e
000003d0: 8218 1b3e 2ada a73a 4b17 d43d 0904 a4bc
000003e0: 3a29 71be ff7a 91bd 06ad 93be 79e7 0dbe
000003f0: fa50 d83d 1da0 9ebd 69ee c83d e5db ca3d

mkaarma.models.0.S f4 [84, 4]
0.417022 0.7203245 0.000114374816 0.30233258 0.417022 0.7203245 0.000114374816 0.30233258
0.01986125 0.01249667 0.025207577 0.046766557 0.0046616495 0.002933103 0.00591649 0.010976615
0.14728795 0.09301242 0.18654372 0.36705303 0.1437126 0.08497688 0.18869182 0.4146568
0.23951852 0.36850294 0.05231807 0.69785225 0.25290367 0.38854143 0.05588295 0.68575776
-0.22612154 -0.27740481 -0.13084182 -0.12630817 -0.24729571 -0.30210274 -0.14457119 -0.13234493
0.42101103 0.7207652 0.007568721 0.9231858 -0.1756511 -0.2861289 -0.020009127 0.40784156
0.40559122 0.7572061 -0.065322034 0.96216816 -0.493879 -0.6395515 -0.24687631 -0.105747916
-0.490191 -0.60590965 -0.2783885 -0.22835492 0.32586345 0.22674298 0.38849345 1.1409279
0.30688378 0.16907094 0.41724753 0.9932483 -0.14938527 -0.40514526 0.16995259 0.67884505
0.12543583 -0.026737714 0.28129753 0.8490366 0.753629 1.4711384 -0.19553024 1.0402575
0.18229438 0.67788005 -0.41941208 0.15489548 0.06757639 0.4909606 -0.43242455 0.08012459
0.58871144 1.1466218 -0.14975454 0.5826607 0.6967676 1.3169935 -0.13091882 0.5705551
1.4936984 2.4570818 0.14253336 1.9198846 0.11042618 -0.30514327 0.57304 0.51003546
0.7088081 0.7137994 0.59012896 0.9679591 1.0353736 1.890755 -0.117983505 1.314632
0.27463347 -0.0524797 0.6088753 0.48287675 0.5287375 0.3117559 0.69523996 0.6770178
1.2864512 2.1819985 0.04668678 1.4148489 0.6297447 0.80600995 0.3257476 0.60635513
1.1253288 1.9149942 0.033581603 1.1880004 0.4383966 0.3500547 0.47064334 0.071766414
1.5261382 2.5129688 0.14271043 1.3557036 0.796273 0.7817247 0.6862398 0.6133367
0.32765433 0.22988605 0.3884345 0.020357164 0.8073888 0.7008414 0.80189264 0.45078093
1.3361166 2.4350736 -0.14660858 0.9027927 0.4635772 0.43579465 0.4218346 0.6979989
0.06243137 -0.24071419 0.40278348 0.0021456247 0.41135144 0.9613684 -0.28974122 -0.06292465
1.6886227 2.8671 0.057856537 0.8232825 0.97441036 1.91514 -0.26785836 0.3432489
-0.1389919 -0.47162923 0.2675224 -0.07610402 1.1008705 2.0935178 -0.22153512 0.51414114
0.49402434 1.06062 -0.23939498 0.20948508 1.3513122 2.3897045 -0.06384721 0.96817577
0.075194135 -0.5047657 0.73337746 0.34900078 1.3414861 2.155002 0.18774424 0.8083323
-0.10242373 -0.6900861 0.59295434 0.3156384 0.6255658 0.38026956 0.8093627 0.6870889
-0.32513788 -0.9980835 0.5042652 -0.00073120254 -0.5349635 -1.1802672 0.2959236 -0.09752869
0.95901704 1.5424597 0.13206209 0.6840566 -0.3890607 -0.9224503 0.28926483 0.30448723
0.9721382 1.5555913 0.1430808 0.71854544 -0.5843064 -1.5158302 0.5851774 0.01049931
-0.58207405 -1.5150689 0.5887536 0.011072903 0.44072026 -0.20263098 1.1139277 0.66901845
0.41745025 -0.16394262 1.0227699 0.80224025 1.4794008 2.4332087 0.14157566 1.3229115
0.54916215 0.09374063 0.98793733 0.95845264 1.0277834 1.8683441 -0.10723957 0.87707156
00000000: e883 d53e 3067 383f 83dc ef38 56cb 9a3e
00000010: e883 d53e 3067 383f 83dc ef38 56cb 9a3e
00000020: 0fb4 a23c d5be 4c3c 1f80 ce3c 4a8e 3f3d
00000030: c0c0 983b 4d39 403b 1edf c13b 43d7 333c
00000040: a7d2 163e 4c7d be3d 5105 3f3e 60ee bb3e
00000050: 6529 133e 5c08 ae3d 6e38 413e e54d d43e
00000060: 5844 753e 6bac bc3e 794b 563d 72a6 323f
00000070: 977c 813e e7ee c63e 85e5 643d d28d 2f3f
00000080: 688c 67be 0108 8ebe 66fb 05be ee56 01be
00000090: 163b 7dbe 36ad 9abe 780a 14be 6e85 07be
000000a0: c28e d73e 1184 383f 0903 f83b e855 6c3f
000000b0: e2dd 33be 7d7f 92be 2eea a3bc 9cd0 d03e
000000c0: a7a9 cf3e 42d8 413f 8fc7 85bd a750 763f
000000d0: b5dd fcbe a6b9 23bf 25cd 7cbe 5d92 d8bd
000000e0: 51fa fabe e51c 1bbf f088 8ebe dfd5 69be
000000f0: 93d7 a63e 502f 683e 9de8 c63e ed09 923f
00000100: df1f 9d3e ef20 2d3e 78a1 d53e 8545 7e3f
00000110: 74f8 18be 336f cfbe 0d08 2e3e cac8 2d3f
00000120: 4072 003e 0d09 dbbc 3b06 903e 765a 593f
00000130: d5ed 403f 434e bc3f 1439 48be 2827 853f
00000140: 61ab 3a3e 8c89 2d3f 2ebd d6be ec9c 1e3e
00000150: 7e65 8a3d 305f fb3e c066 ddbe 5c18 a43d
00000160: cbb5 163f 81c4 923f 4159 19be 4029 153f
00000170: 5d5f 323f 3e93 a83f 950f 06be e60f 123f
00000180: 8231 bf3f d440 1d40 44f4 113e c7be f53f
00000190: 1f27 e23d bd3b 9cbe c0b2 123f af91 023f
000001a0: 7374 353f 8fbb 363f b112 173f 2bcc 773f
000001b0: 1f87 843f 4304 f23f 56a1 f1bd dd45 a83f
000001c0: c29c 8c3e f4f4 56bd 40df 1b3f 9f3b f73e
000001d0: 575b 073f 789e 9f3e 3ffb 313f 0a51 2d3f
000001e0: 6faa a43f dda5 0b40 a33a 3f3d c519 b53f
000001f0: f336 213f ab56 4e3f 64c8 a63e 173a 1b3f
00000200: c60a 903f 881e f53f dd8c 093d 6610 983f
00000210: 8575 e03e 5f3a b33e 2af8 f03e 45fa 923d
00000220: 7f58 c33f 7bd4 2040 af22 123e b287 ad3f
00000230: 8cd8 4b3f 1c1f 483f 69ad 2f3f a203 1d3f
00000240: 4fc2 a73e 4067 6b3e e3e0 c63e 11c4 a63c
00000250: 08b1 4e3f 586a 333f d648 4d3f c2cc e63e
00000260: de05 ab3f 3fd8 1b40 8f20 16be 6c1d 673f
00000270: fe59 ed3e 7a20 df3e b4fa d73e 0eb0 323f
00000280: 09b8 7f3d c87d 76be a339 ce3e 9c9d 0c3b
00000290: a89c d23e 3d1c 763f f658 94be a4de 80bd
000002a0: ca24 d83f 917e 3740 fafa 6c3d a4c2 523f
000002b0: f572 793f 4f23 f53f bb24 89be 52be af3e
000002c0: e553 0ebe 6379 f1be b2f8 883e 6ddc 9bbd
000002d0: 53e9 8c3f 32fc 0540 1ada 62be c19e 033f
000002e0: c2f0 fc3e 65c2 873f f523 75be 4283 563e
000002f0: ccf7 ac3f ebf0 1840 53c2 82bd 5eda 773f
00000300: 62ff 993d 5338 01bf a0be 3b3f 3bb0 b23e
00000310: d1b5 ab3f 8eeb 0940 0740 403e deee 4e3f
00000320: 88c3 d1bd 7ca9 30bf dbcb 173f 5b9b a13e
00000330: 1525 203f b1b2 c23e 6532 4f3f 0fe5 2f3f
00000340: 7978 a6be 6682 7fbf 8617 013f 2cae 3fba
00000350: 5ef3 08bf ff12 97bf 4c83 973e 1fbd c7bd
00000360: 2482 753f 526f c53f 493b 073e 551e 2f3f
00000370: f732 c7be b425 6cbf 851a 943e c0e5 9b3e
00000380: 0dde 783f 9e1d c73f c683 123e 98f2 373f
00000390: 1b95 15bf b906 c2bf 30ce 153f 4c05 2c3c
000003a0: ce02 15bf c7ed c1bf 8eb8 163f 1f6b 353c
000003b0: 16a6 e13e 7f7e 4fbe 2f95 8e3f cb44 2b3f
000003c0: 0abc d53e 93e0 27be 20ea 823f 9e5f 4d3f
000003d0: 015d bd3f b1b9 1b40 36f9 103e 2a55 a93f
000003e0: e495 0c3f 16fb bf3d 76e9 7c3f 275d 753f
000003f0: 688e 833f e625 ef3f 6ba0 dbbd c387 603f

mkaarma.models.1.Phi f4 [22, 1]
0.0 0.0 1.0 1.0 0.0 1.0 1.0 0.0
0.0 0.0 1.0 1.0 0.0 0.0 1.0 1.0
0.0 1.0 0.0 1.0 1.0 0.0
00000000: 0000 0000 0000 0000 0000 803f 0000 803f
00000010: 0000 0000 0000 803f 0000 803f 0000 0000
00000020: 0000 0000 0000 0000 0000 803f 0000 803f
00000030: 0000 0000 0000 0000 0000 803f 0000 803f
00000040: 0000 0000 0000 803f 0000 0000 0000 803f
00000050: 0000 803f 0000 0000

mkaarma.models.1.initial_state f4 [1, 4]
0.417022 0.7203245 0.000114374816 0.30233258
00000000: e883 d53e 3067 383f 83dc ef38 56cb 9a3e

mkaarma.models.1.A f4 [22, 4]
0.23437148 0.20723704 0.19047062 -0.3557951 -0.07120027 -0.04274243 -0.06259768 0.71937096
-0.7609559 -0.23199645 -1.26305 -1.0988301 -0.08589781 -0.09753899 -0.044239536 0.15561178
-0.46141666 -0.23211162 -0.6261968 2.0589216 0.029255504 -0.40604386 0.49607024 -0.7326504
-0.1470166 -0.053967603 -0.24844049 -0.16828649 0.4626505 0.28577402 0.6099873 -0.24104473
0.16532478 0.08818418 0.25368828 -0.6332067 0.20016079 0.08600264 0.32368797 -0.1642107
-0.023252346 0.17058393 -0.2372146 0.5111447 0.027033584 0.07175318 -0.020617982 1.4577254
-0.07960334 0.084661804 -0.22855243 -0.07137791 -0.6172153 -0.23819369 -0.933551 -1.5736389
0.10258342 -0.0019516005 0.20220292 1.2114885 0.03478236 0.020127306 0.055849902 0.29182446
-0.08006853 0.06492134 -0.20037533 0.67363393 0.24530469 0.19207068 0.25377804 -0.51801276
0.08547984 -0.016648034 0.20527905 0.090683006 -0.19626428 -0.019664614 -0.32483485 -0.027006099
0.111821994 0.056883987 0.16467758 -0.26240793 -0.07576689 0.028167212 -0.121801265 0.009252388
00000000: 14ff 6f3e f235 543e bb0a 433e c62a b6be
00000010: 72d1 91bd b012 2fbd 3633 80bd b228 383f
00000020: 02ce 42bf 7a90 6dbe 9fab a1bf 77a6 8cbf
00000030: 31eb afbd 86c2 c7bd 8434 35bd b258 1f3e
00000040: ce3e ecbe abae 6dbe 6f4e 20bf 5fc5 0340
00000050: 3da9 ef3c fbe4 cfbe ebfc fd3e fa8e 3bbf
00000060: 858b 16be 220d 5dbd 2f67 7ebe 4b53 2cbe
00000070: 87e0 ec3e f950 923e 2128 1c3f 6ed4 76be
00000080: e64a 293e e899 b43d 6ee3 813e d619 22bf
00000090: f3f6 4c3e 2722 b03d 6eba a53e da26 28be
000000a0: b47b bebc 8ead 2e3e 62e8 72be 61da 023f
000000b0: 8975 dd3c 55f3 923d 0be7 a8bc bf96 ba3f
000000c0: 1307 a3bd 2b63 ad3d a609 6abe 952e 92bd
000000d0: d201 1ebf 0ce9 73be 33fd 6ebf 006d c9bf
000000e0: 4217 d23d d9cc ffba 480e 4f3e 0e12 9b3f
000000f0: f377 0e3d 05e2 a43c dec2 643d 046a 953e
00000100: f8fa a3bd 7bf5 843d 312f 4dbe 4673 2c3f
00000110: 2731 7b3e 2dae 443e 32ef 813e 7c9c 04bf
00000120: 0e10 af3d 7561 88bc ac34 523e 03b8 b93d
00000130: 81f9 48be af17 a1bc c150 a6be e53b ddbc
00000140: ee02 e53d 2fff 683d 3da1 283e 555a 86be
00000150: ac2b 9bbd edbe e63c f172 f9bd 5497 173c

mkaarma.models.1.S f4 [22, 4]
0.417022 0.7203245 0.000114374816 0.30233258 0.14675589 0.09233859 0.18626021 0.34556073
0.05356589 0.03370358 0.06798496 0.12612964 0.417022 0.7203245 0.000114374816 0.30233258
-0.079361394 -0.09900345 -0.044024065 0.15105703 -0.1627257 -0.19391258 -0.10077322 0.35487092
0.008369916 0.06117197 -0.053981077 0.64776075 -0.00020325182 0.057821624 -0.067224234 0.6712921
-0.29603106 -0.31264916 -0.22968416 0.38843465 0.07896584 0.14213704 -0.0066192024 -0.16404909
-0.22865397 -0.051479276 -0.39697224 0.638815 -0.20325987 -0.22141235 -0.14990552 -0.062593915
-0.30191723 -0.09488262 -0.49306762 0.63979006 -0.22897719 -0.02849119 -0.42418256 0.049104907
-0.23905101 -0.016165692 -0.45853794 0.13780634 0.08986252 0.20579588 -0.058435034 -0.2379414
-0.4644022 -0.21372409 -0.6801055 0.21628755 -0.47212565 -0.21454653 -0.69457036 0.3272299
-0.174869 -0.16332877 -0.16037197 0.9736861 -0.16356845 -0.15956123 -0.14216639 0.96591586
-0.5839306 -0.28748673 -0.83347434 -0.056191057 -0.6237068 -0.26232487 -0.9419859 -0.07532134
00000000: e883 d53e 3067 383f 83dc ef38 56cb 9a3e
00000010: 2d47 163e 041c bd3d ffba 3e3e 56ed b03e
00000020: e867 5b3d c40c 0a3d b33b 8b3d 2128 013e
00000030: e883 d53e 3067 383f 83dc ef38 56cb 9a3e
00000040: 3a88 a2bd 52c2 cabd 9452 34bd b2ae 1a3e
00000050: 91a1 26be 0591 46be 3162 cebd a4b1 b53e
00000060: f921 093c 768f 7a3d 431b 5dbd a6d3 253f
00000070: ff1f 55b9 5ed6 6c3d dcac 89bd cdd9 2b3f
00000080: 6291 97be 8d13 a0be 5332 6bbe e8e0 c63e
00000090: d8b8 a13d 5f8c 113e e5e5 d8bb 7cfc 27be
000000a0: 4424 6abe efdb 52bd f23f cbbe 6189 233f
000000b0: 5b23 50be ebb9 62be d580 19be 3d31 80bd
000000c0: e594 9abe d251 c2bd 5c73 fcbe 48c9 233f
000000d0: ff78 6abe 5b66 e9bc 752e d9be 3a22 493d
000000e0: cac9 74be ea6d 84bc 7cc5 eabe 1b1d 0d3e
000000f0: d709 b83d 28bc 523e 9359 6fbd e9a6 73be
00000100: 20c6 edbe 7dda 5abe 651b 2ebf 7c7a 5d3e
00000110: 74ba f1be 16b2 5bbe 5dcf 31bf ad8a a73e
00000120: dc10 33be a83f 27be 8d38 24be 7e43 793f
00000130: 7d7e 27be 0564 23be 1194 11be 4346 773f
00000140: 7a7c 15bf 7631 93be 935e 55bf 9828 66bd
00000150: 40ab 1fbf 724f 86be fd25 71bf 1342 9abd

mkaarma.models.2.Phi f4 [21, 1]
0.0 0.0 1.0 1.0 1.0 0.0 1.0 0.0
0.0 1.0 0.0 1.0 1.0 1.0 0.0 1.0
0.0 1.0 1.0 0.0 1.0
00000000: 0000 0000 0000 0000 0000 803f 0000 803f
00000010: 0000 803f 0000 0000 0000 803f 0000 0000
00000020: 0000 0000 0000 803f 0000 0000 0000 803f
00000030: 0000 803f 0000 803f 0000 0000 0000 803f
00000040: 0000 0000 0000 803f 0000 803f 0000 0000
00000050: 0000 803f

mkaarma.models.2.initial_state f4 [1, 4]
0.417022 0.7203245 0.000114374816 0.30233258
00000000: e883 d53e 3067 383f 83dc ef38 56cb 9a3e

mkaarma.models.2.A f4 [21, 4]
0.026393313 -0.32255492 0.457431 -0.1749187 -0.13884851 0.4019437 -0.7110293 -1.5292678
-0.041032456 0.3531364 -0.58060366 -0.03823247 0.24877281 -0.35151836 0.91923124 -0.45845777
-0.15972401 0.43319726 -0.82607394 1.9182119 0.039507102 -0.4775954 0.61280733 0.41321403
0.05756923 -0.13470219 0.30875257 -0.9455255 0.16563538 0.10710416 0.21413416 0.95725405
0.03659516 -0.05618393 0.17289191 -0.021623584 0.04265492 -0.114332214 0.15166421 0.09873692
0.03967801 0.5471351 -0.54166675 1.0815607 -0.24989608 -0.024175936 -0.34176195 -0.6413435
0.022326006 -0.24924678 0.26646549 -0.6617466 0.068502925 -0.47599444 0.65319306 -0.17113724
0.32826868 0.13671803 0.45426235 -0.19075686 -0.017832542 -0.033318557 -0.01136642 0.013312281
-0.14907232 -0.094115496 -0.08451832 -0.37409693 0.1296862 0.2034469 -0.009007378 0.71203095
-0.15418202 0.15775152 -0.35116115 0.4301327 -0.013701442 -0.06962439 0.045628637 0.15818179
-0.015568318 -0.014740859 -0.0755134 -0.31259912
00000000: ca36 d83c eb25 a5be 6534 ea3e e31d 33be
00000010: 4e2e 0ebe 91cb cd3e 0406 36bf 0cbf c3bf
00000020: a611 28bd 4bce b43e 71a2 14bf a799 1cbd
00000030: 4dbe 7e3e 37fa b3be bd52 6b3f faba eabe
00000040: b18e 23be 08cc dd3e 9579 53bf f887 f53f
00000050: 33d2 213d 6287 f4be f1e0 1c3f ca90 d33e
00000060: b7cd 6b3d 5fef 09be d114 9e3e f60d 72bf
00000070: 529c 293e 6d59 db3d fc45 5b3e 9a0e 753f
00000080: cee4 153d 1f21 66bd 940a 313e f123 b1bc
00000090: edb6 2e3d 0227 eabd dd4d 1b3e 9536 ca3d
000000a0: 6985 223d 0c11 0c3f acaa 0abf 9570 8a3f
000000b0: c2e4 7fbe 9d0c c6bc 6cfb aebe 162f 24bf
000000c0: 07e5 b63c 8c3a 7fbe 2a6e 883e 3a68 29bf
000000d0: 434b 8c3d 8bb5 f3be a937 273f 9a3e 2fbe
000000e0: d512 a83e d0ff 0b3e 1395 e83e c455 43be
000000f0: 8d15 92bc 0a79 08bd 393a 3abc c11b 5a3c
00000100: 6aa6 18be a0bf c0bd f117 adbd a289 bfbe
00000110: 76cc 043e 6254 503e ae93 13bc a947 363f
00000120: e4e1 1dbe 9d89 213e 65cb b3be 5a3a dc3e
00000130: 037c 60bc 3b97 8ebd 18e5 3a3d 68fa 213e
00000140: 4212 7fbc a583 71bc c5a6 9abd fe0c a0be

mkaarma.models.2.S f4 [21, 4]
0.417022 0.7203245 0.000114374816 0.30233258 0.14675589 0.09233859 0.18626021 0.34556073
0.417022 0.7203245 0.000114374816 0.30233258 0.019970339 0.012741006 0.025143003 0.047551647
0.16082574 0.119741924 0.18268149 0.39925614 0.1324945 0.30291516 -0.085536815 0.5940005
0.15580182 0.37077212 -0.117422186 0.5682633 0.0076689413 0.009168741 0.004714007 -0.0031551297
0.25869164 0.17788659 0.31086564 0.7295927 0.2529473 0.050659288 0.4464169 0.7285507
0.18028513 0.38420546 -0.08407063 0.17260705 0.010245141 0.21943717 -0.23311636 0.928018
0.33672908 0.38930872 0.22234045 0.82738376 0.19308972 0.3988706 -0.07545746 0.119994625
0.06763257 0.3637195 -0.28527832 0.9573165 0.1659027 -0.15408833 0.5092461 0.373673
0.17318144 -0.15839696 0.52875495 0.32706648 0.22005218 0.038156487 0.39519206 0.0033261462
0.1413597 0.4771774 -0.2692026 1.2497815 0.0444454 0.29416415 -0.25119597 -0.1794312
0.06538495 0.23537737 -0.14146163 -0.26835302
00000000: e883 d53e 3067 383f 83dc ef38 56cb 9a3e
00000010: 2d47 163e 041c bd3d ffba 3e3e 56ed b03e
00000020: e883 d53e 3067 383f 83dc ef38 56cb 9a3e
00000030: d698 a33c a7bf 503c b3f8 cd3c 84c5 423d
00000040: 81af 243e 413b f53d db10 3b3e 4d6b cc3e
00000050: a3ac 073e b217 9b3e ed2d afbd 6b10 183f
00000060: 838a 1f3e d8d5 bd3e 0b7b f0bd b479 113f
00000070: be4b fb3b 7d38 163c f577 9a3b 4bc6 4ebb
00000080: 3b73 843e e727 363e c829 9f3e 96c6 3a3f
00000090: 4f82 813e 1d80 4f3d c290 e43e 4c82 3a3f
000000a0: aa9c 383e 94b6 c43e 392d acbd e7bf 303e
000000b0: 3cdb 273c 23b4 603e 0eb6 6ebe 9692 6d3f
000000c0: c167 ac3e 7953 c73e 37ad 633e 6ccf 533f
000000d0: 50b9 453e c438 cc3e 7189 9abd bebf f53d
000000e0: f282 8a3d 7139 ba3e 0010 92be b212 753f
000000f0: 66e2 293e 55c9 1dbe f45d 023f 1152 bf3e
00000100: 7a56 313e d032 22be 7c5c 073f 4275 a73e
00000110: 5c55 613e fa49 1c3d 9d56 ca3e 79fb 593b
00000120: 99c0 103e 9950 f43e ecd4 89be d7f8 9f3f
00000130: 610c 363d af9c 963e c29c 80be d0bc 37be
00000140: 8be8 853d c406 713e 51db 10be 9165 89be

mkaarma.trajectories.0.w f4 [10, 4]
-0.4177361 -0.4654915 -0.29600924 0.0014029541 0.38693634 0.482007 0.21543929 0.99580115
-0.40378284 -0.49462026 -0.23449558 0.0018766909 -0.12144488 -0.12451014 -0.09855609 0.99230677
0.16169456 0.27345154 0.006799996 0.99813235 -0.41154703 -0.45804694 -0.29225686 -0.0011438127
-0.41248345 -0.5046631 -0.24025926 -0.005151982 0.1840581 0.06543937 0.29181728 0.88767725
0.42085394 0.43178478 0.34118167 0.65929145 -0.13648084 -0.09507042 -0.1625872 0.6790566
00000000: 82e1 d5be e754 eebe 868e 97be 54e3 b73a
00000010: 851c c63e 9fc9 f63e 1e9c 5c3e d3ec 7e3f
00000020: a0bc cebe de3e fdbe 9c1f 70be 4cfb f53a
00000030: 18b8 f8bd 2cff febd c6d7 c9bd d107 7e3f
00000040: 4293 253e d701 8c3e 80d2 de3b 9a85 7f3f
00000050: 4bb6 d2be 2185 eabe b1a2 95be fceb 95ba
00000060: 0831 d3be 9a31 01bf 8606 76be f5d1 a8bb
00000070: ba79 3c3e 1405 863d 1369 953e d13e 633f
00000080: 2b7a d73e e512 dd3e 5daf ae3e 53c7 283f
00000090: a2c1 0bbe 48b4 c2bd 427d 26be a7d6 2d3f

mkaarma.trajectories.1.w f4 [4, 4]
-0.64394736 -0.25526232 -0.9905757 2.9951334e-06 0.16574496 0.11526323 0.1976583 7.370114e-05
-0.1982283 -0.13903983 -0.2350468 1.0000476 -0.25517306 -0.06461525 -0.43474045 -4.7191978e-05
00000000: bcd9 24bf beb1 82be 5e96 7dbf 0000 4936
00000010: 0cb9 293e 210f ec3d f066 4a3e 0090 9a38
00000020: 5cfc 4abe 7560 0ebe 1cb0 70be 8f01 803f
00000030: 0ba6 82be 0055 84bd 4d96 debe 00f0 45b8

mkaarma.trajectories.2.w f4 [6, 4]
0.2358254 -0.052323014 0.531237 -0.00038602948 0.17697299 0.32965726 -0.02764228 1.0001107
0.0062579066 0.24489436 -0.2704852 0.0011156201 0.09745391 -0.07972388 0.286696 0.41671798
0.17142329 0.3230279 -0.031038523 0.99987006 0.1413424 0.3630777 -0.13739702 1.1141456
00000000: 377c 713e a850 56bd 26ff 073f 0064 cab9
00000010: 6838 353e d6c8 a83e 1072 e2bc a103 803f
00000020: 200f cd3b 96c5 7a3e 097d 8abe 003a 923a
00000030: ea95 c73d 4646 a3bd d1c9 923e 0f5c d53e
00000040: 9689 2f3e ea63 a53e 8044 febc 7cf7 7f3f
00000050: 10bc 103e 52e5 b93e ceb1 0cbe 539c 8e3f

controller.read0_bias f4 [1, 15]
-0.0066283033 0.006286462 0.0034901588 0.003657355 0.015382743 0.0038280718 0.006348098 0.0009059878
0.0020142922 0.002155044 -0.010397717 0.0039030402 0.00899221 -0.007076105 -0.006540465
00000000: 3d32 d9bb aafe cd3b 26bb 643b 3cb0 6f3b
00000010: e707 7c3c 63e0 7a3b b503 d03b d07f 6d3a
00000020: 3702 043b a43b 0d3b 305b 2abc 26ca 7f3b
00000030: 1054 133c acde e7bb 6651 d6bb

controller.controller.lstm_h_bias f4 [2, 1, 100]
0.08816312 0.08298953 0.023494296 -0.090715885 0.035791487 0.11244069 0.07429344 0.024897462
-0.15779282 -0.00824572 0.12387044 -0.017256841 0.075900815 0.054047287 0.029237505 0.06920952
-0.015841769 0.04760627 -0.048104506 -0.008351339 -0.100395106 0.08561861 -0.009140031 0.07310827
-0.007579433 -0.062206004 0.15874037 -0.0471769 -0.016602851 0.03598446 0.11026454 0.016649904
0.08097486 -0.058515415 -0.0027490223 -0.047574833 -0.0603451 -0.060319018 0.051559947 -0.1039815
-0.009436119 -0.10779999 -0.046272658 -0.08921727 0.03268278 -0.027973272 -0.03265084 -0.06719868
-0.025219167 -0.1170865 -0.00029795713 -0.03480597 -0.06843674 0.085701674 -0.026370611 0.11947262
0.054417863 -0.065694146 0.068167806 -0.0015129826 0.08308172 0.009482629 0.018809952 0.049058355
0.019313917 -0.06969235 -0.10264435 -0.06458576 -0.03599228 0.020423904 0.05699929 0.03768108
-0.12207404 -0.019138068 -0.050251227 -0.03282564 0.102828115 0.038125284 -0.02375322 0.012520114
0.020771138 -0.032946587 -0.041737717 0.096196435 -0.042054184 0.10823704 -0.076122485 -0.106530435
-0.03543861 -0.13265097 0.03430083 -0.098029345 0.026956683 -0.088751785 -0.10403884 0.052144352
-0.038601622 -0.120152146 0.11529093 -0.11857026 -0.11974288 -0.043040287 0.11048411 -0.05378858
0.13105106 -0.03354188 0.022241428 0.013437239 -0.1334195 0.10019306 0.11115073 -0.23834331
0.027308695 0.122832626 -0.06350168 -0.094209515 -0.041362576 0.00077371974 0.019423263 0.025221761
-0.012636791 -0.011536513 0.06353118 0.15460874 0.05902296 -0.05179723 0.010007052 -0.016154945
0.035471886 0.06338645 -0.06169517 0.062477987 -0.0407087 -0.03863065 -0.09366186 -0.027707439
0.023378357 -0.00014880348 0.06507802 0.037317183 -0.12626784 0.07370341 -0.01420773 0.026672663
0.07935061 0.015226622 -0.09725502 0.035513103 0.03985974 0.08810168 -0.17181289 -0.00442384
-0.055756874 -0.047517955 -0.056715388 0.00080243964 -0.082945116 -0.1653553 0.019514244 -0.04083619
0.031784147 -0.041093852 -0.051999964 -0.08378998 0.07137041 -0.037364017 -0.010938293 -0.0015476296
-0.01168106 0.009999824 0.03324964 0.087419465 -0.019132748 0.059481513 0.048774775 -0.013707918
0.1096595 -0.08348682 -0.030826643 0.07941852 -0.06251061 0.00903851 0.04414445 0.025108669
-0.115594335 -0.15761463 -0.19721971 0.14942442 -0.14664297 0.18325458 0.0017116244 -0.05044083
0.09185421 0.047004797 0.09805291 0.09847473 0.010209404 0.016446598 0.08483789 -0.009472763
00000000: de8e b43d 6af6 a93d 1c77 c03c 40c9 b9bd
00000010: 189a 123d 4e47 e63d 2927 983d c3f5 cb3c
00000020: 7194 21be 0e19 07bc c9af fd3d 385e 8dbc
00000030: e371 9b3d b060 5d3d 7e83 ef3c b9bd 8d3d
00000040: 99c6 81bc cbfe 423d 3b09 45bd 0ed4 08bc
00000050: f39b cdbd cf58 af3d 12c0 15bc cab9 953d
00000060: e45c f8bb b9cb 7ebd d68c 223e 913c 41bd
00000070: b402 88bc 7164 133d 60d2 e13d 6165 883c
00000080: 26d6 a53d dcad 6fbd f128 34bb d4dd 42bd
00000090: 6c2c 77bd 1311 77bd 8630 533d 41f4 d4bd
000000a0: f499 1abc 3ec6 dcbd 6688 3dbd 8bb7 b6bd
000000b0: 61de 053d 3428 e5bc e3bc 05bd 769f 89bd
000000c0: 6d98 cebc 0ccb efbd 2137 9cb9 b490 0ebd
000000d0: 9028 8cbd 5c84 af3d 2e07 d8bc 10ae f43d
000000e0: 44e5 5e3d a78a 86bd 909b 8b3d 464f c6ba
000000f0: c026 aa3d 075d 1b3c 5417 9a3c 6af1 483d
00000100: 3838 9e3c ddba 8ebd 3337 d2bd 8a45 84bd
00000110: a46c 13bd 0850 a73c 1678 693d 7a57 1a3d
00000120: f401 fabd 70c7 9cbc 3bd4 4dbd 2e74 06bd
00000130: 8c97 d23d 4229 1c3d 1d96 c2bc 2a21 4d3c
00000140: 3c28 aa3c 00f3 06bd 2bf5 2abd a302 c53d
00000150: 0241 2cbd 62ab dd3d 1be6 9bbd a12c dabd
00000160: 1328 11bd a8d5 07be 077f 0c3d 9cc3 c8bd
00000170: 43d4 dc3c 7fc3 b5bd 5112 d5bd 5195 553d
00000180: bc1c 1ebd 5412 f6bd a71d ec3d f7d4 f2bd
00000190: c13b f5bd 034b 30bd 7e45 e23d 6a51 5cbd
000001a0: 4032 063e 3663 09bd a833 b63c de27 5c3c
000001b0: 1f9f 08be 0532 cd3d fea2 e33d 4510 74be
000001c0: 7cb6 df3c ac8f fb3d 2b0d 82bd ebf0 c0bd
000001d0: ce6b 29bd 74d3 4a3a 891d 9f3c de9d ce3c
000001e0: 8b0a 4fbc a503 3dbc a31c 823d c151 1e3e
000001f0: 0fc2 713d 5529 54bd 9ef4 233c 6057 84bc
00000200: f84a 113d c1d0 813d 13b4 7cbd ebe8 7f3d
00000210: 2abe 26bd 2c3b 1ebd cad1 bfbd b6fa e2bc
00000220: f883 bf3c 2108 1cb9 a047 853d e7d9 183d
00000230: 5b4c 01be d0f1 963d 8ac7 68bc a180 da3c
00000240: 9382 a23d 1579 793c a42d c7bd 3076 113d
00000250: f743 233d a76e b43d b8ef 2fbe dcf5 90bb
00000260: 5261 64bd 30a2 42bd 654e 68bd d05a 523a
00000270: 21df a9bd e652 29be 56dc 9f3c d943 27bd
00000280: 1830 023d 0752 28bd eafd 54bd 159a abbd
00000290: a62a 923d 030b 19bd 8736 33bc d5d9 caba
000002a0: eb61 3fbc 4dd6 233c c630 083d fa08 b33d
000002b0: 48bc 9cbc e3a2 733d 0fc8 473d 2d97 60bc
000002c0: 2995 e03d 23fb aabd 2888 fcbc 2da6 a23d
000002d0: 9005 80bd 4216 143c d0d0 343d b2b0 cd3c
000002e0: b9bc ecbd bb65 21be f7f3 49be b702 193e
000002f0: 9329 16be 17a7 3b3e 9658 e03a 0b9b 4ebd
00000300: 0f1e bc3d 1a88 403d f7cf c83d 1fad c93d
00000310: 5845 273c 04bb 863c 7dbf ad3d a633 1bbc

controller.controller.lstm_c_bias f4 [2, 1, 100]
0.06728729 0.055145606 -0.0075969063 0.005041687 -0.06759456 -0.007489654 -0.007650837 -0.0077458667
0.01386308 0.014427378 0.024596436 0.03507485 0.006868554 0.028680054 -0.01345031 0.04417913
0.0073201815 0.036237806 0.03422859 0.06798412 0.0378438 0.020787278 0.03847904 -0.04831545
-0.06344078 -0.081239656 -0.029009629 0.07671953 0.08022027 -0.1077262 0.019656504 -0.0385725
-0.0336617 0.14039807 0.037818726 0.026774993 -0.10684248 0.07384348 -0.050210744 -0.04980678
0.022395445 0.060283456 -0.16663714 0.06771766 -0.051546127 0.07647655 0.009674041 0.01604052
-0.028862687 -0.013324313 0.12880938 0.18335913 -0.10987342 0.08558629 0.07486888 -0.12917243
0.06887261 -0.022046352 -0.046872813 0.17101015 0.03694646 -0.10782398 -0.016699027 0.050933074
-0.04152224 0.065017626 0.04644138 0.112943105 0.07396947 -0.10437479 -0.047646485 -0.011861944
-0.056239117 -0.005803482 -0.088905014 0.034284033 -0.09021857 0.04929684 0.05426303 -0.09596367
0.17925054 -0.08148498 0.017733578 -0.0027302196 0.0050130333 0.18667468 -0.093071945 -0.02882755
0.11690811 -0.031654373 0.023012612 0.037300196 0.00092566747 0.057728667 -0.03373858 0.07214437
4.6408684e-05 0.007859112 0.03196428 -0.009067096 0.045452368 -0.07747491 0.009156822 -0.071019776
0.072964765 -0.07098863 -0.07190444 0.01357741 -0.0018180502 0.080250055 -0.039871223 0.003975027
0.17209707 0.013204782 0.009859498 0.02001168 0.047772408 0.10772889 0.07909281 -0.02261527
0.016026521 0.050599758 0.01649964 -0.0863536 0.045841396 -0.009208085 0.13436134 0.069391385
-0.0006163055 0.041244116 -0.0069054905 0.12422769 0.047654122 0.023392813 -0.049761243 -0.042631403
-0.046620473 -0.08721692 0.06163491 -0.047866236 -0.08480735 -0.10408565 -0.073031165 0.041922662
0.01397248 0.052548252 0.0035828918 0.026205935 -0.06711816 0.04630672 0.038096257 -0.015996275
-0.116833426 0.04290464 0.122846216 0.10399088 9.7340795e-05 -0.068565205 -0.12852906 0.03999383
0.040253643 0.033560228 -0.049315263 0.08135555 0.044215873 -0.036558874 0.10849542 0.026313005
0.10822261 0.12277218 -0.054571416 0.041361414 -0.00423159 -0.015245564 -0.024585923 0.026374929
-0.109734714 0.062266666 -0.13148718 0.12692216 0.031022042 0.0022175151 0.0058318526 -0.006693383
0.09846211 -0.1183217 0.045023188 0.14135334 -0.06857864 -0.019630326 -0.038610283 0.0483477
-0.014752778 -0.024090042 0.031887934 -0.022818169 0.0290112 0.060917754 -0.028318064 -0.054359756
00000000: ebcd 893d 5ce0 613d 78ef f8bb bc34 a53b
00000010: 046f 8abd c56b f5bb dfb3 fabb 0ad1 fdbb
00000020: f921 633c cf60 6c3c 777e c93c a5aa 0f3d
00000030: 9b11 e13b 6ff2 ea3c b05e 5cbc 2df5 343d
00000040: 22de ef3b 186e 143d 4733 0c3d 423b 8b3d
00000050: 1a02 1b3d 154a aa3c 339c 1d3d 6ce6 45bd
00000060: 3ded 81bd fa60 a6bd 9aa5 edbc 211f 9d3d
00000070: 864a a43d 8e9f dcbd ad06 a13c 33fe 1dbd
00000080: dae0 09bd 83c4 0f3e cfe7 1a3d 3b57 db3c
00000090: 3bd0 dabd 403b 973d c8a9 4dbd 3202 4cbd
000000a0: a776 b73c c9eb 763d eda2 2abe 8eaf 8a3d
000000b0: 0822 53bd bd9f 9c3d de7f 1e3c 6967 833c
000000c0: 7171 ecbc 384e 5abc 9be6 033e 7fc2 3b3e
000000d0: 5105 e1bd dd47 af3d db54 993d c745 04be
000000e0: 150d 8d3d 8d9a b4bc b5fd 3fbd 491d 2f3e
000000f0: 2c55 173d d2d2 dcbd 66cc 88bc 339f 503d
00000100: 3913 2abd f627 853d 5139 3e3d b74e e73d
00000110: 4e7d 973d 73c2 d5bd f628 43bd 9958 42bc
00000120: fd5a 66bd 232b bebb d513 b6bd 6a6d 0c3d
00000130: 83c4 b8bd 7ceb 493d e942 5e3d 9a88 c4bd
00000140: 748d 373e 99e1 a6bd 0246 913c 7ced 32bb
00000150: 5f44 a43b a627 3f3e 819c bebd c127 ecbc
00000160: 856d ef3d 04a8 01bd f284 bc3c 17c8 183d
00000170: 7ea8 723a e574 6c3d 7731 0abd 6dc0 933d
00000180: f2a6 4238 81c3 003c faec 023d 288e 14bc
00000190: 432c 3a3d 2aab 9ebd 7f06 163c d172 91bd
000001a0: 8d6e 953d 7d62 91bd a342 93bd c973 5e3c
000001b0: a44b eeba 245a a43d 0250 23bd f140 823b
000001c0: 373a 303e df58 583c bb89 213c 89ef a33c
000001d0: 00ad 433d f7a0 dc3d 69fb a13d a943 b9bc
000001e0: 0d4a 833c b141 4f3d 412a 873c 28da b0bd
000001f0: 30c4 3b3d 82dd 16bc 0596 093e 121d 8e3d
00000200: 908f 21ba 97ef 283d 7447 e2bb 166b fe3d
00000210: f830 433d 49a2 bf3c 72d2 4bbd 449e 2ebd
00000220: 1cf5 3ebd c99e b2bd e374 7c3d 630f 44bd
00000230: 7aaf adbd db2a d5bd 5d91 95bd 19b7 2b3d
00000240: d4ec 643c d63c 573d f3ce 6a3b d4ad d63c
00000250: 3f75 89bd 1dac 3d3d d20a 1c3d 9f0a 83bc
00000260: 5d46 efbd c7bc 2f3d cc96 fb3d 2cf9 d43d
00000270: 7123 cc38 ea6b 8cbd 1f9d 03be 92d0 233d
00000280: 01e1 243d 7376 093d cdfe 49bd bd9d a63d
00000290: b41b 353d c2be 15bd d932 de3d 5f8e d73c
000002a0: d1a3 dd3d fb6f fb3d 4786 5fbd 966a 293d
000002b0: 26a9 8abb 88c8 79bc 6b68 c9bc 3c10 d83c
000002c0: 98bc e0bd 550b 7f3d 93a4 06be e2f7 013e
000002d0: f021 fe3c bb53 113b 2019 bf3b 2b54 dbbb
000002e0: 81a6 c93d a652 f2bd 3c6a 383d eebe 103e
000002f0: f572 8cbd c7cf a0bc d125 1ebd 3d08 463d
00000300: a3b5 71bc 7b58 c5bc ec9c 023d 2bed babc
00000310: e5a8 ed3c e584 793d 49fb e7bc 56a8 5ebd

controller.controller.lstm.weight_ih_l0 f4 [400, 36]
-0.21225147 -0.28075454 0.43442583 -0.045229167 -0.3114031 0.10092958 -0.35346004 0.3648822
-0.019496854 -0.0017633708 -0.3284195 0.44792926 0.09067935 0.24525003 0.38656703 -0.28095087
0.23390162 0.16448443 -0.15049519 -0.07588385 0.31071478 0.2907198 -0.1409237 0.45612055
-0.14158459 -0.35544905 0.20908678 -0.03794861 0.17413756 0.18670073 -0.15212756 0.073661834
-0.06171566 0.010744255 0.22271213 -0.24275135 -0.36604077 0.02365125 0.3394827 -0.38224512
-0.4597871 0.11168609 0.033485025 -0.3571578 0.14550829 0.069682576 0.36669144 -0.055176545
-0.06450918 0.3555433 0.41776735 0.0064398 0.2740793 -0.3809317 0.055278182 0.00032374152
-0.16820395 0.08833567 0.20613606 -0.3729622 0.088219106 0.057611044 -0.053570237 -0.05164867
-0.39506987 0.11319977 0.02944871 -0.0056340178 -0.43767238 -0.15852763 0.32392728 -0.29462567
0.40105674 -0.3300129 0.2818435 0.12476545 -0.022184985 0.1105624 -0.36270845 0.35983464
0.3280223 0.37160474 -0.41372672 0.29476193 -0.09309361 0.2557213 -0.021702932 0.34210232
-0.1934558 -0.3706105 -0.038203143 -0.28180867 0.011345437 0.17797114 -0.0935083 -0.41607252
0.1292172 -0.33974734 0.11443628 0.26535174 -0.028783642 0.3036019 -0.37209657 0.05449987
0.09467849 -0.06294313 -0.13837394 0.27287498 -0.36348322 0.18062447 -0.058156755 0.48328057
-0.11659789 0.029215198 -0.21983173 -0.07235939 0.43195218 0.30349147 0.27752894 -0.09622628
-0.102802746 0.3603382 -0.33441553 -0.009866471 0.11679652 0.19988823 0.22873649 -0.16036272
0.22934368 0.35245645 -0.30437922 0.20366935 0.30697885 0.28627154 0.2854249 0.1794101
-0.4292254 -0.4370135 -0.079372615 -0.2817699 0.0622681 -0.34719312 -0.21266393 -0.35427997
0.060629684 -0.27664763 -0.12554196 0.055221822 -0.26129085 0.50743407 -0.10496091 0.005664912
-0.34424743 -0.113932446 0.2621567 0.19523709 0.006869277 0.2430304 -0.3173081 -0.3100195
0.30519646 -0.2793405 0.36076435 -0.43842968 -0.28448623 -0.059065837 0.28227642 0.017009752
-0.20701255 -0.51489973 -0.09971969 0.43008688 -0.09998002 0.04203947 0.26466382 0.164071
0.02818471 0.29407623 0.5411291 -0.14177395 0.08048279 0.1413677 -0.28453013 0.16786064
0.042428926 0.073014714 -0.12813611 -0.13269976 0.089504555 0.23687598 0.31834075 -0.16850783
-0.37611488 -0.12235659 -0.11988537 -0.57973164 -0.108348206 0.25417402 0.20567484 -0.1647783
0.044823896 0.02752621 -0.29854307 -0.3072888 0.11769648 0.19020826 -0.1439604 0.36202028
0.19244431 0.04126231 -0.33570313 0.24270734 -0.059003938 -0.27904832 0.121073574 0.17275223
-0.13175185 0.2572875 -0.18286732 0.035914194 0.09844528 -0.36284003 -0.3251772 -0.32208177
-0.18568464 -0.2919965 -0.35030007 0.055397112 -0.3948598 0.3125841 0.16394167 -0.43444672
0.39768445 -0.07229848 -0.2718659 -0.13611576 0.20317253 -0.42027274 -0.2276136 0.33433643
-0.28473634 0.25641808 -0.017179394 0.2329449 0.097091295 0.20992106 -0.44098905 0.38237303
0.04051745 -0.26739725 0.43769765 0.18226673 0.15797898 0.3286994 0.30168733 -0.121235296
00000000: 7358 59be 0fbf 8fbe 106d de3e 3842 39bd
00000010: 3a70 9fbe 2bb4 ce3d b7f8 b4be d7d1 ba3e
00000020: deb7 9fbc e820 e7ba 9a26 a8be fc56 e53e
00000030: 18b6 b93d d322 7b3e 1dec c53e cbd8 8fbe
00000040: e883 6f3e 9b6e 283e 691b 1abe fe68 9bbd
00000050: 0216 9f3e 3ad9 943e 4d4e 10be a288 e93e
00000060: 8dfb 10be 6bfd b5be d81a 563e 0070 1bbd
00000070: 1e51 323e 7a2e 3f3e 54c7 1bbe 04dc 963d
00000080: 8fc9 7cbd ac08 303c a60e 643e cf93 78be
00000090: b269 bbbe 44c0 c13c add0 ad3e a2b5 c3be
000000a0: 3769 ebbe adbb e43d 9827 093d 63dd b6be
000000b0: 2000 153e bdb5 8e3d fbbe bb3e cd00 62bd
000000c0: 641d 84bd c509 b63e 9ae5 d53e f504 d33b
000000d0: 1f54 8c3e 7b09 c3be 606b 623d dabb a939
000000e0: a83d 2cbe 55e9 b43d 5515 533e e7f4 bebe
000000f0: 38ac b43d 8ff9 6b3d 776c 5bbd 8e8d 53bd
00000100: 9946 cabe 48d5 e73d 6c3e f13c 919d b8bb
00000110: 9816 e0be 1155 22be ccd9 a53e 2dd9 96be
00000120: 4f57 cd3e 73f7 a8be cb4d 903e 0785 ff3d
00000130: 49bd b5bc 8a6e e23d ecb4 b9be 3f3c b83e
00000140: 8af2 a73e fa42 be3e fdd3 d3be 09eb 963e
00000150: dda7 bebd e7ed 823e 59ca b1bc 0928 af3e
00000160: 4719 46be a9c0 bdbe e67a 1cbd 3a49 90be
00000170: 36e2 393c 113e 363e 4881 bfbd 7507 d5be
00000180: 8451 043e 5df3 adbe 925d ea3d 2fdc 873e
00000190: accb ebbc b571 9b3e 7183 bebe 413b 5f3d
000001a0: cce6 c13d 54e8 80bd e6b1 0dbe 45b6 8b3e
000001b0: 791a babe 9ff5 383e c735 6ebd 8d70 f73e
000001c0: e0ca eebd b654 ef3c 921b 61be 2931 94bd
000001d0: d628 dd3e 3c63 9b3e 4618 8e3e 4912 c5bd
000001e0: 3f8a d2bd 407e b83e 8338 abbe fba6 21bc
000001f0: 0433 ef3d 80af 4c3e e639 6a3e 2036 24be
00000200: 12d9 6a3e 2c75 b43e 98d7 9bbe b38e 503e
00000210: 552c 9d3e 2f92 923e 3623 923e 48b7 373e
00000220: 6ec3 dbbe 3cc0 dfbe 1c8e a2bd 2544 90be
00000230: d60c 7f3d 4cc3 b1be 93c4 59be 2f64 b5be
00000240: d556 783d c2a4 8dbe 128e 00be 4730 623d
00000250: eac7 85be 33e7 013f bff5 d6bd baa0 b93b
00000260: 3341 b0be 6a55 e9bd 6739 863e 3bec 473e
00000270: ac17 e13b f6dc 783e 3576 a2be e0ba 9ebe
00000280: b642 9c3e b805 8fbe 1bb6 b83e db79 e0be
00000290: 2ea8 91be 05ef 71bd 8986 903e 0958 8b3c
000002a0: 19fb 53be 78d0 03bf d639 ccbd 5934 dc3e
000002b0: 53c2 ccbd 9431 2c3d 0482 873e 3a02 283e
000002c0: 9fe3 e63c 2991 963e 7087 0a3f 312d 11be
000002d0: 29d4 a43d b2c2 103e efad 91be a9e3 2b3e
000002e0: f4c9 2d3d bd88 953d 1d36 03be 72e2 07be
000002f0: 2a4e b73d 9e8f 723e 8ffd a23e 518d 2cbe
00000300: 2192 c0be 1896 fabd 7686 f5bd 4b69 14bf
00000310: aae5 ddbd 1923 823e 6d9c 523e a5bb 28be
00000320: 4399 373d a57e e13c a3da 98be f554 9dbe
00000330: da0a f13d f4c5 423e 5b6a 13be b95a b93e
00000340: 1f10 453e ab02 293d 48e1 abbe 4688 783e
00000350: 1dae 71bd 6cdf 8ebe 6cf5 f73d f6e5 303e
00000360: f5e9 06be 30bb 833e 9241 3bbe c31a 133d
00000370: ae9d c93d 2bc6 b9be a07d a6be e7e7 a4be
00000380: 1d24 3ebe 9180 95be 885a b3be 15e8 623d
00000390: 102b cabe 060b a03e 53e0 273e cd6f debe
000003a0: 4c9d cb3e 3a11 94bd 0232 8bbe ee61 0bbe
000003b0: 760c 503e fd2d d7be 8a13 69be 252e ab3e
000003c0: f6c8 91be 3b49 833e cdbb 8cbc 1c89 6e3e
000003d0: cdd7 c63d 8cf5 563e 51c9 e1be 66c6 c33e
000003e0: a0f5 253d 4be8 88be e819 e03e 21a4 3a3e
000003f0: 3ec5 213e 4a4b a83e c376 9a3e 364a f8bd

controller.controller.lstm.weight_hh_l0 f4 [400, 100]
-0.18294072 0.3689965 -0.117959596 0.24232225 0.28928903 -0.12148516 0.31554353 0.31002572
-0.015860746 0.16259779 -0.3755396 0.33708814 0.24928892 0.40061438 0.16670614 0.180261
-0.22998957 -0.17852503 0.12315136 0.19391438 -0.10404793 -0.3569924 -0.42384514 -0.0845611
-0.2175544 -0.36849058 0.3375459 0.35925362 0.31892785 -0.07598394 0.3414598 -0.39826384
-0.07012322 0.03782422 -0.011963692 -0.1598362 0.18732685 -0.22597891 -0.13786288 0.19482581
0.09042109 -0.07076796 -0.27808657 -0.34674415 -0.386863 -0.21121243 -0.04334146 0.122910626
-0.07877828 -0.096378826 -0.22074474 -0.15833159 0.014366347 -0.10522451 -0.22522222 -0.118077524
-0.41933218 0.21800898 -0.17701112 -0.16734263 -0.2653906 -0.23281938 -0.21097054 0.15067226
0.32417795 0.18739825 0.3985629 0.19042039 -0.02370811 -0.009730795 -0.20828947 0.28229177
0.33660772 -0.118036054 0.2796337 -0.05018047 0.0033653108 0.3656303 0.28498602 -0.32693332
-0.38848886 -0.04570923 -0.123670764 -0.3612071 -0.0630738 -0.3064818 0.25700042 -0.12357119
0.3662284 0.26578265 -0.07722825 -0.124076225 -0.10363304 -0.026903944 0.15945607 -0.24802186
0.024224808 0.34602374 -0.42879987 -0.002990501 -0.27036735 -0.23870672 -0.091482915 -0.083234
-0.24341594 0.014553731 0.090004794 -0.11576562 0.115676165 -0.3332431 -0.29317448 0.28602198
-0.33851752 0.26245466 0.15618324 -0.4126813 0.17433734 0.06315814 -0.3323102 0.061186854
-0.2116528 0.009720463 -0.22320166 -0.28143013 0.25228038 0.21666054 -0.3324642 0.19782673
0.20433052 -0.28962296 -0.36615124 0.30008635 -0.27517208 -0.3341566 -0.023260085 0.18438743
-0.093764156 0.35319075 0.22885033 -0.23948038 0.09479007 -0.0074497024 0.23511457 0.040847227
0.40237203 0.41737503 0.20745888 0.3171344 -0.118372746 0.036290478 -0.31837064 -0.05541331
-0.21994138 0.35417265 0.3601379 0.014122068 -0.36335644 0.17722897 0.36445218 0.20964566
0.28999022 0.2268279 -0.015644794 0.2975381 0.43461126 -0.1143611 0.0058523626 0.43210408
0.11599207 -0.46155083 0.37352926 0.3551558 0.11935296 0.124952585 0.35199684 0.06006723
-0.39957553 -0.42295253 -0.04537006 0.29387906 -0.05164797 -0.13015775 -0.27814484 0.08194477
-0.31679633 0.117296614 0.10923945 -0.26737988 -0.30728418 0.3647007 -0.16420227 -0.2132015
-0.36397558 0.40412134 0.16640313 0.13407528 0.011619784 -0.055627722 0.24375656 -0.3048722
-0.102898955 0.006410645 -0.29395705 0.048933685 0.08946203 0.07806192 -0.23162195 0.3000186
0.268694 0.40360454 0.0012031832 0.07692565 -0.037112568 0.26039156 0.31403765 0.067811504
0.35664874 -0.29898596 -0.33339712 0.39200434 0.33206084 -0.12816174 0.30055952 0.10588687
-0.32230222 0.060169354 0.0015092219 0.11419005 0.25462556 -0.055105012 0.27125323 -0.37362725
0.18645284 -0.09146166 0.004800442 0.13158984 0.3049073 -0.13075459 -0.42245552 0.32640508
0.012561169 0.44361854 -0.35558403 0.27961597 0.33188662 -0.043976102 -0.11395046 0.1583364
-0.22017412 -0.25203937 0.23721434 -0.42395878 0.40311918 0.15436698 0.1611896 0.059143193
00000000: d054 3bbe 1ced bc3e cd94 f1bd 5323 783e
00000010: b11d 943e 36cd f8bd ec8e a13e b1bb 9e3e
00000020: 65ee 81bc 0980 263e ba46 c0be d196 ac3e
00000030: 9845 7f3e 541d cd3e 04b5 2a3e 5796 383e
00000040: 6382 6bbe 44cf 36be c836 fc3d 7e91 463e
00000050: 1517 d5bd b5c7 b6be 3b02 d9be 5f2e adbd
00000060: 95c6 5ebe ccaa bcbe d1d2 ac3e 17f0 b73e
00000070: 834a a33e 789d 9bbd d2d3 ae3e 3de9 cbbe
00000080: c39c 8fbd 92ed 1a3d 5c03 44bc 1aac 23be
00000090: 9cd2 3f3e 0467 67be ed2b 0dbe 6b80 473e
000000a0: b12e b93d cbee 90bd 5d61 8ebe 7388 b1be
000000b0: e812 c6be 1248 58be d186 31bd 91b8 fb3d
000000c0: 8256 a1bd 4362 c5bd e90a 62be ad21 22be
000000d0: d460 6b3c f37f d7bd a7a0 66be a1d2 f1bd
000000e0: b5b2 d6be bf3d 5f3e 6742 35be de5b 2bbe
000000f0: 47e1 87be 3468 6ebe a908 58be d449 1a3e
00000100: a7fa a53e 54e5 3f3e 7010 cc3e 90fd 423e
00000110: 8337 c2bc ea6d 1fbc d649 55be 8c88 903e
00000120: d957 ac3e e3bc f1bd 262c 8f3e 098a 4dbd
00000130: 8c8c 5c3b e533 bb3e b0e9 913e ce63 a7be
00000140: 03e8 c6be 9a39 3bbd 1947 fdbd 23f0 b8be
00000150: d62c 81bd 2feb 9cbe 8f95 833e e412 fdbd
00000160: 4a82 bb3e aa14 883e d829 9ebd ad1b febd
00000170: 8f3d d4bd a965 dcbc 7448 233e 71f9 7dbe
00000180: 1b73 c63c 062a b13e a88b dbbe 48fc 43bb
00000190: 976d 8abe 896f 74be 655b bbbd 9676 aabd
000001a0: 0742 79be c672 6e3c 6f54 b83d 8616 edbd
000001b0: a0e7 ec3d d79e aabe f71a 96be 7971 923e
000001c0: 2b52 adbe 7560 863e 80ee 1f3e f74a d3be
000001d0: 7d85 323e 0e59 813d 9024 aabe 119f 7a3d
000001e0: 83bb 58be 9442 1f3c fa8e 64be 9c17 90be
000001f0: e52a 813e 43dc 5d3e bf38 aabe 1793 4a3e
00000200: 053c 513e 7649 94be 2d78 bbbe eba4 993e
00000210: 5be3 8cbe 9316 abbe ef8b bebc 0fd0 3c3e
00000220: 6c07 c0bd 6bd5 b43e be57 6a3e 583a 75be
00000230: 4c21 c23d a21c f4bb e0c1 703e 6c4f 273d
00000240: b503 ce3e 2eb2 d53e 1a70 543e 715f a23e
00000250: 696d f2bd 53a5 143d 7a01 a3be 11f9 62bd
00000260: 5038 61be 1e56 b53e ff63 b83e 3f60 673c
00000270: db09 babe 837b 353e 7a99 ba3e 5aad 563e
00000280: 9979 943e 9345 683e 8329 80bc ea56 983e
00000290: 5e85 de3e 2736 eabd 2dc5 bf3b bf3c dd3e
000002a0: 408d ed3d 6450 ecbe 3a3f bf3e fbd6 b53e
000002b0: 536f f43d 24e7 ff3d ee38 b43e 0e09 763d
000002c0: 2a95 ccbe 3c8d d8be f5d5 39bd 5177 963e
000002d0: d28c 53bd 1348 05be 0069 8ebe a9d2 a73d
000002e0: 2133 a2be 3539 f03d efb8 df3d 04e6 88be
000002f0: 5a54 9dbe 0dba ba3e a424 28be 7e51 5abe
00000300: 025b babe fee8 ce3e 9565 2a3e 084b 093e
00000310: e860 3e3c e5d9 63bd 529b 793e 3618 9cbe
00000320: b0bc d2bd 6310 d23b 8a81 96be b06e 483d
00000330: de37 b73d eede 9f3d 4e2e 6dbe 0a9c 993e
00000340: 4392 893e 41a5 ce3e 21b4 9d3a 328b 9d3d
00000350: 5903 18bd 0b52 853e 8bc9 a03e c2e0 8a3d
00000360: aa9a b63e b014 99be 07b3 aabe cbb4 c83e
00000370: e103 aa3e d53c 03be f0e2 993e 37db d83d
00000380: cc04 a5be 2474 763d 15d1 c53a 79dc e93d
00000390: 485e 823e cbb5 61bd b4e1 8a3e 124c bfbe
000003a0: 7eed 3e3e 4050 bbbd 074d 9d3b 7dbf 063e
000003b0: cf1c 9c3e 88e4 05be 174c d8be 911e a73e
000003c0: 5dcd 4d3c f821 e33e 1c0f b6be d329 8f3e
000003d0: 0bed a93e 4920 34bd dc5e e9bd f022 223e
000003e0: 5375 61be 4e0b 81be 51e8 723e 2011 d9be
000003f0: a365 ce3e 6112 1e3e e30e 253e 2240 723d
