model_n_15_64_100.pkl (torch, 608420 bytes, 38 tensors)

init_gate f4 [1, 3]
00000000: 4ca6 aa3e 4ca6 aa3e 68b3 aa3e
0.3333 0.3333 0.3334

mkaarma.models.0.Phi f4 [84, 1]
00000000: 0000 0000 0000 803f 0000 803f 0000 0000
00000010: 0000 0000 0000 803f 0000 0000 0000 803f
00000020: 0000 803f 0000 0000 0000 0000 0000 0000
00000030: 0000 803f 0000 803f 0000 0000 0000 0000
00000040: 0000 803f 0000 803f 0000 0000 0000 0000
00000050: 0000 803f 0000 0000 0000 0000 0000 803f
00000060: 0000 803f 0000 0000 0000 0000 0000 0000
00000070: 0000 803f 0000 803f 0000 0000 0000 0000
00000080: 0000 803f 0000 803f 0000 0000 0000 803f
00000090: 0000 0000 0000 0000 0000 0000 0000 0000
000000a0: 0000 803f 0000 0000 0000 0000 0000 803f
000000b0: 0000 0000 0000 0000 0000 803f 0000 803f
000000c0: 0000 803f 0000 0000 0000 0000 0000 0000
000000d0: 0000 803f 0000 0000 0000 0000 0000 0000
000000e0: 0000 803f 0000 0000 0000 803f 0000 0000
000000f0: 0000 803f 0000 803f 0000 0000 0000 0000
00000100: 0000 0000 0000 803f 0000 803f 0000 0000
00000110: 0000 803f 0000 803f 0000 0000 0000 803f
00000120: 0000 803f 0000 0000 0000 803f 0000 0000
00000130: 0000 0000 0000 803f 0000 803f 0000 803f
00000140: 0000 0000 0000 803f 0000 803f 0000 0000
0.0 1.0 1.0 0.0 0.0 1.0 0.0 1.0
1.0 0.0 0.0 0.0 1.0 1.0 0.0 0.0
1.0 1.0 0.0 0.0 1.0 0.0 0.0 1.0
1.0 0.0 0.0 0.0 1.0 1.0 0.0 0.0
1.0 1.0 0.0 1.0 0.0 0.0 0.0 0.0
1.0 0.0 0.0 1.0 0.0 0.0 1.0 1.0
1.0 0.0 0.0 0.0 1.0 0.0 0.0 0.0
1.0 0.0 1.0 0.0 1.0 1.0 0.0 0.0
0.0 1.0 1.0 0.0 1.0 1.0 0.0 1.0
1.0 0.0 1.0 0.0 0.0 1.0 1.0 1.0
0.0 1.0 1.0 0.0

mkaarma.models.0.initial_state f4 [1, 4]
00000000: e883 d53e 3067 383f 83dc ef38 56cb 9a3e
0.417022 0.7203245 0.000114374816 0.30233258

mkaarma.models.0.A f4 [84, 4]
00000000: 23f8 7d3e 9a44 da3e 944f 0ebd 23b4 f13e
00000010: 1272 b03e cc63 cb3e b111 6d3e 7e96 513e
00000020: c1c8 83bc 18b9 c03e 8d74 e7be 8f90 3cbe
00000030: 069c f2be e6b1 39bf adc1 1cbe 48b5 12bf
00000040: 6fab 84bd ba85 a1be df98 493e 05e9 243e
00000050: 25eb f13e fd75 553f 5320 1ebd ba18 a03e
00000060: 8e86 893e 4ca9 ae3e f99a 0d3e f406 043f
00000070: fd5c e13e 3a57 2e3f 9218 bb3d f120 b53e
00000080: ad55 d9be f3e8 1dbe 8ae9 1cbf f6da a3be
00000090: 826f 16be 820a abbe 4197 1d3d f23a 163d
000000a0: 2cf4 f9bd be9f e7bc ce19 b2bd 2aae 673e
000000b0: f391 de3d 9fad 0dbe 865f 913e 87cf 6b3d
000000c0: 325b 413d 8a46 853e 0934 dbbd 18d2 9c3e
000000d0: 146d babe 9755 49be c2d9 c0be 1047 833c
000000e0: a0ec cebc 8814 2fbe 2597 cb3d 4132 d03d
000000f0: 2d65 7a3e a3f7 a03d d0f0 dc3e 5e19 bb3e
00000100: 73c6 af3e 214d fc3e 6455 ca3d 84f8 8d3d
00000110: 7eb7 17bd c659 c63d 9c31 1bbe 969c 04be
00000120: e584 dd3e 5a1d 5a3e 9fc1 153f 2bb7 b53e
00000130: aef5 29bc e668 aabd c5d0 6d3e fc4c e83e
00000140: 50b9 5fbd 24c9 7e3c b2e3 1fbd 24eb 89bb
00000150: 44d1 adbd 6a91 60bd caaf e4bd 4a19 013e
00000160: 6063 333c 2ec4 f93c 72f2 563d 8a71 ef3e
00000170: ed60 d4bc d54b 8b3c a15a 43bd 78d1 983e
00000180: 1f5c 003f caec ec3e 27b8 913e 5821 a23e
00000190: cd3d e63c 0b46 1dbe abe5 773e 90af efbd
000001a0: b928 4dbc 0508 91bd 1de0 223e 907f 1ebe
000001b0: 9b41 703e 8a56 583e 7845 073d 3322 9f3e
000001c0: b784 c73c e9e8 acbd e75d 993d d980 5e3d
000001d0: 2bc5 873c eb59 febc e0d4 ca3c 92a8 a73e
000001e0: 097b 9a3e e59c b83e 1e43 75be b3a0 bb3e
000001f0: b1ec a93d d638 61ba 7a17 2e3e f8d7 e1bd
00000200: 089c a43e 2f8d da3e c066 543d 65b2 f03e
00000210: 499a 4c3c b710 f2bd 88ed dd3d 2224 5ebc
00000220: d584 c13e 5a06 033f ccb9 c2be 824f 8a3e
00000230: b0bf 543d 8bcd 2cbc eeb3 983b e3a5 723e
00000240: 67b7 f63c 7c21 82bd 08ac 863d 9f6b 0cbe
00000250: 3bc2 9abd 8275 453c 3247 31be 1709 e3bd
00000260: e1bc b33e 6607 e23e bd89 8dbe c69f 403e
00000270: 636d 8d3b 8565 e2bc 102e fe3c 29ed 533d
00000280: f334 1ebe 5633 34bd ed3b 8cbe 35ec c1bc
00000290: 0d84 113e b611 1c3e e47f 953d a293 e4bc
000002a0: 81fd c73e b7af 023f cf6c c0be 87a2 9b3d
000002b0: 22f6 ac3d 8aa6 1b3e 2deb 67bd 4581 b43d
000002c0: 10f4 2dbd 7147 01be c01a b93c b670 4bbd
000002d0: 9ef0 673e 083a 113e 67d4 bb3d f5b9 db3d
000002e0: cb01 72bc b919 83bd f298 663d 56f3 033d
000002f0: 29d2 d43e 2806 ad3e 6fe1 423e 94c3 c53d
00000300: cc77 49bc a3ba 03be d52d 8e3c 0aed 303e
00000310: cff0 993e e691 933e b559 b6bd 59ae d83c
00000320: e67f 92bd 812e 28be b302 523d 9caf e6bd
00000330: 2ec1 3abe ef8d a8bd c9c2 64be 8bb0 7ebe
00000340: f212 9ebe 9245 95be 69e7 6ebe 4457 493d
00000350: 2d6c 41be fd14 52be b820 7fbd 22b8 733d
00000360: 9ffb 9f3d d7be 213d 0fc5 b33d 13a1 ba3d
00000370: 7765 a63c 5070 03be bdd9 d63d ab2f d7bd
00000380: 2876 e73d 99e7 633e 950d a8bd 27b6 cf3d
00000390: b596 16bf 656c e4be 20ff b4be 8e00 803d
000003a0: bcc9 fcbe fb2b f6be aa5c 96be cbc6 83be
000003b0: 9021 87be aca7 f5bd 662b 63be adfb d2bd
000003c0: 4c75 9e3d dd82 873e 4d46 22bd 896f fc3e
000003d0: fd7e 033f 2a63 c73e 1bc0 933e 2f34 c23d
000003e0: 60f7 87be aab9 a2bd e24a 5abe e06c 11be
000003f0: 6f6c e83d c185 313c e8bc 8f3d 01dd 6c3d
0.24801688 0.42630464 -0.03474386 0.47207746 0.3446203 0.39724576 0.2315128 0.20467564
-0.016086938 0.37641215 -0.4520611 -0.1841452 -0.4738466 -0.72537076 -0.15308256 -0.57307863
-0.06478011 -0.31547338 0.19687222 0.16104515 0.47249714 0.8338316 -0.038605046 0.31268865
0.2686047 0.34113538 0.13828649 0.5157311 0.44016257 0.6810185 0.09135546 0.35376695
-0.42448178 -0.15420894 -0.6129385 -0.3200299 -0.14690974 -0.33406454 0.038474325 0.03667731
-0.12204775 -0.028274413 -0.08696328 0.22625032 0.10867681 -0.13835762 0.2839319 0.05757096
0.04720611 0.2603038 -0.10703284 0.3062904 -0.36411345 -0.19661556 -0.37666136 0.016025096
-0.025259316 -0.17097676 0.09940938 0.10165835 0.24452658 0.07859733 0.43152475 0.3654279
0.34331092 0.49277595 0.09879568 0.06932166 -0.037040226 0.09685092 -0.15155643 -0.12950358
0.43265453 0.21300259 0.5849857 0.3549131 -0.010373516 -0.08320789 0.2322417 0.45371234
-0.054620087 0.015550885 -0.039035507 -0.004208939 -0.0848718 -0.054826178 -0.111663416 0.12607303
0.010948986 0.030489054 0.052477308 0.4676631 -0.025925124 0.017003933 -0.047693852 0.29847312
0.50140566 0.46274406 0.2846081 0.31666064 0.02810564 -0.1535875 0.24208705 -0.11703408
-0.012521916 -0.07081608 0.15905805 -0.15478349 0.23462527 0.21126762 0.033025235 0.3108078
0.024355276 -0.084428616 0.074886136 0.054322097 0.01657351 -0.031048736 0.02475971 0.32745796
0.30171993 0.360572 -0.23951384 0.3664604 0.082970984 -0.0008591538 0.17001143 -0.11027521
0.32150292 0.4268584 0.051855803 0.47011104 0.012487956 -0.11819594 0.10836321 -0.013558419
0.37796655 0.51181567 -0.38032377 0.27013785 0.05194062 -0.010547052 0.004660121 0.23696093
0.03011675 -0.06354043 0.06575781 -0.13712929 -0.07556578 0.012051942 -0.17312315 -0.11085718
0.3510504 0.4414627 -0.27644148 0.18810949 0.0043160184 -0.027636299 0.031027824 0.051739845
-0.15449886 -0.04399427 -0.2738947 -0.023672203 0.1421053 0.15241131 0.07299784 -0.027902428
0.39060596 0.5104937 -0.37583014 0.07599359 0.084453836 0.15200248 -0.056620765 0.08813719
-0.042469084 -0.12624909 0.022595763 -0.049668036 0.22650382 0.14182293 0.09171372 0.10728828
-0.014770935 -0.064013906 0.056298204 0.032214485 0.4156659 0.3379376 0.19031309 0.09656444
-0.012296628 -0.12864165 0.017355839 0.17277923 0.30066535 0.2882225 -0.08903829 0.026450323
-0.07153301 -0.1642399 0.051272105 -0.112639636 -0.18237755 -0.08230197 -0.2233993 -0.24872033
-0.3087383 -0.2915464 -0.23330463 0.04915549 -0.18888922 -0.20515819 -0.062287062 0.059501775
0.07811665 0.03948864 0.0877782 0.09112754 0.020312054 -0.12835813 0.10490749 -0.10507139
0.113018334 0.22256316 -0.082057156 0.10142165 -0.5882371 -0.44613948 -0.35350895 0.06250106
-0.4937266 -0.4808043 -0.29367572 -0.25737604 -0.26392794 -0.119948715 -0.22184524 -0.103019096
0.07737216 0.26467028 -0.039617825 0.49303845 0.51365644 0.38942844 0.28857502 0.094826095
-0.2655592 -0.07945569 -0.21317628 -0.14201689 0.11348807 0.010835112 0.07018453 0.057827953

mkaarma.models.0.S f4 [84, 4]
00000000: e883 d53e 3067 383f 83dc ef38 56cb 9a3e
00000010: e883 d53e 3067 383f 83dc ef38 56cb 9a3e
00000020: 0fb4 a23c d5be 4c3c 1f80 ce3c 4a8e 3f3d
00000030: c0c0 983b 4d39 403b 1edf c13b 43d7 333c
00000040: a7d2 163e 4c7d be3d 5105 3f3e 60ee bb3e
00000050: 6529 133e 5c08 ae3d 6e38 413e e54d d43e
00000060: 5844 753e 6bac bc3e 794b 563d 72a6 323f
00000070: 977c 813e e7ee c63e 85e5 643d d28d 2f3f
00000080: 688c 67be 0108 8ebe 66fb 05be ee56 01be
00000090: 163b 7dbe 36ad 9abe 780a 14be 6e85 07be
000000a0: c28e d73e 1184 383f 0903 f83b e855 6c3f
000000b0: e2dd 33be 7d7f 92be 2eea a3bc 9cd0 d03e
000000c0: a7a9 cf3e 42d8 413f 8fc7 85bd a750 763f
000000d0: b5dd fcbe a6b9 23bf 25cd 7cbe 5d92 d8bd
000000e0: 51fa fabe e51c 1bbf f088 8ebe dfd5 69be
000000f0: 93d7 a63e 502f 683e 9de8 c63e ed09 923f
00000100: df1f 9d3e ef20 2d3e 78a1 d53e 8545 7e3f
00000110: 74f8 18be 336f cfbe 0d08 2e3e cac8 2d3f
00000120: 4072 003e 0d09 dbbc 3b06 903e 765a 593f
00000130: d5ed 403f 434e bc3f 1439 48be 2827 853f
00000140: 61ab 3a3e 8c89 2d3f 2ebd d6be ec9c 1e3e
00000150: 7e65 8a3d 305f fb3e c066 ddbe 5c18 a43d
00000160: cbb5 163f 81c4 923f 4159 19be 4029 153f
00000170: 5d5f 323f 3e93 a83f 950f 06be e60f 123f
00000180: 8231 bf3f d440 1d40 44f4 113e c7be f53f
00000190: 1f27 e23d bd3b 9cbe c0b2 123f af91 023f
000001a0: 7374 353f 8fbb 363f b112 173f 2bcc 773f
000001b0: 1f87 843f 4304 f23f 56a1 f1bd dd45 a83f
000001c0: c29c 8c3e f4f4 56bd 40df 1b3f 9f3b f73e
000001d0: 575b 073f 789e 9f3e 3ffb 313f 0a51 2d3f
000001e0: 6faa a43f dda5 0b40 a33a 3f3d c519 b53f
000001f0: f336 213f ab56 4e3f 64c8 a63e 173a 1b3f
00000200: c60a 903f 881e f53f dd8c 093d 6610 983f
00000210: 8575 e03e 5f3a b33e 2af8 f03e 45fa 923d
00000220: 7f58 c33f 7bd4 2040 af22 123e b287 ad3f
00000230: 8cd8 4b3f 1c1f 483f 69ad 2f3f a203 1d3f
00000240: 4fc2 a73e 4067 6b3e e3e0 c63e 11c4 a63c
00000250: 08b1 4e3f 586a 333f d648 4d3f c2cc e63e
00000260: de05 ab3f 3fd8 1b40 8f20 16be 6c1d 673f
00000270: fe59 ed3e 7a20 df3e b4fa d73e 0eb0 323f
00000280: 09b8 7f3d c87d 76be a339 ce3e 9c9d 0c3b
00000290: a89c d23e 3d1c 763f f658 94be a4de 80bd
000002a0: ca24 d83f 917e 3740 fafa 6c3d a4c2 523f
000002b0: f572 793f 4f23 f53f bb24 89be 52be af3e
000002c0: e553 0ebe 6379 f1be b2f8 883e 6ddc 9bbd
000002d0: 53e9 8c3f 32fc 0540 1ada 62be c19e 033f
000002e0: c2f0 fc3e 65c2 873f f523 75be 4283 563e
000002f0: ccf7 ac3f ebf0 1840 53c2 82bd 5eda 773f
00000300: 62ff 993d 5338 01bf a0be 3b3f 3bb0 b23e
00000310: d1b5 ab3f 8eeb 0940 0740 403e deee 4e3f
00000320: 88c3 d1bd 7ca9 30bf dbcb 173f 5b9b a13e
00000330: 1525 203f b1b2 c23e 6532 4f3f 0fe5 2f3f
00000340: 7978 a6be 6682 7fbf 8617 013f 2cae 3fba
00000350: 5ef3 08bf ff12 97bf 4c83 973e 1fbd c7bd
00000360: 2482 753f 526f c53f 493b 073e 551e 2f3f
00000370: f732 c7be b425 6cbf 851a 943e c0e5 9b3e
00000380: 0dde 783f 9e1d c73f c683 123e 98f2 373f
00000390: 1b95 15bf b906 c2bf 30ce 153f 4c05 2c3c
000003a0: ce02 15bf c7ed c1bf 8eb8 163f 1f6b 353c
000003b0: 16a6 e13e 7f7e 4fbe 2f95 8e3f cb44 2b3f
000003c0: 0abc d53e 93e0 27be 20ea 823f 9e5f 4d3f
000003d0: 015d bd3f b1b9 1b40 36f9 103e 2a55 a93f
000003e0: e495 0c3f 16fb bf3d 76e9 7c3f 275d 753f
000003f0: 688e 833f e625 ef3f 6ba0 dbbd c387 603f
0.417022 0.7203245 0.000114374816 0.30233258 0.417022 0.7203245 0.000114374816 0.30233258
0.01986125 0.01249667 0.025207577 0.046766557 0.0046616495 0.002933103 0.00591649 0.010976615
0.14728795 0.09301242 0.18654372 0.36705303 0.1437126 0.08497688 0.18869182 0.4146568
0.23951852 0.36850294 0.05231807 0.69785225 0.25290367 0.38854143 0.05588295 0.68575776
-0.22612154 -0.27740481 -0.13084182 -0.12630817 -0.24729571 -0.30210274 -0.14457119 -0.13234493
0.42101103 0.7207652 0.007568721 0.9231858 -0.1756511 -0.2861289 -0.020009127 0.40784156
0.40559122 0.7572061 -0.065322034 0.96216816 -0.493879 -0.6395515 -0.24687631 -0.105747916
-0.490191 -0.60590965 -0.2783885 -0.22835492 0.32586345 0.22674298 0.38849345 1.1409279
0.30688378 0.16907094 0.41724753 0.9932483 -0.14938527 -0.40514526 0.16995259 0.67884505
0.12543583 -0.026737714 0.28129753 0.8490366 0.753629 1.4711384 -0.19553024 1.0402575
0.18229438 0.67788005 -0.41941208 0.15489548 0.06757639 0.4909606 -0.43242455 0.08012459
0.58871144 1.1466218 -0.14975454 0.5826607 0.6967676 1.3169935 -0.13091882 0.5705551
1.4936984 2.4570818 0.14253336 1.9198846 0.11042618 -0.30514327 0.57304 0.51003546
0.7088081 0.7137994 0.59012896 0.9679591 1.0353736 1.890755 -0.117983505 1.314632
0.27463347 -0.0524797 0.6088753 0.48287675 0.5287375 0.3117559 0.69523996 0.6770178
1.2864512 2.1819985 0.04668678 1.4148489 0.6297447 0.80600995 0.3257476 0.60635513
1.1253288 1.9149942 0.033581603 1.1880004 0.4383966 0.3500547 0.47064334 0.071766414
1.5261382 2.5129688 0.14271043 1.3557036 0.796273 0.7817247 0.6862398 0.6133367
0.32765433 0.22988605 0.3884345 0.020357164 0.8073888 0.7008414 0.80189264 0.45078093
1.3361166 2.4350736 -0.14660858 0.9027927 0.4635772 0.43579465 0.4218346 0.6979989
0.06243137 -0.24071419 0.40278348 0.0021456247 0.41135144 0.9613684 -0.28974122 -0.06292465
1.6886227 2.8671 0.057856537 0.8232825 0.97441036 1.91514 -0.26785836 0.3432489
-0.1389919 -0.47162923 0.2675224 -0.07610402 1.1008705 2.0935178 -0.22153512 0.51414114
0.49402434 1.06062 -0.23939498 0.20948508 1.3513122 2.3897045 -0.06384721 0.96817577
0.075194135 -0.5047657 0.73337746 0.34900078 1.3414861 2.155002 0.18774424 0.8083323
-0.10242373 -0.6900861 0.59295434 0.3156384 0.6255658 0.38026956 0.8093627 0.6870889
-0.32513788 -0.9980835 0.5042652 -0.00073120254 -0.5349635 -1.1802672 0.2959236 -0.09752869
0.95901704 1.5424597 0.13206209 0.6840566 -0.3890607 -0.9224503 0.28926483 0.30448723
0.9721382 1.5555913 0.1430808 0.71854544 -0.5843064 -1.5158302 0.5851774 0.01049931
-0.58207405 -1.5150689 0.5887536 0.011072903 0.44072026 -0.20263098 1.1139277 0.66901845
0.41745025 -0.16394262 1.0227699 0.80224025 1.4794008 2.4332087 0.14157566 1.3229115
0.54916215 0.09374063 0.98793733 0.95845264 1.0277834 1.8683441 -0.10723957 0.87707156

mkaarma.models.1.Phi f4 [22, 1]
00000000: 0000 0000 0000 0000 0000 803f 0000 803f
00000010: 0000 0000 0000 803f 0000 803f 0000 0000
00000020: 0000 0000 0000 0000 0000 803f 0000 803f
00000030: 0000 0000 0000 0000 0000 803f 0000 803f
00000040: 0000 0000 0000 803f 0000 0000 0000 803f
00000050: 0000 803f 0000 0000
0.0 0.0 1.0 1.0 0.0 1.0 1.0 0.0
0.0 0.0 1.0 1.0 0.0 0.0 1.0 1.0
0.0 1.0 0.0 1.0 1.0 0.0

mkaarma.models.1.initial_state f4 [1, 4]
00000000: e883 d53e 3067 383f 83dc ef38 56cb 9a3e
0.417022 0.7203245 0.000114374816 0.30233258

mkaarma.models.1.A f4 [22, 4]
00000000: 130f 4b3e e94e 1e3e eeac 4d3e a6ab 8dbe
00000010: 6b2f b8bd 6b2a 92bd 0c99 96bd 7708 4a3f
00000020: dfb9 40bf 83fc 43be fd3f a6bf 950a 93bf
00000030: 2319 cdbd e5cc b5bd dd0f 16be 2af9 ef3d
00000040: d7d8 ebbe ff91 76be 64ec 1ebf 756a 0140
00000050: 066f 0c3d 76c5 d3be 2723 083f 76bf 3fbf
00000060: ae40 1ebe 6739 34bc fe9d 9abe 6875 41be
00000070: 4a9b e43e d00a 753e cdc9 1f3f 7412 53be
00000080: afb6 333e fc21 9b3d 09f6 8d3e 7f58 33bf
00000090: a3bf 583e e11f bb3d d1fc aa3e 4ccb 44be
000000a0: 1b06 c8bd 1647 da3d 67be 7fbe 14fd 043f
000000b0: e4a8 a13c d69e e83c fb67 0f3d c8f3 b93f
000000c0: 85c1 70bd 2bf5 823d 3517 4bbe efa6 bcbd
000000d0: 8366 25bf 1f1f 8ebe 418e 71bf cad1 d0bf
000000e0: 1c6b 863d 333c 92bd b87e 783e e389 9d3f
000000f0: 385e bc3c 402b a03c c99c 9a3c 72f2 753e
00000100: 8e8d cabd 3c99 103d b7ed 4fbe 3e8f 233f
00000110: b097 3e3e 4a2a 293e b772 963e dd2a 01bf
00000120: e64c 0a3e 1776 a6bc 94ff 863e a179 8e3d
00000130: c215 54be 5b9b d9bc 4f54 adbe 70fd 2ebd
00000140: 765b f03d e09d ef3d 5f93 533e 819f 8fbe
00000150: d152 aabd b683 533d ad00 0dbe 9fc2 7f3d
0.19829969 0.1545979 0.20085499 -0.2767002 -0.08993419 -0.07136997 -0.0735341 0.78919166
-0.75283617 -0.19139294 -1.2988278 -1.1487604 -0.1001456 -0.08876971 -0.14654489 0.11717446
-0.46063873 -0.2407913 -0.62079453 2.0221226 0.034285568 -0.41361588 0.5317864 -0.7490152
-0.15454361 -0.011000014 -0.30198663 -0.18892443 0.44649726 0.23929906 0.624173 -0.20612508
0.17550157 0.075748414 0.27726772 -0.7005691 0.21166854 0.0913694 0.3339601 -0.19218177
-0.097667895 0.1065809 -0.24974976 0.51948667 0.019733854 0.028396051 0.035011273 1.4527521
-0.058778305 0.06394418 -0.19833072 -0.092115276 -0.64609545 -0.2775812 -0.9435769 -1.6314023
0.06563398 -0.07140388 0.2426709 1.2307705 0.022994146 0.019551873 0.01887359 0.24018267
-0.09890281 0.035302386 -0.20305525 0.63890445 0.18612552 0.16520038 0.29384395 -0.5045603
0.13505897 -0.020319982 0.26366866 0.069567926 -0.20711425 -0.026563337 -0.33853385 -0.042722166
0.11736195 0.11700034 0.20661686 -0.2805138 -0.08316577 0.05163928 -0.13769789 0.062441465

mkaarma.models.1.S f4 [22, 4]
00000000: e883 d53e 3067 383f 83dc ef38 56cb 9a3e
00000010: 2d47 163e 041c bd3d ffba 3e3e 56ed b03e
00000020: e867 5b3d c40c 0a3d b33b 8b3d 2128 013e
00000030: e883 d53e 3067 383f 83dc ef38 56cb 9a3e
00000040: 3a88 a2bd 52c2 cabd 9452 34bd b2ae 1a3e
00000050: 91a1 26be 0591 46be 3162 cebd a4b1 b53e
00000060: f921 093c 768f 7a3d 431b 5dbd a6d3 253f
00000070: ff1f 55b9 5ed6 6c3d dcac 89bd cdd9 2b3f
00000080: 6291 97be 8d13 a0be 5332 6bbe e8e0 c63e
00000090: d8b8 a13d 5f8c 113e e5e5 d8bb 7cfc 27be
000000a0: 4424 6abe efdb 52bd f23f cbbe 6189 233f
000000b0: 5b23 50be ebb9 62be d580 19be 3d31 80bd
000000c0: e594 9abe d251 c2bd 5c73 fcbe 48c9 233f
000000d0: ff78 6abe 5b66 e9bc 752e d9be 3a22 493d
000000e0: cac9 74be ea6d 84bc 7cc5 eabe 1b1d 0d3e
000000f0: d709 b83d 28bc 523e 9359 6fbd e9a6 73be
00000100: 20c6 edbe 7dda 5abe 651b 2ebf 7c7a 5d3e
00000110: 74ba f1be 16b2 5bbe 5dcf 31bf ad8a a73e
00000120: dc10 33be a83f 27be 8d38 24be 7e43 793f
00000130: 7d7e 27be 0564 23be 1194 11be 4346 773f
00000140: 7a7c 15bf 7631 93be 935e 55bf 9828 66bd
00000150: 40ab 1fbf 724f 86be fd25 71bf 1342 9abd
0.417022 0.7203245 0.000114374816 0.30233258 0.14675589 0.09233859 0.18626021 0.34556073
0.05356589 0.03370358 0.06798496 0.12612964 0.417022 0.7203245 0.000114374816 0.30233258
-0.079361394 -0.09900345 -0.044024065 0.15105703 -0.1627257 -0.19391258 -0.10077322 0.35487092
0.008369916 0.06117197 -0.053981077 0.64776075 -0.00020325182 0.057821624 -0.067224234 0.6712921
-0.29603106 -0.31264916 -0.22968416 0.38843465 0.07896584 0.14213704 -0.0066192024 -0.16404909
-0.22865397 -0.051479276 -0.39697224 0.638815 -0.20325987 -0.22141235 -0.14990552 -0.062593915
-0.30191723 -0.09488262 -0.49306762 0.63979006 -0.22897719 -0.02849119 -0.42418256 0.049104907
-0.23905101 -0.016165692 -0.45853794 0.13780634 0.08986252 0.20579588 -0.058435034 -0.2379414
-0.4644022 -0.21372409 -0.6801055 0.21628755 -0.47212565 -0.21454653 -0.69457036 0.3272299
-0.174869 -0.16332877 -0.16037197 0.9736861 -0.16356845 -0.15956123 -0.14216639 0.96591586
-0.5839306 -0.28748673 -0.83347434 -0.056191057 -0.6237068 -0.26232487 -0.9419859 -0.07532134

mkaarma.models.2.Phi f4 [21, 1]
00000000: 0000 0000 0000 0000 0000 803f 0000 803f
00000010: 0000 803f 0000 0000 0000 803f 0000 0000
00000020: 0000 0000 0000 803f 0000 0000 0000 803f
00000030: 0000 803f 0000 803f 0000 0000 0000 803f
00000040: 0000 0000 0000 803f 0000 803f 0000 0000
00000050: 0000 803f
0.0 0.0 1.0 1.0 1.0 0.0 1.0 0.0
0.0 1.0 0.0 1.0 1.0 1.0 0.0 1.0
0.0 1.0 1.0 0.0 1.0

mkaarma.models.2.initial_state f4 [1, 4]
00000000: e883 d53e 3067 383f 83dc ef38 56cb 9a3e
0.417022 0.7203245 0.000114374816 0.30233258

mkaarma.models.2.A f4 [21, 4]
00000000: cf3a f43c 7a70 bbbe abdb e83e 1f98 c6bd
00000010: 0529 0cbe f276 d53e 8752 36bf 89dc c2bf
00000020: 69d2 963c 6f2b ac3e 9413 04bf 3227 81bd
00000030: 9fcd 7b3e fc9e bcbe a231 6d3f 0e26 eabe
00000040: 7cca 1abe cb88 eb3e 770b 54bf 13b9 f53f
00000050: 02c8 af3a 0c06 00bf 7381 1b3f a872 dd3e
00000060: eaaf ff3d 035d 09be e498 c73e d95a 71bf
00000070: 6b1c 1e3e 0453 e93d 866a 443e e8d6 7c3f
00000080: 4bc3 f33c e4cb 7dbd 4f16 2c3e 62ff 3bbd
00000090: 954b 523d 7890 673a 193d b23d 62bc 0d3e
000000a0: d4da 3b3c d31b 063f 1a7e 0dbf e9e2 943f
000000b0: 9b6a 42be ab2d 35bc 27ee 8dbe 02c9 26bf
000000c0: 77f2 443d 81c0 26be 0a1a 703e ba5e 1abf
000000d0: f4a8 083e b790 eebe 80a2 3b3f cf84 51be
000000e0: 11dc 783e 4f32 dc3d e65f d13e 1c7f 71be
000000f0: fa34 66bd 67d1 cd3b cac5 bebd c88d 873d
00000100: 6656 e0bd 9f34 ddbc a17a c9bd d9c3 c9be
00000110: 1678 823d 511d 623e 28e3 a9bd 7a80 4a3f
00000120: 568b 08be df44 5c3e 542a b1be 8209 0f3f
00000130: cc07 6cbd cc4c eebd a7c7 983c c424 7e3e
00000140: a888 ca3b 1687 f13c ca4d 56bd 55d0 b0be
0.029813198 -0.3660925 0.45480093 -0.096969835 -0.13687523 0.4169231 -0.71219677 -1.5223552
0.018410878 0.33626887 -0.51592374 -0.06306304 0.24590157 -0.36840045 0.9265386 -0.45732158
-0.15116304 0.46002802 -0.82829994 1.9197105 0.0013411047 -0.50009227 0.607444 0.43251538
0.12484725 -0.13414387 0.38983834 -0.9427925 0.15440528 0.11392787 0.1918126 0.9876542
0.029756209 -0.061962023 0.16805385 -0.04589785 0.051341612 0.0008833478 0.0870306 0.13841394
0.011465747 0.52386206 -0.5527054 1.1631747 -0.1898598 -0.011058251 -0.27720758 -0.65150464
0.048082795 -0.16284372 0.23447433 -0.6030079 0.133457 -0.46594784 0.7329483 -0.20460819
0.24302699 0.10751783 0.40893477 -0.23583645 -0.056202866 0.006281066 -0.09315069 0.066188395
-0.10953979 -0.02700263 -0.09837843 -0.39407232 0.06370561 0.22081496 -0.0829528 0.7910229
-0.13334402 0.21510647 -0.34602606 0.5587388 -0.057624623 -0.116357416 0.01864989 0.24818712
0.0061808415 0.02948336 -0.05232028 -0.34533945

mkaarma.models.2.S f4 [21, 4]
00000000: e883 d53e 3067 383f 83dc ef38 56cb 9a3e
00000010: 2d47 163e 041c bd3d ffba 3e3e 56ed b03e
00000020: e883 d53e 3067 383f 83dc ef38 56cb 9a3e
00000030: d698 a33c a7bf 503c b3f8 cd3c 84c5 423d
00000040: 81af 243e 413b f53d db10 3b3e 4d6b cc3e
00000050: a3ac 073e b217 9b3e ed2d afbd 6b10 183f
00000060: 838a 1f3e d8d5 bd3e 0b7b f0bd b479 113f
00000070: be4b fb3b 7d38 163c f577 9a3b 4bc6 4ebb
00000080: 3b73 843e e727 363e c829 9f3e 96c6 3a3f
00000090: 4f82 813e 1d80 4f3d c290 e43e 4c82 3a3f
000000a0: aa9c 383e 94b6 c43e 392d acbd e7bf 303e
000000b0: 3cdb 273c 23b4 603e 0eb6 6ebe 9692 6d3f
000000c0: c167 ac3e 7953 c73e 37ad 633e 6ccf 533f
000000d0: 50b9 453e c438 cc3e 7189 9abd bebf f53d
000000e0: f282 8a3d 7139 ba3e 0010 92be b212 753f
000000f0: 66e2 293e 55c9 1dbe f45d 023f 1152 bf3e
00000100: 7a56 313e d032 22be 7c5c 073f 4275 a73e
00000110: 5c55 613e fa49 1c3d 9d56 ca3e 79fb 593b
00000120: 99c0 103e 9950 f43e ecd4 89be d7f8 9f3f
00000130: 610c 363d af9c 963e c29c 80be d0bc 37be
00000140: 8be8 853d c406 713e 51db 10be 9165 89be
0.417022 0.7203245 0.000114374816 0.30233258 0.14675589 0.09233859 0.18626021 0.34556073
0.417022 0.7203245 0.000114374816 0.30233258 0.019970339 0.012741006 0.025143003 0.047551647
0.16082574 0.119741924 0.18268149 0.39925614 0.1324945 0.30291516 -0.085536815 0.5940005
0.15580182 0.37077212 -0.117422186 0.5682633 0.0076689413 0.009168741 0.004714007 -0.0031551297
0.25869164 0.17788659 0.31086564 0.7295927 0.2529473 0.050659288 0.4464169 0.7285507
0.18028513 0.38420546 -0.08407063 0.17260705 0.010245141 0.21943717 -0.23311636 0.928018
0.33672908 0.38930872 0.22234045 0.82738376 0.19308972 0.3988706 -0.07545746 0.119994625
0.06763257 0.3637195 -0.28527832 0.9573165 0.1659027 -0.15408833 0.5092461 0.373673
0.17318144 -0.15839696 0.52875495 0.32706648 0.22005218 0.038156487 0.39519206 0.0033261462
0.1413597 0.4771774 -0.2692026 1.2497815 0.0444454 0.29416415 -0.25119597 -0.1794312
0.06538495 0.23537737 -0.14146163 -0.26835302

mkaarma.trajectories.0.w f4 [10, 4]
00000000: 82e1 d5be e754 eebe 868e 97be 54e3 b73a
00000010: 851c c63e 9fc9 f63e 1e9c 5c3e d3ec 7e3f
00000020: a0bc cebe de3e fdbe 9c1f 70be 4cfb f53a
00000030: 18b8 f8bd 2cff febd c6d7 c9bd d107 7e3f
00000040: 4293 253e d701 8c3e 80d2 de3b 9a85 7f3f
00000050: 4bb6 d2be 2185 eabe b1a2 95be fceb 95ba
00000060: 0831 d3be 9a31 01bf 8606 76be f5d1 a8bb
00000070: ba79 3c3e 1405 863d 1369 953e d13e 633f
00000080: 2b7a d73e e512 dd3e 5daf ae3e 53c7 283f
00000090: a2c1 0bbe 48b4 c2bd 427d 26be a7d6 2d3f
-0.4177361 -0.4654915 -0.29600924 0.0014029541 0.38693634 0.482007 0.21543929 0.99580115
-0.40378284 -0.49462026 -0.23449558 0.0018766909 -0.12144488 -0.12451014 -0.09855609 0.99230677
0.16169456 0.27345154 0.006799996 0.99813235 -0.41154703 -0.45804694 -0.29225686 -0.0011438127
-0.41248345 -0.5046631 -0.24025926 -0.005151982 0.1840581 0.06543937 0.29181728 0.88767725
0.42085394 0.43178478 0.34118167 0.65929145 -0.13648084 -0.09507042 -0.1625872 0.6790566

mkaarma.trajectories.1.w f4 [4, 4]
00000000: bcd9 24bf beb1 82be 5e96 7dbf 0000 4936
00000010: 0cb9 293e 210f ec3d f066 4a3e 0090 9a38
00000020: 5cfc 4abe 7560 0ebe 1cb0 70be 8f01 803f
00000030: 0ba6 82be 0055 84bd 4d96 debe 00f0 45b8
-0.64394736 -0.25526232 -0.9905757 2.9951334e-06 0.16574496 0.11526323 0.1976583 7.370114e-05
-0.1982283 -0.13903983 -0.2350468 1.0000476 -0.25517306 -0.06461525 -0.43474045 -4.7191978e-05

mkaarma.trajectories.2.w f4 [6, 4]
00000000: 377c 713e a850 56bd 26ff 073f 0064 cab9
00000010: 6838 353e d6c8 a83e 1072 e2bc a103 803f
00000020: 200f cd3b 96c5 7a3e 097d 8abe 003a 923a
00000030: ea95 c73d 4646 a3bd d1c9 923e 0f5c d53e
00000040: 9689 2f3e ea63 a53e 8044 febc 7cf7 7f3f
00000050: 10bc 103e 52e5 b93e ceb1 0cbe 539c 8e3f
0.2358254 -0.052323014 0.531237 -0.00038602948 0.17697299 0.32965726 -0.02764228 1.0001107
0.0062579066 0.24489436 -0.2704852 0.0011156201 0.09745391 -0.07972388 0.286696 0.41671798
0.17142329 0.3230279 -0.031038523 0.99987006 0.1413424 0.3630777 -0.13739702 1.1141456

controller.read0_bias f4 [1, 15]
00000000: 45aa aabc 3865 b0bb 5926 8c3c 9542 8a39
00000010: 50fd ad3b 19ca a0bb 3d31 bdba 0723 85bc
00000020: 2a41 ffbb 93a6 993b f577 36bc 09f0 32ba
00000030: f9ba c23b e2c8 2dbc 9fba 013c
-0.020833144 -0.00538316 0.01710813 0.0002637102 0.005309738 -0.0049069044 -0.001443423 -0.016252054
-0.0077897506 0.0046890466 -0.011136998 -0.0006825929 0.005942699 -0.010606976 0.007918029

controller.controller.lstm_h_bias f4 [2, 1, 100]
00000000: ef23 7bbe 4aea 0dbd 1c04 58be d487 73bd
00000010: b044 0f3c a508 b43b 2f8b 99bc 343c adbd
00000020: e016 99bd eed5 903d 5426 9fbc d11f 19bd
00000030: bb85 81bc e10e 023d c274 453d bda2 193d
00000040: 074c 883d 26e9 4ebd 66dc d33c 9a28 b7bd
00000050: dd4f 7c3d a470 543d 8bbd 24bd 599e d4bd
00000060: 684b 2bbd 7306 183d 84f1 c53b 1787 64bc
00000070: d061 b0bc fd61 08be 9ae9 cb3c 7b60 063e
00000080: 66fe 5c3d a554 8e3d 000a 2d3d f9b1 103e
00000090: 237e 24bd 6191 30bd 31ca d83d 6556 2f3d
000000a0: b5a9 b3bc 9ebd b93d 52dd 5eba b34e e5bc
000000b0: 8047 e03b 0feb 03bd 558c 953d dd31 e03d
000000c0: e8b3 143d 5b08 f9bc eb77 85be f3c0 6a3c
000000d0: 255c 013e 16cc c83d ad91 ff3c 31f1 563d
000000e0: 7181 3f3d db18 e5bd 8bf2 03bd e88b b1bc
000000f0: 2434 25ba 3e60 36bd 54da 0dbd a708 d43c
00000100: fc15 c33d 061e 8f3d b46d 0bbe c178 873d
00000110: 53cb 8dbd 3960 f63d 7d12 9bbd 9698 193d
00000120: 1989 c2bd 6594 ad3d 3cbf df3c 278f 4bbd
00000130: c967 eebd d97a a53d ab4e ddbc d82f e9bb
00000140: f86b 933d 5314 a9bd f597 a8bd 4187 f23d
00000150: e387 763d 81bc a0bc a3fe 3b3d f45a a03c
00000160: 1a80 adbd 85b7 8d3c c5b6 2abc c276 adbd
00000170: a50c 463e 228a af3d fdca e03d a6e7 98bc
00000180: f731 673d afbe 3c3c 8516 153c 435f 9abd
00000190: 6435 97bd fc6b 17be 6df1 4c3e c01f bbbd
000001a0: 121f aabd 715d 403e a045 763c 9e29 b9b9
000001b0: de61 c13c ce64 f63d 73b6 853d a785 e13c
000001c0: e4f9 3f3d 52fb f9bd faf6 0dbd 2de8 0ebe
000001d0: 6429 b5bb 173a 03bd 2aad 813c a7de 583c
000001e0: 9b30 c1bc 46ad e8bd dadb 1abe ac48 cdbd
000001f0: 6f28 d13c de99 5c3d a6ea d1bd 496d a83d
00000200: 4545 15be d138 8cbd ef88 ae3d 9b99 00bd
00000210: 8de2 a33b c553 d43d f777 66bd a11b b33d
00000220: b114 0c3e b5ac 943d f896 c93c 7391 9dbc
00000230: ddfb 6f3a a612 81bc 361f ac3c c89b f13b
00000240: 6527 9bbd 957b 7f3c 2433 20bc c7f6 5dbc
00000250: df85 613d dad4 a7bd 7034 38bc dbe2 2bbd
00000260: b46b fbbd e645 b5bd c64b 18be f43a 503e
00000270: 4f60 36bc 7ecd 41bd abcc 493d 8b65 9ebd
00000280: 2777 c1bd 5465 9e3d 88ed a8bd f4cc 103d
00000290: 0de5 b6bc 957c 56bd f8ef 8abd a2f4 8e3c
000002a0: 34da 99bd 83a6 88bd bb04 793d 2f30 38bc
000002b0: 2949 e03c 7959 b1bd 6e6b 59bd c415 8cbd
000002c0: 3f6d c3bd acc9 d23c 346b d73d aba5 e73d
000002d0: 15ab bebd d1f5 843d 3221 193e 0795 1f3d
000002e0: c188 863d db8d 96bd a851 003d 1ce2 5d3d
000002f0: 95d3 dc3d 6a2b 3c3d 9271 65bd c09d 48bc
00000300: 29d1 363c 19a9 0abe ff15 b4bb 1e9b 0ebd
00000310: 8579 47be ec6a 77ba 3a07 35be ef2a e63d
-0.24525426 -0.034647264 -0.21095318 -0.059455708 0.008744404 0.0054941946 -0.018743126 -0.084587485
-0.07475066 0.07072054 -0.019427456 -0.037383858 -0.015810838 0.03175247 0.048207052 0.037508715
0.06655126 -0.050515316 0.02586193 -0.08943291 0.0615996 0.051865235 -0.040219825 -0.10381765
-0.04181996 0.037115525 0.006040754 -0.013948224 -0.021531016 -0.1331863 0.024891663 0.13122742
0.05395355 0.069497384 0.042245865 0.14130391 -0.040159356 -0.043107394 0.1058544 0.042807
-0.021931509 0.0906937 -0.0008501607 -0.027991628 0.006844461 -0.03220659 0.07302157 0.10947011
0.036304384 -0.030399492 -0.26068053 0.014328229 0.12632807 0.09804551 0.031197393 0.05247611
0.046754304 -0.111863814 -0.03221373 -0.021673158 -0.000630202 -0.044525377 -0.034632042 0.025883032
0.095256776 0.069881484 -0.13616067 0.06614829 -0.06923547 0.12030072 -0.07571886 0.037499033
-0.094988056 0.0847557 0.027312867 -0.049697068 -0.11640889 0.08080072 -0.02701505 -0.007116299
0.07198328 -0.0825583 -0.082321085 0.11842204 0.060188185 -0.019621136 0.045897137 0.01957462
-0.08471699 0.017299423 -0.010419552 -0.08469917 0.19340761 0.085712686 0.10976217 -0.018665146
0.056444135 0.011520072 0.009099607 -0.07537701 -0.0738323 -0.14787287 0.20013972 -0.09136915
-0.083067074 0.18785645 0.015031248 -0.00035316957 0.023606237 0.12030946 0.0652894 0.02752955
0.046869174 -0.12206139 -0.034659363 -0.13955756 -0.005528616 -0.03203782 0.015829641 0.013236678
-0.023582747 -0.11361174 -0.15122929 -0.10023627 0.025531976 0.053857677 -0.10249834 0.082239695
-0.14577205 -0.06846774 0.08522212 -0.03139649 0.005001372 0.1036754 -0.05626675 0.08745504
0.13679768 0.07259504 0.02460812 -0.019234395 0.0009154657 -0.015755963 0.021010976 0.007373307
-0.07575873 0.015593429 -0.009777818 -0.013547606 0.05505931 -0.08194895 -0.011242971 -0.041964393
-0.12276402 -0.08851223 -0.14872655 0.20334989 -0.01113136 -0.047315113 0.049267452 -0.077342115
-0.09446555 0.077341706 -0.082484305 0.03535171 -0.022326017 -0.052364904 -0.06784052 0.017450634
-0.07512322 -0.066723846 0.060795527 -0.011241957 0.027378635 -0.08659644 -0.05308097 -0.06840089
-0.095423214 0.02573093 0.10518494 0.113108955 -0.09309975 0.06492198 0.1495407 0.038960483
0.065690525 -0.073512755 0.031327873 0.054170713 0.107825436 0.04593984 -0.056016512 -0.012244642
0.011158266 -0.13541068 -0.005495786 -0.0348159 -0.1947995 -0.0009438235 -0.17678538 0.11238658

controller.controller.lstm_c_bias f4 [2, 1, 100]
00000000: 7803 7fbd 97b8 fc3c a1b9 84bd 34d9 34bb
00000010: 9f03 e3bd 6a3b 08be c79f cbbc 6fd2 0d3d
00000020: a261 09bd e8f5 81bd d0f8 983c 4eee 563d
00000030: a3d0 e8bd 1c37 8c3d e0a0 18bd e653 283d
00000040: 0152 1abd 4990 aabc 3f8d 84bb a80f a0bd
00000050: 3c57 2e3e 3542 863d 6f7c e53b d21f 5abb
00000060: c0dd 813d 8fae c73d fd3e 4bbc defa 683d
00000070: a7f9 5b3d 5301 f1bd 607f 393e 19a4 083d
00000080: e633 c0bc 7d07 613a 5e4a 12bb d225 393c
00000090: 516f babd ca87 a3bd c22c 133d 7c7c 5dbc
000000a0: 8816 4b3d 8ed4 6dbd e81f f33d ac56 773d
000000b0: 16f6 e3bd 379c 54bd d625 1bbe eadc 0abd
000000c0: 6429 ec3b e61f 38bc e1df 963c f67c 18bd
000000d0: c057 843d c4b1 b0bd e1e0 333c e99a 76bd
000000e0: 0df4 eaba 8bc4 ef3c ca83 5dbd fbb9 a93d
000000f0: 5e30 d1bc af63 3bbe b3f7 bbbb 2e46 e43d
00000100: 4e27 03bd 55ac e73b e242 d9bd ff6a df3d
00000110: 5a61 8ebd 3920 773d 023d 133d a2d8 0d3d
00000120: c651 8fbb 172e 813c e9e1 f4bd 2a1c e43c
00000130: d623 19bd 6776 10be 1f1c 40bd bb64 c43c
00000140: e7bc 893d 9c94 843d 0cde 603c 66ba 43bd
00000150: 6d54 9dbc 979a 263d 5107 3bbc 61cf 4a3d
00000160: 13f5 dbbd c9c2 debd 8dc5 563c 6d04 d33d
00000170: 2736 f93b 7e7b ea3d b25e 243c c177 e63c
00000180: 546a 66bd 1503 d63b 03d0 30bd 4a99 76bd
00000190: 9cff 573d 429a 813d 8e6c 06bd e040 eb3c
000001a0: 17c5 d3bc e67a 28bd 6851 61bd 50eb e93d
000001b0: edcd afbc ddc6 833d 5c5c 3bbd 5dfe 0a3e
000001c0: 32f4 f5bc 377b 7d3b 2c71 6ebc f04a b13c
000001d0: 5ad3 1f3d 8824 6fbd 52f4 413d 4520 d63d
000001e0: 7f66 caba 4d90 b23d 4570 10be 3e1d a33d
000001f0: fe75 5c3d 8217 3c3d 3075 f33c a3fe 67bd
00000200: 6885 c2bc 6bec 903d e6b1 933d fa5e 013e
00000210: d7e0 543d ef66 55bd 5ada 81bc 34df e63c
00000220: 8f0f 41bc d469 bf3c 5c65 c3bd 3847 863d
00000230: 032d 933d 428d 13be b3aa 4abd fbe9 203d
00000240: 9e2f ab3d 1d8d 5ebc d43c 0dbd 5303 9ebd
00000250: 91e4 eb3d 3086 f33d 45a6 0a3d 1dfb 8fba
00000260: 8c49 bf3d 7f0d 073c 14cb d13b 9567 853d
00000270: 74fc 72bd dba8 48bd a458 b0bd f5b5 5ebc
00000280: 3c57 8d3d cca2 eebc 8923 0fbe e9df 123c
00000290: c5d1 c3bd 58fe f1bd 00a6 913c 7fce f0bc
000002a0: 79ed bebb 92ac 4c3d 039c cb3d 467a 0dbc
000002b0: 5cc0 61bd c542 e3bd d1c5 21bd a5e6 9d3d
000002c0: db0e 5fbc 241f af3d 059f 163e ed6e 4ebd
000002d0: 47df ec3d 542a 2fbc 356b f6bc 89f2 853d
000002e0: 5534 c7bd 22c9 8bbd 9dd2 2e3d 0b31 843b
000002f0: cec8 8a3b 2262 e03d a5c6 593d da64 f63c
00000300: 2fd9 c5bc e98f f0bd 042a c9bd a2ac 963a
00000310: 65ea 30bd 6cdc 0fbd b4fc b1bc 34c6 40bd
-0.062259167 0.030849738 -0.064807184 -0.0027595283 -0.11084675 -0.13303915 -0.024856461 0.034624513
-0.033540376 -0.06345731 0.01867333 0.05247336 -0.11367919 0.06846449 -0.037262797 0.041095637
-0.03767586 -0.020820754 -0.004045158 -0.07815486 0.17025465 0.06555597 0.007003359 -0.0033283127
0.063411236 0.09750091 -0.012405154 0.05687987 0.053704884 -0.11767831 0.18114996 0.03335962
-0.023462247 0.00085841847 -0.0022322158 0.011300521 -0.09103263 -0.07984884 0.035931356 -0.013518449
0.049582034 -0.058064036 0.1187132 0.06038539 -0.111309215 -0.05190679 -0.15151152 -0.033902086
0.0072070826 -0.011238074 0.0184173 -0.037228547 0.064620495 -0.08627656 0.010978908 -0.060206328
-0.0017925516 0.029268524 -0.054080762 0.08287426 -0.025535759 -0.18299745 -0.005736315 0.11146198
-0.032019906 0.007070104 -0.1060846 0.1090908 -0.06952162 0.060333464 0.035946853 0.034630425
-0.004373762 0.015769048 -0.119571514 0.02784546 -0.03738769 -0.14107667 -0.04690182 0.023973813
0.067254834 0.064736575 0.013724815 -0.047785185 -0.019205296 0.040674772 -0.011415319 0.04951418
-0.107401036 -0.10876996 0.013108623 0.103035785 0.0076053324 0.114493355 0.010032343 0.028133275
-0.056253746 0.006531129 -0.043167125 -0.06020478 0.052734002 0.063282505 -0.03281837 0.028717458
-0.025850816 -0.04113283 -0.055009276 0.114218354 -0.021460498 0.064344145 -0.045742378 0.13573594
-0.030023668 0.0038678178 -0.014553349 0.021642178 0.03901992 -0.05838445 0.047352143 0.10455374
-0.0015441923 0.087189294 -0.14105327 0.07964562 0.053823464 0.045920856 0.029718965 -0.056639325
-0.023745254 0.07076343 0.07211666 0.12633887 0.051972236 -0.05210012 -0.015851188 0.028182603
-0.011783495 0.023365892 -0.09540817 0.06556553 0.0718632 -0.14409354 -0.049479198 0.03928564
0.08358692 -0.013583449 -0.03448184 -0.07715478 0.11518205 0.118908286 0.033849973 -0.0010984872
0.093402 0.008242964 0.0064023826 0.06513897 -0.05932279 -0.048989158 -0.08610657 -0.013593187
0.06901404 -0.029130362 -0.139784 0.008964517 -0.09561495 -0.1181609 0.01777935 -0.02939534
-0.005826649 0.049969263 0.09941866 -0.008635109 -0.05511509 -0.1109672 -0.039495293 0.077100076
-0.013614382 0.085508615 0.14709099 -0.050398756 0.11566024 -0.010691244 -0.030080417 0.065404005
-0.097267784 -0.068254724 0.042681325 0.0040341667 0.0042353636 0.10956217 0.053167958 0.030077387
-0.024151413 -0.11746199 -0.09822467 0.001149554 -0.043192286 -0.03512232 -0.021726944 -0.04706402

controller.controller.lstm.weight_ih_l0 f4 [400, 36]
00000000: 8ba4 c3be 7536 31be 3a26 df3e 81f9 c53e
00000010: 380d 93be 8378 e03d 7e4a 94be cbd7 6b3e
00000020: 5e9c 4a3e 140f 4dbe e9a1 e23c 12c6 b9be
00000030: fc21 713c e658 7b3d c570 6fbe 1dc7 c03b
00000040: 6d04 10bd 44d5 343e 6364 dbbd e017 e13e
00000050: 9c58 ecbe 2a7f e13d d716 133e e3a9 d33e
00000060: fd61 ae3e 307c aabe 403f e1be 196c 033e
00000070: d461 173e 1f2b 01be 92b5 9e3d 454b 88be
00000080: 46bf e0bd 3899 24be 86fc 283e 2243 133e
00000090: fe54 003f 976e 4e3e da2f be3e 0d1b d7be
000000a0: 1c58 57be 7746 8a3d d215 ad3e 881a 9abe
000000b0: b430 79be 7513 90be a7ff 513d 8ae8 eabc
000000c0: 8d7c 0a3f e37d 31be 2703 79bd 0a6f 283d
000000d0: fb14 e63e 2f4d 90be 919a e4bd 40c9 eb3d
000000e0: 4408 4d3d 74ee 43be beef aebd 2c9f 383e
000000f0: 9703 b83e 5bbf cabd 6ce0 c4be d60d 973e
00000100: 0f82 d93d 043c fdbc ddf4 a33e 055e 9cbe
00000110: 5696 c3be f533 8bbe 1b0a 4fbe 915f 063e
00000120: 2fe5 b13e 9a0f 7cbe e226 03bd eb81 813d
00000130: 81c7 0fbe 6383 96be ea0e a2bc bd27 adbd
00000140: c09f fd3d 000b b63e d5bf 0a3f 19eb 673e
00000150: b67a 5fbc 47c9 b8be 4013 6cbe 0d5e 0a3e
00000160: 2f44 7ebd 3cbd bd3e 391f 8cbe 09c0 1f3d
00000170: 4991 f8be 1cf9 583e a763 c63e 8a53 a1be
00000180: be07 7c3e dd22 8f3e 11d3 603e f672 cfbe
00000190: 63b9 6d3e 18f1 c53e d80c d9be f6b4 76be
000001a0: 691a d93d ef2d 793d 0bab 863b 6ff3 9e3e
000001b0: 8fd6 ce3d da74 b2be e538 a03e f11f 6ebe
000001c0: 227a 873e 1c9e a4be c80c c0bd c3b7 433e
000001d0: 3289 1dbe d6d0 723e a325 2cbe 3d3c 2dbe
000001e0: c611 99be e09f c23d 1b59 c13b 17d9 8a3e
000001f0: 7358 2bbe fd30 bdbb f37a 113e 6114 36bd
00000200: 7b81 973e e908 89bc 8e48 80be 993a 85be
00000210: 66f3 4fbc e3b6 a6bd c8a1 bb3d 3c10 923e
00000220: b3cc 3ebe f9e5 a6be 32ce 0a3d 6726 133d
00000230: 8627 65bd 6f4c 503e 77cc 98bd 2110 cbbe
00000240: 221b 8b3e e7e3 40be 4160 dcbe ce77 9ebe
00000250: d6cd 73be fd75 adbe 4a5a 9dbe 79fb d3be
00000260: 1e13 a13e 849a 2d3b db66 d1be d522 d1be
00000270: a4c0 3f3d 8bbc c63e ba24 abbd 0c1c b0be
00000280: 1bdf 9b3e e837 afbe b125 d1bd 5a0b cd3e
00000290: 48a4 ee3d 806d 53be 3651 6cbe 9d31 c43e
000002a0: cd6d b23e e415 ad3d 7dc1 a23e 8419 6bbe
000002b0: 6e85 d1be b8cf f0bd ad0f a93e c83e 853e
000002c0: 67d0 dd3c 9eb0 6dbe 693d ac3e 8390 8c3e
000002d0: 216a 803e be8a fd3e 5106 99be 856d 5abe
000002e0: f7f2 413e 197f 113d 6bb2 37be 929d ec3e
000002f0: 1ee2 a4bd 0a39 da3e f8bb 0a3e 0005 b23d
00000300: afbc 883e 2cc8 713e b32d 863e 2b61 a83e
00000310: 8b12 11be ea96 fc3c 5673 d53e 421e bc3d
00000320: 792f 7fbe a5f4 f0be e6d6 4cbe 72a4 15be
00000330: c937 17be 3591 a73e 86de bb3e 9424 99be
00000340: eb59 92be 33f2 bfbe c998 afbd 876a 843e
00000350: ce2f 7f3e 49c4 1cbe 12ee 553e 662e 4d3d
00000360: db8f dbbd f164 9bbe 64f1 0b3d 8396 393e
00000370: dec3 13be a24c b6be 8c5d 97be ad32 d4bd
00000380: 58f9 2abe 1208 da3e 3a6b bcbd cc8a 923d
00000390: 7403 433d 3e3c 32be 2646 2a3d 615b d43e
000003a0: efc2 cfbe 22e3 8cbe 3d73 0f3f 946f e33e
000003b0: 1bd3 903e 2738 80be faa5 b93d f3ba 7cbe
000003c0: 896e 8ebe f2c5 4bbe 3037 3cbe 0ba5 ac3e
000003d0: b204 e2be 98b4 cdbe 4eae 96be a84e a83b
000003e0: 5a23 e43e 46e0 7abe 8b40 3cbd 94f9 a33d
000003f0: 9c11 9e3e af42 943e 24f1 afbe a40b 85bd
-0.38211474 -0.1730593 0.43583852 0.3866692 -0.28721023 0.10960486 -0.28963083 0.23031537
0.19786212 -0.20025283 0.027665095 -0.36283928 0.014717575 0.061364077 -0.23382862 0.005883111
-0.03516047 0.1765948 -0.107125066 0.43963528 -0.46161354 0.11010583 0.14364181 0.4134055
0.34059134 -0.33297873 -0.43993568 0.12834205 0.14783412 -0.12614106 0.077494755 -0.26619926
-0.109739825 -0.16074073 0.1650258 0.14381078 0.5012969 0.20159374 0.37145883 -0.42012826
-0.21029705 0.06751721 0.3380571 -0.30098367 -0.24334985 -0.28139845 0.0512692 -0.028675336
0.540963 -0.17333178 -0.060794022 0.04112152 0.44937882 -0.28183886 -0.11162294 0.11512995
0.05005671 -0.19133931 -0.08541821 0.18029469 0.3594024 -0.098997794 -0.3845247 0.29502743
0.1062051 -0.030912407 0.32022753 -0.3054048 -0.38200635 -0.27188078 -0.20218699 0.13122393
0.34745166 -0.24615327 -0.032019503 0.06323608 -0.14040948 -0.29397115 -0.019782502 -0.08454845
0.123839855 0.35555267 0.5419896 0.22648276 -0.013640096 -0.36091062 -0.23054218 0.1351244
-0.062076744 0.37058437 -0.2736757 0.0390015 -0.48548344 0.21188778 0.38747904 -0.31509048
0.24612328 0.27956286 0.21955515 -0.40517396 0.2321525 0.38660502 -0.42392612 -0.24092469
0.106007405 0.06083482 0.0041097454 0.310451 0.100995176 -0.34854776 0.31293407 -0.23254372
0.26460367 -0.32151878 -0.09377438 0.19113068 -0.15384367 0.23712477 -0.16811232 -0.1691751
-0.29896373 0.0950315 0.005900515 0.2711875 -0.1673296 -0.005773662 0.14207058 -0.04445303
0.29590973 -0.016727882 -0.25055355 -0.2602127 -0.012692308 -0.081403516 0.09161717 0.2852801
-0.18632774 -0.3259733 0.03388805 0.035925295 -0.055945896 0.20341657 -0.074608736 -0.39660743
0.27169138 -0.18836938 -0.43042186 -0.3095078 -0.23808989 -0.3387908 -0.30732948 -0.41402796
0.31459898 0.0026489804 -0.40898785 -0.40846887 0.046814576 0.38815722 -0.083566144 -0.34396398
0.30443653 -0.3422234 -0.10212267 0.40047723 0.11652428 -0.2064724 -0.23077855 0.38319102
0.34849396 0.08451441 0.31788245 -0.22958952 -0.4092211 -0.11758369 0.33019772 0.2602446
0.027076913 -0.23211905 0.33640602 0.27454004 0.2508097 0.49519914 -0.29887632 -0.21330841
0.1894034 0.0355216 -0.17939155 0.46213967 -0.08050941 0.42621642 0.13548267 0.0869236
0.26706454 0.23611516 0.2620674 0.32886633 -0.1416723 0.03083368 0.41689557 0.09185459
-0.24920453 -0.4706165 -0.20003852 -0.14613512 -0.14767374 0.32727972 0.3669321 -0.2991072
-0.28584227 -0.3748947 -0.08574063 0.25862524 0.2492058 -0.15309252 0.20891598 0.050093077
-0.10720798 -0.3035045 0.034165755 0.18123822 -0.14430186 -0.3560534 -0.29563558 -0.10361228
-0.1669668 0.42584282 -0.09200139 0.0715538 0.047610715 -0.17405793 0.041570805 0.41475967
-0.4057841 -0.2751704 0.56035215 0.44421065 0.2828606 -0.2504284 0.09064861 -0.2468069
-0.27818707 -0.19899729 -0.18380427 0.33719668 -0.44144207 -0.40176845 -0.2942986 0.0051363297
0.4455822 -0.24499616 -0.04595999 0.080065876 0.3087281 0.28957126 -0.34363663 -0.06496361

controller.controller.lstm.weight_hh_l0 f4 [400, 100]
00000000: de4c c03e 836e a4bc 0af2 9cbe 6928 afbe
00000010: 7565 cf3e 42b2 29be 6b11 cebe f46d 36bd
00000020: f778 c0be f5b3 493d 6515 813e 0972 5ebe
00000030: e6c4 91be 7e0e ab3e 3467 8fbe d9bb a7be
00000040: 6b66 d63e 49cf babe 34cc 3f3e 1a56 dbbe
00000050: c0a7 d8be efa8 763e 9a75 1f3e 7737 6b3e
00000060: 9bf6 afbe d457 99be fc8b 9fbe 18f6 583e
00000070: ba23 9b3e 1fbe 1d3e 0cc2 7e3e bdac a5be
00000080: 4215 9d3c 81bd 183e 8c17 d5bd 5578 8fbe
00000090: 0f2f 753e 658e 0ebe e0a7 263e 8db9 d23e
000000a0: 84c0 8bbe e5b7 44be 5f82 d53c d097 31be
000000b0: 0ec6 e83e 801f b2be 7527 c3be aeb5 1fbe
000000c0: eb58 deba 4029 99bd 7cf3 5cbe 2cd3 99bc
000000d0: a6c6 11bc b59a 1a3e 77a3 0c3d 2f1a 7d3e
000000e0: 9ead d93e ba2d 21bd 5a2a b73e e5c8 da3e
000000f0: 7eab 92bd 3211 7b3e e430 1e3e 3a2f 703d
00000100: c645 8ebd 62a3 913e 1532 99be 1c39 1d3e
00000110: 3400 f33c ae7f 983e 949b 3d3e a25e ecbe
00000120: 89ee 1a3e 990e 763e 1663 c43e 3d5f 893e
00000130: 825b 863e f373 713e 3280 acbe dd24 b1be
00000140: 3780 0e3e d581 8ebe 8a85 2dbe 5100 5a3c
00000150: 868c da3d 2f59 c73d fc9a c83e 1f2d 993e
00000160: 76d6 8ebe fd86 b33e dff1 de3d ccb1 1abe
00000170: cfa2 593d 5ca2 acbe d6c1 cf3e d0c0 a3be
00000180: 289e 7bbd e908 14be 6745 0c3e 866c e43d
00000190: 3358 33be 3255 4fbe 9f91 7f3e 8277 983d
000001a0: 05cf 9f3e 8480 2bbe 2946 5c3d 1d4e 13bd
000001b0: 4e45 88bd 04af a0be ff65 dcbd d8d1 aebe
000001c0: 3b89 803d 554a 9c3e 9e11 4b3e 93fb 4b3b
000001d0: 0d21 dd3e f8bb 84be 2096 e5bd 0d53 b7be
000001e0: f90c 7b3e 72df 4f3d 5bcb 9b3e 320d 763e
000001f0: 614f a3be 0e2b d8bd 8acc 89be b960 a2be
00000200: b100 70be 5b37 0cbd a8c9 a8be c3df 3ebc
00000210: db7e 043d a87f de3d bcbf c2bd 96b3 03be
00000220: 728a c5be d92b 00bd 557c 603e 5667 f3bd
00000230: 6f8a 16be ec6e a43e 929b bfbe d19b 1bbe
00000240: a045 ca3d 0423 543e 6dc9 15be 86fc c73e
00000250: e522 2c3e add5 babe eb53 3abe 236a 54bd
00000260: b6f3 693e 405b 373e d267 873e 02fc 68be
00000270: 2ccf 7cbe 9a11 dabe 7c89 a7be a70f 083c
00000280: b822 3abe 091c 16be fdc9 36be 15f3 973d
00000290: d00a b1bc 3c29 fa3d d777 a0bd f52b bebe
000002a0: 1784 e03e 54cd bf3e da69 bb3b d2b6 3a3e
000002b0: 80a2 3fbe 2f20 dfbd 05d2 433c 93e5 01be
000002c0: 8d6c b93d f19e 823e 2a2b 4e3d 6401 7d3d
000002d0: d51c a8be 8bb4 d6bd 6665 1c3e 2bca 51be
000002e0: 52ef 043e 8c08 cbbd 112a a3bd 58c1 ca3e
000002f0: c72d ea3c 87e2 1bbe 8505 d6be c6bd cbbe
00000300: 491e 393e d4f3 8dbe b297 583e 7331 fe3d
00000310: db99 91be 8c43 a63e 5fba ee3d 1a39 d2bc
00000320: ecb5 babd 47c9 0c3d face a9be e680 f7bd
00000330: 8c65 65be 5db8 5b3d c6d9 4dbd 4872 d43e
00000340: f33c e7bd 7809 4cbe 7994 adbe 915d 9dbe
00000350: de8f 6dbe 58d8 8abd 6e13 01bd dddc a83e
00000360: 446f d33e 00c9 323d 7690 5fbe 7a6f a43d
00000370: a469 ff3d 5b1b 6dbb 59cd 62be 5f95 593e
00000380: 3528 b8be e896 bebe ddfa 8d3e ae64 a0be
00000390: 44f4 843e 6fe0 60bc 1a23 af3e e3b1 e33b
000003a0: 001a c3be 07dd 76be bf5d 65be f5ef f53d
000003b0: 38d9 c0bc e437 4a3e b969 1b3e 8320 2a3e
000003c0: 1895 bebe e09b 4dbe a943 bdbd 3a1d ce3c
000003d0: ebfd c8be 4f41 46be d3a0 0bbe f8cb 3cbe
000003e0: e353 57be 15f1 8abe fda9 23be f607 ce3e
000003f0: a2af f3bd 4be1 81be 3e28 e13d 2cb6 b6be
0.37558645 -0.020072227 -0.3065341 -0.34210518 0.40507093 -0.16571906 -0.40247664 -0.044538453
-0.3759229 0.049243886 0.25211635 -0.21723188 -0.28470534 0.33409494 -0.28008425 -0.32760504
0.41875014 -0.3648627 0.18730241 -0.42839128 -0.42315483 0.2408788 0.15572205 0.22970377
-0.34367833 -0.2994982 -0.31161487 0.21187627 0.30300695 0.15404557 0.2487871 -0.3235835
0.019175176 0.1491604 -0.10404882 -0.28021494 0.23943733 -0.13921507 0.16274977 0.4115719
-0.27295315 -0.19210775 0.026063142 -0.17343068 0.45463604 -0.34789658 -0.3811604 -0.15596649
-0.0016963755 -0.07478571 -0.21577257 -0.018777452 -0.008897459 0.15098079 0.03433558 0.2471702
0.42515272 -0.03935025 0.357745 0.42731395 -0.07161616 0.24518278 0.15448338 0.05863879
-0.06946902 0.28444964 -0.29921022 0.15353817 0.029663183 0.29784912 0.1851638 -0.4616595
0.15130056 0.24029006 0.38356847 0.26830474 0.2624169 0.23579387 -0.33691555 -0.34598437
0.13916098 -0.2783343 -0.16945472 0.0133057395 0.10671334 0.09733807 0.39180744 0.29917237
-0.27897996 0.35063925 0.10885977 -0.15106887 0.053133782 -0.3371762 0.40577573 -0.31983042
-0.061430126 -0.14456524 0.1369835 0.11153512 -0.17514114 -0.20247343 0.24957894 0.07444669
0.3121263 -0.16748244 0.053777847 -0.035963167 -0.06653844 -0.31383526 -0.10761642 -0.34144473
0.06276175 0.3052546 0.19830939 0.0031125292 0.43189278 -0.2592466 -0.11210275 -0.3580555
0.24516667 0.050750203 0.30428585 0.24028471 -0.318965 -0.10555087 -0.26913863 -0.3171442
-0.23437764 -0.03423248 -0.32966352 -0.011650029 0.03234754 0.10864192 -0.09509227 -0.12861475
-0.38582188 -0.031291816 0.21922429 -0.11884944 -0.14701246 0.32115877 -0.37423378 -0.15196158
0.09876561 0.20716482 -0.14627619 0.39059848 0.16810186 -0.36491147 -0.18196075 -0.051859032
0.22846875 0.17905903 0.26446396 -0.22752383 -0.24688405 -0.42591554 -0.3272208 0.008304513
-0.18177307 -0.14659132 -0.1785049 0.07419411 -0.021611601 0.12214896 -0.07835358 -0.37142912
0.43850777 0.3746134 0.0057194056 0.18233803 -0.18714333 -0.108948104 0.011951928 -0.12685232
0.090539075 0.25511888 0.050334133 0.061768904 -0.32834497 -0.104836546 0.15273055 -0.20487277
0.12981918 -0.099137396 -0.07967008 0.39600635 0.028586281 -0.15223132 -0.41801086 -0.39793223
0.18077959 -0.2772509 0.21151617 0.124117754 -0.28437695 0.3247341 0.11656641 -0.025661994
-0.0911673 0.03437164 -0.33165723 -0.12085132 -0.22402018 0.05364262 -0.050256513 0.4149344
-0.11290922 -0.19925487 -0.33902338 -0.30735448 -0.23199412 -0.067795455 -0.03151267 0.32981005
0.41295826 0.04364872 -0.21832451 0.08029075 0.12471321 -0.0036179635 -0.22148646 0.21248387
-0.35968176 -0.37224507 0.27730456 -0.31326813 0.2596761 -0.013725384 0.34206468 0.006948696
-0.38105774 -0.24107753 -0.22399043 0.12008659 -0.023541078 0.19747883 0.15177049 0.16613965
-0.37223125 -0.20078993 -0.09241421 0.02516042 -0.39256224 -0.19360851 -0.13635568 -0.18437183
-0.21028094 -0.27137056 -0.15982814 0.4024045 -0.11898734 -0.25367197 0.10994004 -0.3568586
