model_real.pkl (torch, 619294 bytes, 38 tensors)

init_gate f4 [1, 3]
00000000: 4ca6 aa3e 4ca6 aa3e 68b3 aa3e
0.3333 0.3333 0.3334

mkaarma.models.0.Phi f4 [21, 1]
00000000: 0000 0000 0000 803f 0000 0000 0000 803f
00000010: 0000 803f 0000 0000 0000 803f 0000 0000
00000020: 0000 0000 0000 803f 0000 0000 0000 803f
00000030: 0000 0000 0000 803f 0000 803f 0000 0000
00000040: 0000 803f 0000 0000 0000 803f 0000 0000
00000050: 0000 803f
0.0 1.0 0.0 1.0 1.0 0.0 1.0 0.0
0.0 1.0 0.0 1.0 0.0 1.0 1.0 0.0
1.0 0.0 1.0 0.0 1.0

mkaarma.models.0.initial_state f4 [1, 4]
00000000: e883 d53e 3067 383f 83dc ef38 56cb 9a3e
0.417022 0.7203245 0.000114374816 0.30233258

mkaarma.models.0.A f4 [21, 4]
00000000: 8a4e 093e 3db5 d8bd b7c2 9f3e 86f0 903e
00000010: 386d b53e 96b8 c93e b0bb 6e3e 8050 b83e
00000020: 2e70 04bd afb4 85bd 1289 863c f031 6b3b
00000030: 9567 4ebd 26cf 41bd 7949 87bc f60d 533e
00000040: a55c 6c3e d6e9 bf3e ae03 3a3d 7ede 733e
00000050: 09da ef3c e489 8a3c d4de 023d 099f bc3e
00000060: 5d6b d73e 63f7 283f a125 d93d 1a9a 353f
00000070: 0aeb c1be 6968 05bf 2c1e 26be e85a 94bf
00000080: 2584 0dbf 664e 58bf adc7 1abe 1e6d c03f
00000090: c9c6 b6be 5e5b aebe 4888 a7be 0881 87bf
000000a0: 85b6 90bc f85b 43bd fdbb aa3c bcfb 2e3f
000000b0: 9156 2cbf 883d 47bf e1df c2be a31a 87bf
000000c0: c9e8 9a3e 6dd9 353f 3d18 6fbe e9db 34be
000000d0: 0150 173e 9f1d 11bd 4803 9e3e afac ff3e
000000e0: 7be7 82bd c528 1fbd b00c 103c a239 ad3e
000000f0: 61d8 22be 543f 5fbe 8e99 4bbd 2d87 babd
00000100: a9af b33e 29bf e03e 49f8 5d3e 9ef6 a33f
00000110: f863 b23e 1b97 203f 50f3 56bd 7ef9 37bd
00000120: da8a b03e 071d a93e b090 a03e 6e91 5e3f
00000130: 07a8 63bd 47af 98bd ecd2 37bd 630b 35bf
00000140: 896f bebd ea1c 6fbd b01d 72bd b2b1 adbd
0.13408867 -0.105814435 0.31203243 0.28308505 0.3543489 0.3939864 0.23313785 0.35998917
-0.032333545 -0.06528603 0.016422782 0.003588792 -0.050391752 -0.047316693 -0.016514527 0.20610794
0.23082216 0.3748309 0.045413665 0.23815343 0.029278772 0.016911454 0.031950787 0.36840084
0.420741 0.6600248 0.1060288 0.70938265 -0.37874633 -0.5211244 -0.16222447 -1.1590242
-0.5527976 -0.84494627 -0.15115233 1.50333 -0.35698536 -0.34054083 -0.32721162 -1.0586252
-0.017665157 -0.04769513 0.020841593 0.68352866 -0.6731959 -0.77828264 -0.3806143 -1.0555004
0.30255726 0.7103489 -0.2334909 -0.17662014 0.14776613 -0.03542864 0.30861878 0.49936435
-0.06391808 -0.03885724 0.008792087 0.33833033 -0.15902855 -0.21801502 -0.049706988 -0.09107814
0.35094956 0.43895844 0.21676745 1.2809637 0.34841895 0.6273057 -0.052478135 -0.04491567
0.34480935 0.3302996 0.31360388 0.8694066 -0.055580165 -0.074553065 -0.044878885 -0.707205
-0.092986174 -0.058377184 -0.059110343 -0.08481158

mkaarma.models.0.S f4 [21, 4]
00000000: e883 d53e 3067 383f 83dc ef38 56cb 9a3e
00000010: e883 d53e 3067 383f 83dc ef38 56cb 9a3e
00000020: 0fb4 a23c d5be 4c3c 1f80 ce3c 4a8e 3f3d
00000030: ece4 a63c 25a5 5b3c 0642 ce3c 19fd 423d
00000040: 1f89 273d cd31 773d 5632 433c 393d f03e
00000050: 1b1b 283d b182 783d d9aa 413c 5817 f13e
00000060: 24b7 4bbe a1b7 8abe 9c28 acbd 9428 d93e
00000070: d459 4dbe 9eb4 8bbe d91e aebd 8f04 de3e
00000080: c6fb 373e 03f0 943e 318f b83c 1d5b 4c3f
00000090: 1a6e 513e 1f39 a23e 6ba7 2c3d ae2b 483f
000000a0: 47c1 97be aa62 c1be 9cf3 1ebe d68a 173d
000000b0: 7226 82be bcd2 a6be fd14 06be bb12 82bb
000000c0: ebae 9c3e fc3a 9d3e ab17 833e 713d e73e
000000d0: 09cd ad3e 0b44 a63e 9fd2 9a3e c025 f43e
000000e0: d42a f4be d1a2 1bbf 3b76 7fbe 213f 83be
000000f0: 12d5 f3be f250 1bbf 3b9a 7fbe 159c 89be
00000100: 3548 b13e cc77 f33e 781f 113e 765d 913f
00000110: 3b9d af3e 73e6 ef3e 94b5 123e 29fa 8f3f
00000120: 3140 d6bd b76d 1bbe 8ffa 08bd a95b 533f
00000130: 2ff0 9cbd b71c fdbd 8a72 26bc 25fe 563f
00000140: 859d fbbe 677c 26bf 1f0c 6bbe 04e6 663e
0.417022 0.7203245 0.000114374816 0.30233258 0.417022 0.7203245 0.000114374816 0.30233258
0.01986125 0.01249667 0.025207577 0.046766557 0.02037283 0.013406073 0.025177967 0.047604654
0.040902253 0.060350228 0.0119138565 0.4692171 0.041041475 0.060671512 0.011820518 0.47088122
-0.19894081 -0.27093223 -0.08406183 0.4241377 -0.20053798 -0.27286237 -0.085019775 0.43362853
0.17967138 0.29089364 0.022529216 0.7982653 0.20452157 0.31684205 0.04215185 0.7819165
-0.29639646 -0.37770587 -0.15522617 0.03699764 -0.25419956 -0.32582653 -0.13093944 -0.003969518
0.30602202 0.30709064 0.25603995 0.45164064 0.33945492 0.32473788 0.30238816 0.4768505
-0.47688925 -0.60795313 -0.24947445 -0.256341 -0.47623497 -0.6067039 -0.24961178 -0.26876894
0.34625402 0.47552335 0.1417216 1.1356647 0.34299645 0.46855506 0.14327079 1.1248218
-0.10461462 -0.15178572 -0.033442076 0.8256174 -0.07662999 -0.123589925 -0.010159144 0.83981544
-0.49143615 -0.6503357 -0.22953843 0.22548681

mkaarma.models.1.Phi f4 [36, 1]
00000000: 0000 0000 0000 0000 0000 803f 0000 803f
00000010: 0000 0000 0000 803f 0000 0000 0000 0000
00000020: 0000 0000 0000 803f 0000 803f 0000 803f
00000030: 0000 803f 0000 0000 0000 0000 0000 803f
00000040: 0000 0000 0000 803f 0000 803f 0000 0000
00000050: 0000 0000 0000 803f 0000 803f 0000 0000
00000060: 0000 0000 0000 803f 0000 803f 0000 803f
00000070: 0000 0000 0000 0000 0000 803f 0000 0000
00000080: 0000 803f 0000 803f 0000 0000 0000 0000
0.0 0.0 1.0 1.0 0.0 1.0 0.0 0.0
0.0 1.0 1.0 1.0 1.0 0.0 0.0 1.0
0.0 1.0 1.0 0.0 0.0 1.0 1.0 0.0
0.0 1.0 1.0 1.0 0.0 0.0 1.0 0.0
1.0 1.0 0.0 0.0

mkaarma.models.1.initial_state f4 [1, 4]
00000000: e883 d53e 3067 383f 83dc ef38 56cb 9a3e
0.417022 0.7203245 0.000114374816 0.30233258

mkaarma.models.1.A f4 [36, 4]
00000000: 3c1d 443e 1c31 e7ba 0dc2 ee3e 37e5 04bf
00000010: 0afd 9a3e b80a 853f f14d f4be d238 8a40
00000020: 2135 a6bf 8a07 85bf ad2c acbf edbe b33f
00000030: 0c2d 62bd 90a2 0abf 6bbc fa3e a348 043f
00000040: 5ac3 0abf df0f a5bf 8097 043f e55c b1bf
00000050: 4695 6d3f 8d55 5c3f d02f 643f b967 8ebe
00000060: 372e e8be 8aaf 12bd 0004 38bf fdac b93d
00000070: e85f 85be b2da e3bc d890 fcbe f1c3 27c0
00000080: 2127 4a3f 540b 803f cf12 0c3f 454a 1bbe
00000090: c1a3 53be 55d3 5dbf 87c1 1d3f 3a92 ebbd
000000a0: 50f0 03bf 4d7a 4cbf aaca bfbd 0b47 363f
000000b0: c85b 0d3e c891 1e3f 0be3 e9be 1f6f 0840
000000c0: 70a5 343e bd0f a33e 1936 c13b a6b8 593f
000000d0: 44cb f9bd 8be5 9ebe ce5a e33c 994c abbe
000000e0: 9933 5fbe 9a2b 4bbe 5ebc 25be 99ef 98bc
000000f0: b050 253f f5a9 ef3e 80d4 423f 0d64 5fc0
00000100: 8063 0cbe 4473 dbbd 5610 83bd 87ab 42be
00000110: 68a0 6fbe 07a8 4bbe 006c 41be 27c9 67bf
00000120: 7880 debe f5ac 23bf b123 22be bbdb e0bd
00000130: b15a d93d 0c52 e03e df8c c5be 67be 9c3f
00000140: cecf 183e 3f23 613c 406a af3e 4212 773e
00000150: 5bd7 993e 3672 343f 135c 7cbe 2f20 02bf
00000160: 7db0 bdbd 17c0 183e 8fbd 81be 438b 1bbe
00000170: 5d0f 8a3d ebb0 4d3d 7983 ed3d 38e8 a23e
00000180: 4376 83be db73 5fbe 8f85 a2bd 8e56 31bd
00000190: 157c d2bd 6b66 a23e 1e96 15bf 8969 6cbe
000001a0: a0af 98bc e9d6 00bc 4073 6dbd a0bb c3be
000001b0: 1ec4 c73c 0acc 323d 059b 4b3d a5b5 fa3c
000001c0: 1d5e 50be eb5c 0bbe 28f6 e6bd 3cbf 96bd
000001d0: 8fc1 05bd 0358 2cbd fd0e ec3c 8bcd 1e3f
000001e0: 7ae8 7f3d 2ed2 693d 3814 3b3c caa7 603e
000001f0: cd08 423e a96d 94bd 7db2 cb3e d3e7 263e
00000200: b839 ae3d 9749 2c3d 3bda aa3c 6fb1 e53d
00000210: ea2e 29be eb14 dfbe 3f03 4f3e 3928 06be
00000220: 63df 0b3b 543b e33c 7d0f c13c 53a9 533d
00000230: ea6f 84bd 6c38 883d 77f6 42be 2768 aabe
0.19151777 -0.0017638537 0.46632424 -0.51912254 0.30271178 1.0393896 -0.47715715 4.319436
-1.2984964 -1.0392926 -1.3451134 1.4042641 -0.05521874 -0.541543 0.48971877 0.51673335
-0.5420433 -1.2895468 0.5179367 -1.3856474 0.928059 0.8606804 0.89135456 -0.2781351
-0.4534776 -0.03581194 -0.71881104 0.09066198 -0.26049733 -0.027814243 -0.49329257 -2.6213343
0.78965956 1.0003457 0.547162 -0.1516505 -0.20667936 -0.8665059 0.61623424 -0.115025
-0.5153856 -0.79874116 -0.09364827 0.7120215 0.13804543 0.61941195 -0.45681033 2.1317823
0.17641234 0.31847945 0.0058963415 0.85047376 -0.12196973 -0.31034502 0.02775326 -0.33456877
-0.21797027 -0.19840851 -0.16185138 -0.018668937 0.64576244 0.46809354 0.761055 -3.4904816
-0.13709831 -0.107153445 -0.063996 -0.19010745 -0.23401034 -0.19888316 -0.18888855 -0.9054131
-0.4345739 -0.63935786 -0.15833928 -0.1097941 0.10613001 0.43812597 -0.3858404 1.2245606
0.14923021 0.0137413135 0.3426075 0.24128059 0.30047116 0.7048677 -0.24644499 -0.5083036
-0.09262178 0.14917026 -0.25339934 -0.15189843 0.067412116 0.05021755 0.11597342 0.31817794
-0.25676164 -0.21821539 -0.079356305 -0.043295436 -0.10277573 0.31718764 -0.58432186 -0.23087133
-0.018638432 -0.007863739 -0.05797124 -0.38229084 0.024385508 0.043651618 0.049708385 0.030604193
-0.20348401 -0.13609664 -0.11277419 -0.07360694 -0.032655295 -0.042076122 0.02881574 0.62032384
0.062477566 0.05708521 0.011418395 0.21939006 0.1894867 -0.072474785 0.39784613 0.16299371
0.08507103 0.04206237 0.020856014 0.112154834 -0.16521803 -0.43570647 0.20216082 -0.13101281
0.0021342866 0.02773825 0.023566956 0.051675152 -0.064666584 0.066513866 -0.19039331 -0.33282587

mkaarma.models.1.S f4 [36, 4]
00000000: e883 d53e 3067 383f 83dc ef38 56cb 9a3e
00000010: 2d47 163e 041c bd3d ffba 3e3e 56ed b03e
00000020: e867 5b3d c40c 0a3d b33b 8b3d 2128 013e
00000030: e883 d53e 3067 383f 83dc ef38 56cb 9a3e
00000040: 639e adbc 493b 093e d0e6 49be 967a 8f3e
00000050: 102c 8fbc edeb 363e f819 77be d7fd ba3e
00000060: c57e 10be c5e0 0cbd 5fc0 77be 01cc 2a3f
00000070: 1686 b63d f59c 363d 5e6d 013e b0a5 8cbd
00000080: b9b4 3abe de63 273e fa88 0dbf eb38 eb3e
00000090: bbf8 7cbe 1c6c bdbc 59d1 eebe e9f6 0c3f
000000a0: f3e4 f6bd b919 ad3e b89e 21bf b05d f23e
000000b0: d731 873e 0c70 473e 5ea6 9a3e 6f12 efbd
000000c0: 8640 86bc 6226 86be cb43 8a3e 4d3d b3bd
000000d0: 8695 5fbd b2ac a7be 50f6 893e eefb 99bd
000000e0: 0a9e ac3e fc71 613e 5153 d63e c7de efbc
000000f0: db2b 8b3e 9a6d 633e 1f6b 923e 2296 b03e
00000100: 10b3 bfbe ebfd 61be 5d1c fcbe 7c02 fc3e
00000110: 8ecf e7bd 1cfb 1cbf 6d1a f73e 80fd 64bd
00000120: 0b00 e93e 62cb 503e cc3c 2c3f 0ad3 1dbd
00000130: e0d9 24be 8382 31bf 3fb1 f53e d313 54bd
00000140: 1ccc 80be f400 8e3e de99 52bf a923 443f
00000150: a351 93be 55f0 7b3e dfd2 5bbf ec0d 473f
00000160: 7445 43be 0c0b c1be f453 613d b36d 5c3e
00000170: f460 75be 5378 b3be cc1d 96bd 8ec8 793e
00000180: 95a8 973d 646c d53e a3ed aabe 2961 143f
00000190: b3d1 a63d 0c04 db3e 8bd2 a9be 2293 343f
000001a0: 2104 f93e f8c3 0e3f 361d a73e 04ae 4f3d
000001b0: a189 74be 5e31 16bd de61 debe 5d19 f63d
000001c0: c188 413d 22e0 fb3e 85bd f2be d1b2 783f
000001d0: 9edc 79be 42fd 8cbc 7535 efbe a03c a43d
000001e0: a3a7 6fbd 6a2f de3e f445 1ebf 3f9b 7b3f
000001f0: f333 e4be 75ff 103e 85d4 86bf 1603 853f
00000200: 1e0a febe 8a90 c73d 2e31 8dbf 3118 813f
00000210: 0d93 7cbe 9b17 703e 0f61 43bf e2ca d13d
00000220: cfb1 cfbe db02 bbbd 2849 34bf 8561 563f
00000230: dd89 90be 8538 5f3e 07a7 50bf b16e 3c3d
0.417022 0.7203245 0.000114374816 0.30233258 0.14675589 0.09233859 0.18626021 0.34556073
0.05356589 0.03370358 0.06798496 0.12612964 0.417022 0.7203245 0.000114374816 0.30233258
-0.021193689 0.13401522 -0.19716954 0.28023213 -0.017477065 0.17863436 -0.24131 0.3652179
-0.14110859 -0.034394044 -0.24194477 0.66717535 0.089122936 0.04458328 0.12639377 -0.0686754
-0.18233003 0.1634669 -0.55287135 0.45941862 -0.24704258 -0.02312284 -0.46644095 0.55064255
-0.12055387 0.33808687 -0.6313281 0.47337103 0.26405212 0.19476336 0.30205053 -0.11673438
-0.016388189 -0.2620116 0.27004847 -0.087519266 -0.054585956 -0.32748944 0.26945734 -0.07518755
0.33714324 0.22016138 0.4186044 -0.029281033 0.27181897 0.22209778 0.28597352 0.34489542
-0.374413 -0.22069518 -0.4924039 0.49220645 -0.11318885 -0.6132066 0.4826235 -0.05590582
0.45507845 0.20390084 0.6728027 -0.03853134 -0.16098738 -0.6933977 0.4798679 -0.05177672
-0.25155723 0.27735102 -0.8226603 0.76616913 -0.2877322 0.24603398 -0.8586864 0.7775562
-0.19069463 -0.3770374 0.055011705 0.21526222 -0.23962766 -0.35052738 -0.07329902 0.24392912
0.07405201 0.41684258 -0.33384427 0.57960755 0.08145466 0.42776525 -0.33168444 0.70537007
0.48635963 0.55767775 0.32639474 0.050703064 -0.23880626 -0.036668174 -0.43434042 0.120165564
0.04724956 0.49194437 -0.47410217 0.9714785 -0.24400565 -0.017210606 -0.46720472 0.08019376
-0.05850948 0.4339555 -0.6182549 0.9828376 -0.44570884 0.14159949 -1.0533606 1.0391567
-0.49617094 0.097443655 -1.1030633 1.0085508 -0.2466547 0.23446505 -0.76319975 0.10243775
-0.40565345 -0.09131404 -0.7042413 0.83742553 -0.2823018 0.21798904 -0.81504864 0.046004

mkaarma.models.2.Phi f4 [13, 1]
00000000: 0000 0000 0000 803f 0000 803f 0000 0000
00000010: 0000 803f 0000 0000 0000 0000 0000 803f
00000020: 0000 0000 0000 803f 0000 0000 0000 803f
00000030: 0000 0000
0.0 1.0 1.0 0.0 1.0 0.0 0.0 1.0
0.0 1.0 0.0 1.0 0.0

mkaarma.models.2.initial_state f4 [1, 4]
00000000: e883 d53e 3067 383f 83dc ef38 56cb 9a3e
0.417022 0.7203245 0.000114374816 0.30233258

mkaarma.models.2.A f4 [13, 4]
00000000: 334c 413d 9bf5 adbe 20fa d83e 65b4 733e
00000010: daca f8bd d299 063e 4d06 cebe 410e c5be
00000020: 82f9 043f c326 ee3c 344c 793f 6d3e 53bf
00000030: b876 1f3e e639 343e 52fa b03d d8a3 da3f
00000040: 9a74 99bd a9e1 293e 509e adbe 7862 0940
00000050: abfb 22be 369b 2d3e da75 fbbe f15f ddbf
00000060: 4d0e f33e fb18 1dbd 8cf0 823f dc58 d53e
00000070: 71b4 69bd 41c3 5c3e 4204 bcbe 1c44 5dbf
00000080: 5b9f 483d 866c b53d bb1b ab3c b1f3 aa3e
00000090: f811 283e 4a76 923d 56d8 5d3e d5dd a3be
000000a0: 1e25 363d 3210 65bd ba5c bd3d 2fd6 d4be
000000b0: 7062 a83d 4ff0 033e 4e56 053b 3fae 093f
000000c0: fd5a b93d 8823 ee3d 88b7 233d 2d6e 4e3c
0.04719181 -0.33976445 0.4237833 0.23799284 -0.12148066 0.13144615 -0.40239182 -0.38487437
0.5194322 0.029071217 0.973819 -0.8251713 0.15572631 0.17600212 0.08641495 1.7081251
-0.07492943 0.16589989 -0.33909845 2.146635 -0.15916316 0.1695374 -0.4911335 -1.7294904
0.47471848 -0.0383539 1.0229659 0.41669357 -0.057056848 0.21558858 -0.36721998 -0.8643205
0.0489801 0.0885859 0.020887246 0.33389047 0.16413105 0.07151468 0.21664557 -0.32005182
0.04446899 -0.05592365 0.09246202 -0.4156966 0.082219005 0.12884639 0.002034563 0.53781503
0.09050558 0.11627871 0.03996995 0.01259951

mkaarma.models.2.S f4 [13, 4]
00000000: e883 d53e 3067 383f 83dc ef38 56cb 9a3e
00000010: e883 d53e 3067 383f 83dc ef38 56cb 9a3e
00000020: 0fb4 a23c d5be 4c3c 1f80 ce3c 4a8e 3f3d
00000030: 6268 a33c e233 4f3c a67c ce3c 3fd6 523d
00000040: 24e0 203e 73fa ea3d 5462 393e 73d8 cd3e
00000050: 8314 213e bc88 ec3d c1e4 383e 3f4e d13e
00000060: 85c4 be3d 9cf5 433e 671e 10bd 8c30 423f
00000070: da15 bf3d f78c 433e fcf5 0cbd 36be 433f
00000080: 66af 913d 9aca a33e d01f 69be bcfe b83e
00000090: c481 8f3d 2392 a03e fdda 63be d877 9a3e
000000a0: d3eb 6c3e 25eb d2bc c0b5 fb3e 36ab 2c3e
000000b0: 64f5 7a3e f5aa 2a3b 82f2 f83e 6c50 113e
000000c0: 6a3a 523d ab5a 4a3e 8ae9 00be 93c3 953f
0.417022 0.7203245 0.000114374816 0.30233258 0.417022 0.7203245 0.000114374816 0.30233258
0.01986125 0.01249667 0.025207577 0.046766557 0.019947235 0.012646647 0.025205921 0.051473852
0.15710503 0.11473551 0.18103915 0.402042 0.15730481 0.115495175 0.18056013 0.4088001
0.09314827 0.19136661 -0.035185244 0.75855327 0.0933034 0.19096743 -0.034414276 0.76462114
0.07113533 0.3199051 -0.22766042 0.36131847 0.07007173 0.31361493 -0.22251506 0.3016956
0.23136835 -0.025746891 0.49162102 0.16862187 0.24507672 0.002604184 0.4862252 0.14190835
0.05132524 0.1976115 -0.12589088 1.170031

mkaarma.trajectories.0.w f4 [6, 4]
00000000: e322 d0be 2d03 ffbe aaa0 71be 0047 c4b9
00000010: ef03 c63e de30 f93e 0cac 563e ff41 803f
00000020: ead7 263e 3a59 8c3e c047 0b3c 50e1 7e3f
00000030: 64cb f7bd 9024 fdbd 9823 cabd 885f 7e3f
00000040: 7a3a d4be 4763 ecbe 1381 96be 0044 88b9
00000050: b279 3c3e 2405 863d 1169 953e d13e 633f
-0.40651616 -0.4980711 -0.23596445 -0.00037436932 0.38674876 0.48670095 0.20964068 1.002014
0.16293302 0.27411824 0.008500993 0.9956255 -0.120993406 -0.12360489 -0.0987007 0.9936452
-0.41450864 -0.46169493 -0.2939535 -0.00025990605 0.18405798 0.06543949 0.29181722 0.88767725

mkaarma.trajectories.1.w f4 [8, 4]
00000000: 3899 e1bd 0f8f 0cbf df43 d43e 80b3 753b
00000010: 1dd4 c2be 9715 fd3d 6ae3 66bf 5017 1f3c
00000020: c0ad 40be 93f7 dc3e 32b3 5fbf ae0f 7f3f
00000030: d03d 603d ca13 8e3c ecc3 b63d 620c 8ebd
00000040: 235d f2be 4f7d df3d 9805 89bf 6c78 803f
00000050: e627 983e 2bbb a63d c796 ff3e 36f7 d23d
00000060: cf20 d8be cc20 693d b069 68bf 547b 6e3f
00000070: 7c02 04bf 015a 203e f8d9 9abf ef7d 853f
-0.11015552 -0.5490579 0.41458032 0.0037491024 -0.38052455 0.123576336 -0.90190756 0.009710148
-0.1881628 0.43157634 -0.87382805 0.996333 0.05474645 0.01734342 0.08924088 -0.069359556
-0.47336683 0.109125726 -1.0704832 1.003675 0.2971794 0.08141168 0.4991972 0.10301058
-0.4221253 0.056916043 -0.90786266 0.93156934 -0.5156629 0.15659334 -1.2097769 1.0429057

mkaarma.trajectories.2.w f4 [4, 4]
00000000: cc7b 9d3d 1afe 0e3e 10c3 00bc 9505 803f
00000010: fa15 873e 9452 fd3c 685e fb3e 0094 81b9
00000020: e222 94bd ab02 fc3d 6cbb 92be 00c0 a038
00000030: 0645 6a3d 2ae9 80be ac6b cf3e ca2c 943e
0.07689628 0.1396412 -0.0078590065 1.0001704 0.26383954 0.030923165 0.49095464 -0.00024715066
-0.07233216 0.123051964 -0.28658617 7.665157e-05 0.057194732 -0.2517789 0.40511835 0.2894042

controller.read0_bias f4 [1, 20]
00000000: 4ca0 d73b 8e10 75bb 6a05 3c3b 58b0 e0bb
00000010: 6b03 e6bb 05c3 5bbb 5ccb 3fbc 0cee 5bbc
00000020: d263 90bc 6001 b5bb 0f5b af3b cbc8 50bb
00000030: c01d 403b d206 65bc 93b5 233c db71 3bbb
00000040: 01bb 7fba 2214 903b 38c9 083c cf0e a33a
0.006580388 -0.00373939 0.002868975 -0.0068569593 -0.0070194504 -0.0033532989 -0.0117061995 -0.013423454
-0.017625723 -0.0055238456 0.005351431 -0.0031857963 0.0029314607 -0.013978677 0.009992021 -0.0028601799
-0.0009755344 0.0043969313 0.008348756 0.0012440326

controller.controller.lstm_h_bias f4 [2, 1, 100]
00000000: 17a8 94bd 7191 a1bd 5618 07bd ff49 523d
00000010: 1937 b73d ccf3 883d edab bb3d 4162 16bc
00000020: 5cbc 8e3d c411 a2bc 8108 f33b 2fb3 853c
00000030: 4b86 0bbc 9a2b 9ebd 137a 083e 3985 a9bd
00000040: 05a4 4c3c d7ad 813d 4597 89bc fef3 8abb
00000050: 197f 113c ec54 2bbc 3123 6f3d 2edb b6bd
00000060: fa02 893d 2a1a aa3d 8e4b a73c 2d03 d73c
00000070: 52b5 a1bc 41ab d6bc 82c2 c93c 470d d93d
00000080: 469c 15bd 946a 1dbd 47e0 1d3d 3c3f eebc
00000090: e4f8 7a3d cddc 973d d018 0c3e 38d7 15bd
000000a0: 53a6 10bc 47ee 6b3d 8488 3a3c 090a cd3d
000000b0: 473e a43d 949f 993c f9ee 433d a903 a13a
000000c0: df24 fdbd 18e3 8a3d 1a8d ecbb 09a0 103d
000000d0: 1200 b738 cf6a 273c 48b0 8e3d 05db 643d
000000e0: b046 ff3c 8dd1 1ebc c506 d0bd d787 893c
000000f0: 912c eabd 39ff 10bb 0605 1dbd 37df 85bd
00000100: 8689 aebd dec3 46bd 2925 91bd 2aac cdbd
00000110: 97eb 5cbd 8c4e 52bd b51b 343d 1be3 dfbd
00000120: 4258 9f3d 1dc8 233e 36a5 813d 7c15 7a3c
00000130: 88c6 80bc 480f 8abd 8730 aebd 0580 77bd
00000140: 0072 65bd 170a 04bd 2192 82bd 3fd0 1e3e
00000150: 82c0 73bd c639 19bd f76c 06bd 5ce3 b13c
00000160: d6db e1bd 53d1 b23c e536 8f3c a447 9d3c
00000170: be67 6fbd b1c9 adbd 71c4 0dbd ece1 0ebc
00000180: c384 81bc db46 92bb b940 8fbc e875 b33b
00000190: 0f0a fcbc 5a51 c33b 292e 96bc 254e 92bd
000001a0: 8248 aebd 9b73 bd3c dc7e 22bd 3f2c 7e3d
000001b0: eec0 7bbd a641 a2bd 000c 0c3d 63ad a83d
000001c0: 54de ba3c 9d7f e03c ac5c 6b3d 86ea abbd
000001d0: f24d 253d 6b2c a9bd d082 26bc e83e 0c3d
000001e0: 5788 aebc 29fc dcbd e157 8b39 fa60 91bb
000001f0: f784 1d3b 21ad fc3d e939 9f3d e897 903d
00000200: 2558 ba3d c793 a3bd 0818 1abb 8803 003d
00000210: 4c2a 103d ffaf 25bd deac 86bc 932d 72bb
00000220: 6b26 673c b3b0 c4bd c77f 993b 961d 6e3d
00000230: 97d9 913d 4e0d 9d39 fbeb 91bd 954c 4c3d
00000240: fca2 ad3d e11b 933d 4108 52bc 3e4d d53c
00000250: b169 9fbc dc79 223d b835 a4bc 7f66 8dbd
00000260: 8d72 5ebd e2bd e7bd c8cc 263d d809 b9bc
00000270: 7ece bc39 53d6 b4bd 19d7 773d 1324 cc3c
00000280: 80cd 1e3e 3b2d 52bb 04d9 c7bd befa 88bd
00000290: 9612 0abe 4d9e 85bd 21d6 65bc 3fea f43c
000002a0: 2f15 27be 6197 02bd 6c55 a03c 89b3 afbc
000002b0: d689 d83c dfcc 2f3d 4855 083e a981 b83d
000002c0: 329a e23c 62b2 ed3c ba4f d23d 5f38 83bd
000002d0: fa63 ce3c a2eb 63bc eeed 483d 5bd8 203d
000002e0: 7d1a a23c 301e 8bbd 81c1 ee3d 4074 3c3d
000002f0: f623 9a3c 8f20 213d b86f 3cbc 66d3 c6bd
00000300: abbc 5fbd 50e2 e73d df06 613c 6208 61bd
00000310: 788b b5bd 60c9 82bd e331 3cbe 96d2 3f3d
-0.07258623 -0.07889069 -0.032982193 0.0513401 0.08946056 0.066871256 0.091636516 -0.009178699
0.069695204 -0.019783862 0.007416785 0.016320793 -0.008515905 -0.0772316 0.13327818 -0.08277363
0.012490277 0.063319854 -0.016795764 -0.004240512 0.0088804 -0.010457259 0.05838317 -0.08928524
0.06690021 0.08305772 0.02042177 0.026246632 -0.01973978 -0.026204707 0.024628881 0.105982356
-0.036525987 -0.03843172 0.038543966 -0.029082887 0.061272517 0.07415161 0.1368134 -0.0365822
-0.008828717 0.057600286 0.011385087 0.1001168 0.08019691 0.01875285 0.047835324 0.0012284416
-0.12360548 0.06781596 -0.007218969 0.03530887 8.726133e-05 0.010218336 0.06967217 0.055872936
0.031161636 -0.0096935155 -0.10157541 0.016788406 -0.114342816 -0.002212478 -0.03833487 -0.065367155
-0.08522324 -0.048526637 -0.07087166 -0.10042603 -0.053935613 -0.05134444 0.043971736 -0.10931989
0.07780506 0.15994306 0.063303396 0.015263911 -0.015719667 -0.06741196 -0.085053496 -0.060424823
-0.056016922 -0.032236185 -0.06375528 0.15509127 -0.05950976 -0.037408613 -0.03281876 0.021714859
-0.110282585 0.02182833 0.01748223 0.0191992 -0.058448546 -0.08485735 -0.03461117 -0.008720856
-0.015810376 -0.004464013 -0.017486917 0.005476702 -0.030766515 0.0059606256 -0.018332558 -0.07143811
-0.085099235 0.023126414 -0.039671764 0.062053915 -0.06146329 -0.07922678 0.03419113 0.08236196
0.022811092 0.0274046 0.057461426 -0.08394341 0.040357538 -0.08260425 -0.010163024 0.03423968
-0.021305246 -0.10790283 0.0002657762 -0.0044366093 0.0024035552 0.12337709 0.07774717 0.07060224
0.090988435 -0.07987171 -0.002351286 0.031253368 0.035196587 -0.040451046 -0.016439851 -0.0036953434
0.014108281 -0.09604015 0.0046844217 0.058133684 0.0712158 0.00029955286 -0.07125088 0.04987772
0.084783524 0.07183052 -0.012819351 0.026037809 -0.019459577 0.039666995 -0.020045146 -0.06904315
-0.054308463 -0.11315514 0.04072264 -0.022587702 0.00036012003 -0.088299416 0.060507867 0.024919545
0.1550808 -0.0032070416 -0.09758189 -0.0668845 -0.13483652 -0.06524334 -0.014028103 0.029896853
-0.16316675 -0.031882647 0.019571982 -0.021447914 0.026432913 0.04291999 0.13313782 0.09009106
0.027661417 0.029015724 0.10269113 -0.06407236 0.025194157 -0.01391116 0.049055032 0.039268833
0.019788021 -0.06792867 0.11658002 0.046009302 0.018815976 0.03933769 -0.011501245 -0.0970829
-0.054623287 0.113224626 0.013734548 -0.054939635 -0.08864492 -0.063860655 -0.18378405 0.04683169

controller.controller.lstm_c_bias f4 [2, 1, 100]
00000000: 69b1 b0bc 5d0b babd 5ec1 adbb c409 00bd
00000010: 5b11 813a 80e9 dd3d 5865 e7bd feb2 79bd
00000020: 8da5 3cbd d245 ef3c c561 c83d 65b9 abbd
00000030: bc6f a43d 7185 b1bc ae35 aebd 85ba a2bc
00000040: 8606 83bd 7691 f7bd 5d68 14be e2d1 45bc
00000050: 843e e9ba a64a 2f3d 62d4 27bc b69a 4c3d
00000060: ef2e 03bd a100 ffbb c7f9 d2bc 38da 47bc
00000070: d07f 33bc 345c a7bd 908a f7ba 84fd 033d
00000080: 9256 74bb ca43 903c 084f 96bb d912 54bc
00000090: ae42 9b3d da40 b3bc 284d 0e3d 4909 96bc
000000a0: 0cf6 4c3d d959 843d 183d 603d 5e0b fcbc
000000b0: eaf2 fb3c 4dbc 7cbd d1a4 00bd d8ac fd3c
000000c0: 0e4d aa3d 0a89 a4bd 5a77 4b3d 4756 b13c
000000d0: 65bc 4fbd 6bdb 243d 4638 123d 711f 35bd
000000e0: 4e5b 96bb b1d1 68bd debb bfbc 962f 51bc
000000f0: 861c 15be 809a a8bb c28d a43d c59c b7bd
00000100: 3c4e 1f3c 4dc6 4d3d 2d73 0f3d 9843 0a3d
00000110: a28d 763d 2c90 af3d 3755 0dbd faf4 7d3d
00000120: 3705 da3d ca68 eb3b f9f2 c3bd 76fa 99bd
00000130: d8ee 3b3d 2a32 a03d 6870 06bc 0892 87bd
00000140: 5977 7b3c d6ea 133d d04d 4c3d 019b 873d
00000150: 54fc 903d 36a8 b4bd ffea 1cbd 4a59 91bd
00000160: 9709 653d b39f b7bc 7ac4 53bd 90ef 633d
00000170: 3c12 d93d 7e3c 88bd 847e cd3d 88a7 883d
00000180: 71cd dabc e863 d8bd d484 403d 5872 883c
00000190: e85b dabd a4df 333d f2f5 b83d 4fb6 233d
000001a0: ec51 a3bc 7fd2 1b3d 8fb4 773c 2d60 6c3c
000001b0: cce0 0cbd 1194 123d 76f8 e3bb 1764 4cbd
000001c0: 4217 843b 6c47 acbc 238d 253d df15 543d
000001d0: 4a35 a63c bfdb 0dbd 8c63 70bd 4ae3 f4bc
000001e0: deac fa3b 749e 09be 042d 1a3d f627 b3bd
000001f0: ffe8 123d 991f 2a3d d74e cebd 39fa 9cbb
00000200: fe80 a2bd 160b 613d bff7 83bd 482d 34bd
00000210: e3bd 193d cbee 97bd 4455 4dbb 5402 b63d
00000220: 8e1e d1bb 53d5 19bd 9fff 343c 384e 64bc
00000230: e471 f73d c87f 1b3d 44eb 863d 5330 2b3d
00000240: 51d7 ec3c b32d 1d3d cc94 a5bd e01f 28bd
00000250: da79 2a3c 5ab7 463d fa74 803b 356b bbbd
00000260: 72fd 54bd 93a2 02bd c5a1 26be 29b3 963d
00000270: 8df2 94bc fa79 77bd 2633 66bd 746d 91bc
00000280: df34 d13b 5ff9 22bd a59b 1a3d 0133 65bd
00000290: fe9b 503e 6b62 1ebd b51b ba3d 9f2a 43b8
000002a0: e7d9 4e3c 6def 7c3c 0eba 15bd 8cc0 d73c
000002b0: b324 acbd e258 82bd cb68 963d ba43 cf3b
000002c0: be5d 1bbb 3050 ea3d d17f 5ebc ac9b 43bd
000002d0: cefc b9bc 6d47 393d a0f8 cd3c e97e 6c3d
000002e0: 1069 4d3d 9dc9 aabd 6ca5 953d 7552 0cbe
000002f0: a773 623c 74eb cfbd 5fa9 a7bd 77be 9f3c
00000300: 70aa b1bb c436 823d f267 50bd 613e 31bd
00000310: 1510 efbb 163d 12bd 6eba 493d d14f 313d
-0.02156897 -0.090841986 -0.005302592 -0.031259313 0.0009847091 0.10835552 -0.11298627 -0.060961716
-0.04605632 0.029208098 0.09784273 -0.083849706 0.08029124 -0.021670075 -0.08506332 -0.01986433
-0.063977286 -0.12088291 -0.14492936 -0.012073966 -0.001779512 0.0427958 -0.010243507 0.04995223
-0.03202718 -0.0077820574 -0.025753869 -0.0121980235 -0.010955766 -0.08171883 -0.0018885899 0.032224193
-0.0037283045 0.01761045 -0.004587058 -0.012943947 0.075810775 -0.02188151 0.03474155 -0.018314974
0.050039336 0.064624496 0.054745764 -0.030767139 0.030755479 -0.061703015 -0.03140718 0.030966207
0.08315478 -0.080339506 0.04967437 0.021647586 -0.050716776 0.040248316 0.035698198 -0.044219438
-0.004588521 -0.056840602 -0.023405012 -0.012767693 -0.14561662 -0.005145371 0.08034851 -0.08965448
0.009723242 0.050237942 0.03502195 0.03375587 0.060193665 0.085724205 -0.034505095 0.062001206
0.10645526 0.0071841227 -0.09567828 -0.07518475 0.045882076 0.07822068 -0.008205511 -0.0661965
0.015348279 0.03611263 0.049878895 0.066213615 0.07079378 -0.08821146 -0.038310047 -0.07097109
0.05591735 -0.022415018 -0.051701047 0.055648386 0.10599181 -0.06652163 0.100338966 0.06672579
-0.02670929 -0.105659306 0.047001675 0.016656086 -0.10662061 0.043914452 0.09031285 0.039968785
-0.019936524 0.03804254 0.015118732 0.014427227 -0.03439407 0.03578574 -0.006957109 -0.04990014
0.004031093 -0.02103015 0.0404178 0.05177867 0.020289082 -0.034633394 -0.058688685 -0.029893536
0.007650002 -0.13439351 0.037640586 -0.08747856 0.035866734 0.04153404 -0.10073631 -0.004790571
-0.079347596 0.054942213 -0.06443738 -0.043988496 0.037534606 -0.07418593 -0.003133134 0.08887163
-0.006381816 -0.037556957 0.011047273 -0.013934664 0.1208227 0.03796366 0.06587842 0.041794132
0.028911265 0.03837366 -0.080850214 -0.041046023 0.010405028 0.0485147 0.0039201947 -0.091513075
-0.051999517 -0.031893324 -0.16272648 0.07358391 -0.018182063 -0.06041906 -0.056201123 -0.017752387
0.0063844766 -0.0397886 0.03774609 -0.055956844 0.20372006 -0.038668077 0.09087316 -4.6531317e-05
0.012625194 0.015437943 -0.03655439 0.02633693 -0.08405437 -0.06364609 0.073442064 0.0063252123
-0.0023706998 0.11441076 -0.0135802785 -0.047755882 -0.022703554 0.045234133 0.025142968 0.05773822
0.050149024 -0.08339236 0.07306942 -0.1370333 0.013821519 -0.10152331 -0.08186602 0.0195
-0.005421929 0.06358102 -0.05088038 -0.04327238 -0.0072956183 -0.035702787 0.04925006 0.04328901

controller.controller.lstm.weight_ih_l0 f4 [400, 39]
00000000: 1c8d d43e 878c cfbe 0284 653e 5d29 a9be
00000010: c459 1cbd 74ac db3e 3d11 aabb 219e 3c3e
00000020: 7d76 943e 0796 d43e 8b05 54bc d9c3 3a3e
00000030: 81b1 aabe 923f 313c 83f7 a2be d142 9b3d
00000040: a716 e33e f096 f9bd 214d edbd e58a 123e
00000050: 533c 97be 2579 b43e e635 1abe be87 79be
00000060: 402f 87be 974f 17be 0929 b9be a52f 963e
00000070: 2a10 cc3e 9161 e43d 3bdd 86be cf63 b7be
00000080: 0256 ee3e e5f7 d63c 4fd7 93be 7615 c4be
00000090: 9dbe 80be 02dd dc3e 5573 8bbd 96df e9bd
000000a0: 0b60 52be 3849 5bbe 5caf be3e deea ccbd
000000b0: 077a 1bbd 7269 2d3d 919a a3be b9d6 b2bd
000000c0: 27a5 c33e 0fbc 943d 37c4 9cbe 8b43 243e
000000d0: dc57 083e 4463 0dbe 2488 d13d aa22 513d
000000e0: 5150 103e d065 73be 093b bdbe a76c 7dbd
000000f0: 2c54 ec3d d886 1abd 8644 f43d 1d75 d9bd
00000100: 22a4 acbc 3ae8 963d e33d a13e 43e0 2d3e
00000110: 13f6 723e ea1c 473d a610 a7bd 3b33 3a3e
00000120: c25b d23e 9864 7dbe 30e0 843e 0cff 513e
00000130: dc16 44be 69da 023e de11 d53e bea1 abbe
00000140: 3ebb 69be 113b 103e 156f 9a3e 95b6 bbbe
00000150: ad6e 54be c3bd dabe 4369 2cbd 656a 033e
00000160: 02c6 e0be 4811 273d 4b04 b8bd ea8f d9be
00000170: 2a1a 853e e714 9b3e 3e9b 1a3e 608e e43e
00000180: 6b37 d13e 03eb af3e 7756 70be 3255 673e
00000190: 8ef9 953c 2da0 95be becf 2dbe b497 9cbe
000001a0: 3230 47be 1389 d63e e896 54bd 53dc 6a3e
000001b0: d95b 89be 17d2 b03e 89b3 813e 54ba ca3e
000001c0: 09bf 8ebe 6d24 b9bd bebe b53e b0a3 2c3e
000001d0: 1118 533e 4612 53be 4c9d babe 057e 47be
000001e0: 6abf 713e 93b0 aebe 4e9b d13e 840e c5bd
000001f0: 0752 c13e a8d2 81bd 073e 4ebe d9a1 8dbe
00000200: 4317 91be 7b21 bcbd 0c10 cb3d 3653 2dbd
00000210: 9a67 9fbe 0337 93be d11f a8bc 4468 a03d
00000220: 03eb cbbe b3fe 64bd 7176 d43e 0c63 afbd
00000230: 3e0c 8c3e 9a6b ccbe d651 8cbe e408 b83e
00000240: be82 94be 1607 af3e 72e5 b53e ccd5 45be
00000250: 3a84 57be 0345 5f3e 9782 373e 516a 883e
00000260: dced 63be b72a 953e 1693 ac3e 23e1 55be
00000270: c3aa 52be a387 47be 4dcd 90bd ff21 9e3e
00000280: 8566 f7be aa1e 453e a3b8 ca3d 12ab 59be
00000290: 47d1 debd 48fc bfbc e811 2bbe a337 003e
000002a0: 5831 29bf a5ed c9bd eaf8 71be 1b94 f53d
000002b0: d731 74be ec48 873e 0555 1bbd 33cc 4ebe
000002c0: 9338 a1be 0a20 e0be cb4b 39be d524 a23e
000002d0: 6ea7 8c3d 9ff7 c1be 6754 023e 80c9 1bbc
000002e0: d042 93bd f1b2 d63e f377 4bbd 6302 99bd
000002f0: 9533 d5bc a75c 8e3e f5e6 d13c da57 c0bd
00000300: a939 a73e ef31 c33d 8d9a eebc 3f45 9ebe
00000310: 2f54 b63d 0b24 93be 0514 a13e 2660 9a3e
00000320: ddf1 c0be 576a 15be 61d6 e1bd 6f28 8a3e
00000330: 68ba 63be d1e1 ca3d 54b3 75be b8ab 9cbe
00000340: 49b9 c33e 8adb e13e 0aa7 8d3e 8a62 083e
00000350: 96a2 863e 353b 5b3e d0c6 96be d213 443e
00000360: 505e b73e ac05 993e 2784 a73e 196e 003e
00000370: 77f6 073e fbdf f13e 5d82 163d 4194 e43e
00000380: 461a a0be 3ef5 2f3d 10a3 f13e 6d7c cabe
00000390: 293f b03d 5633 a53e 0462 5bbe 4629 173e
000003a0: 10e6 c03e 95bf febd 7c92 1cbd 46b9 5d3e
000003b0: e15b f33d c540 823e 15ad fe3e 9dd8 9d3c
000003c0: 7d62 5a3e 75f0 3c3f 8b93 623e 1d89 393d
000003d0: 2fd8 febc c98c 2e3d f675 f63e d1fb 1a3e
000003e0: cc6d 033f 016b 7bbe ba07 cd3d 339e f6bd
000003f0: b83b 5abe 89b3 03bf 95c2 433d 59b7 773e
0.41513908 -0.405369 0.22413638 -0.3303937 -0.038171545 0.4290501 -0.0051900432 0.18419696
0.2899665 0.41520712 -0.012940775 0.18238772 -0.3333855 0.010818379 -0.3182946 0.075811036
0.4435322 -0.12186992 -0.11586977 0.14310797 -0.2953821 0.35248676 -0.15059623 -0.24368188
-0.26403236 -0.14776455 -0.3616412 0.29333225 0.39856082 0.11151422 -0.2634066 -0.35818335
0.46549994 0.026241252 -0.28875205 -0.38297623 -0.25145426 0.43137366 -0.06809107 -0.11419599
-0.2054445 -0.2141465 0.37243164 -0.10005735 -0.03795817 0.04233689 -0.31953862 -0.08732361
0.3821194 0.07262432 -0.3061845 0.1604139 0.13314766 -0.13807398 0.10231045 0.05105845
0.14093138 -0.23769307 -0.36959103 -0.061871197 0.11539492 -0.037726253 0.11927132 -0.10618041
-0.021074358 0.073685125 0.31492528 0.1698008 0.23726682 0.04861156 -0.08157472 0.18183605
0.4108563 -0.24745405 0.2595229 0.20507449 -0.19149345 0.1277863 0.41615194 -0.33521837
-0.22825333 0.14085032 0.30162874 -0.36662737 -0.20745344 -0.42722902 -0.042092573 0.12833555
-0.43901068 0.040787965 -0.08985194 -0.4249261 0.25996524 0.30289385 0.15098283 0.44639874
0.40862593 0.34358987 -0.23470484 0.22591093 0.018307474 -0.29223767 -0.16973779 -0.3058449
-0.19451979 0.41901454 -0.051901728 0.2293561 -0.26827887 0.34535286 0.25332287 0.39595282
-0.27880123 -0.09040151 0.35497087 0.16859317 0.2061465 -0.2061244 -0.36448133 -0.19481666
0.23608175 -0.3411909 0.409388 -0.09621909 0.37757894 -0.063390076 -0.20140849 -0.27662542
-0.2833806 -0.091860734 0.0991517 -0.042315684 -0.3113373 -0.28752908 -0.020522984 0.07832387
-0.39827737 -0.055906963 0.41496614 -0.085638136 0.2735309 -0.39925843 -0.27406186 0.35944283
-0.29005998 0.34185094 0.35526615 -0.19319838 -0.21046534 0.2180367 0.1792091 0.26643613
-0.22258705 0.2913415 0.33705968 -0.20886664 -0.20572953 -0.19485335 -0.07070408 0.30885312
-0.48320404 0.19249979 0.09898498 -0.21256664 -0.1087976 -0.023435727 -0.1670605 0.12521224
-0.6609092 -0.0985978 -0.2363011 0.119911395 -0.23847137 0.26422822 -0.037922878 -0.20195083
-0.31488475 -0.43774444 -0.18095319 0.31668726 0.06867872 -0.37884232 0.1272751 -0.009508491
-0.07190478 0.41933396 -0.04967494 -0.07471158 -0.026025573 0.27805063 0.025622824 -0.09391756
0.3266118 0.095310085 -0.02912643 -0.30912206 0.089027755 -0.28738436 0.31460586 0.3015148
-0.37684527 -0.14591347 -0.11027218 0.26983973 -0.22239077 0.09906352 -0.2399419 -0.3059976
0.382273 0.44112808 0.27666503 0.1331884 0.26295918 0.21409304 -0.29448557 0.19148186
0.35814142 0.2988714 0.32718012 0.12541999 0.13277613 0.47241196 0.036745418 0.4464436
-0.31270045 0.04295849 0.4719472 -0.39548054 0.08605797 0.3226573 -0.21424109 0.14761838
0.37675524 -0.12438885 -0.038225636 0.21652707 0.11882759 0.2544004 0.49741426 0.019268328
0.21326633 0.7380441 0.22126596 0.045296777 -0.031108944 0.042614732 0.48136872 0.15135123
0.5133941 -0.24552538 0.10011239 -0.12041893 -0.21311843 -0.51445824 0.04779299 0.24191035

controller.controller.lstm.weight_hh_l0 f4 [400, 100]
00000000: 262c 183e 1b1b 4dbe 69c5 c4be 4668 503e
00000010: 68c0 033e 4052 6ebe 65db 903e a358 2c3e
00000020: ed28 67be bc6a 5cbe 992d 12bd 43bd a5be
00000030: 479b af3e 558d 27be 3047 b8be 3e30 673e
00000040: a6a0 14be 063f bfbe 7b63 9b3e 6f58 a73c
00000050: 79ac 7fbe a950 543e e750 c2bd b4be 633e
00000060: 2201 95be 13f3 5bbe d098 eb3d a5ca f0bd
00000070: ba5f 1fbe bf7b 49bd 2052 ee3e 9179 993e
00000080: 3c05 4ebe 0844 c33e cde8 643e 2524 95be
00000090: 50b9 fd3e 7c5c 7dbe 873e d5be d108 33be
000000a0: ab0a e7bd 25df e8be 398c 03be 4677 593d
000000b0: 1579 b7bd 24d5 8abe b860 313d a46e ec3c
000000c0: 20d8 50be 8544 62be a09d b1be 6947 97be
000000d0: 6489 a5be 05d0 5ebe 385c b53e 714f 14bd
000000e0: 8fef 303e 4f68 cdbe 2b5a ccbd e8ff 18be
000000f0: 5b5c 973d 6810 e43e 705b 5d3e d543 583e
00000100: 7df0 4fbe b8a0 f33d 327b cc3d 413b c7be
00000110: 45f4 eebe 0ddc 083e 5a8d d6bd 3be8 503c
00000120: ec40 ad3e d2a7 a63e 8d29 cabe e2c3 cabe
00000130: fca9 c3b9 77e8 92be 6e35 ef3d cd01 263e
00000140: 5c40 61bd 8d66 6dbc 42b5 903e f086 c33c
00000150: f407 2d3e df84 6c3e 6d60 4d3e e2e9 5f3e
00000160: 2d20 a5be 81cf a63e 1585 a13e 6b63 a33e
00000170: 7da2 8c3e 86f9 8f3e 5845 6fbe 685a 24be
00000180: 146d f63d b2f8 84be 658e 843e bd4f 80bd
00000190: 88e9 62bd 1a6b 84be f22c 9c3e 7bc0 18be
000001a0: b692 b2be f2d8 74be a4d8 b63d 0611 86be
000001b0: 83af 373e 3c3b b7bd 2751 65be 8105 a33e
000001c0: 899e d4be fc21 36be a2c3 84be 2e1e 3bbe
000001d0: d780 693e b7c1 cf3d f963 593e b017 f9bd
000001e0: c0f3 953e 0470 c4be 4ce3 b03e 9238 bcbe
000001f0: 0caf acbe 5b64 96be 0f85 b7be dba0 9cbe
00000200: 90c4 5ebd 4f2a 60bd 5e59 04be 0512 d83d
00000210: 4aa4 fc3c 0387 173d 3f2e b53e 3ff7 ab3d
00000220: 26ce c8be aed7 883e b4e6 be3a fb61 b9be
00000230: b5b6 803e d3fb 94be c7c0 093e 7f0b bebe
00000240: 2384 243e 58a0 ef3e 5fba a8be 321d 953d
00000250: 40b6 2bbd ed7f 293e b3e3 e73e 8ebc a23e
00000260: afed 98be f2b5 30be 20bc 0c3e 8a85 24be
00000270: 1d69 603e a667 dd3d 39db 9cbe f81f 7e3e
00000280: 7d5c 623e 73cb aebe 0995 e03a 92a5 6dbe
00000290: de51 b53d f6b7 153e a9d1 2f3e 4a95 2cbd
000002a0: f048 613e 7813 c83d 3940 c6be 01ba 9a3e
000002b0: 2f79 c0be 99cf 663e 40d1 b63d c382 423d
000002c0: 6f38 ea3d 4fd4 733e f25d d8be bdf9 d53e
000002d0: 499e aa3d b61d dfbe f04b c73e 79cf ca3e
000002e0: 469b cb3e 5683 c93d 45b7 eabc e8c9 883e
000002f0: 64db ae3e 9ae1 86be e94f af3e 49d9 a9be
00000300: 2a3a febb 4250 933d 0082 983e 212a 093e
00000310: 63e5 edbd c1cc a6be ee86 82be 9a1c 89be
00000320: f3fd 75be d6af bf3e 414b 7a3e e3b7 5e3e
00000330: 3990 99be 467d d53e df58 c3bd 448a 75be
00000340: 56c5 72bd c1a3 acbd 4740 893e b99b 0dbd
00000350: ca19 533d 71f9 433e da73 963e bf22 813e
00000360: e14f 993e 9ff1 96bd 8c04 7bbe 3f86 b9be
00000370: ae6d 973d 198d ae3e 4c57 733d 1dd3 8ebe
00000380: 3127 873e 985b 98be 12a4 a7be 95de 973d
00000390: e194 903e bc39 bbbe ce19 d33d 7a50 bf3e
000003a0: d31f bcbd dbed f13c b02e bcbe 855b d4be
000003b0: a0c0 3abe 5f27 c7bc 1414 d3bc 941a 28be
000003c0: 72b7 303c 3c61 c7be f78a cb3e 7bcc 9a3e
000003d0: 0dec 5fbd c7a6 ad3e f7c1 743e b58f 57be
000003e0: 9c24 d83d 21cb c33e 4fc0 a9be bf0d e2be
000003f0: e815 99be 5f24 4ebe 3cc0 81be 669a d9be
0.14860591 -0.20029871 -0.38431862 0.20352277 0.12866366 -0.23273563 0.28292385 0.16830687
-0.22574206 -0.21525091 -0.035688017 -0.32370958 0.34298155 -0.16362508 -0.35991812 0.22576997
-0.14514408 -0.3735277 0.30349335 0.02042791 -0.24968137 0.20733894 -0.09488087 0.22240716
-0.29102427 -0.21479444 0.11503756 -0.117574014 -0.1556386 -0.04919028 0.4654703 0.2997556
-0.20119184 0.3813784 0.22354431 -0.2912914 0.49555445 -0.24742311 -0.41649267 -0.17483832
-0.11281332 -0.45482746 -0.1284646 0.053092264 -0.089586414 -0.27115738 0.04330513 0.028861351
-0.20394945 -0.2209645 -0.3469057 -0.2954667 -0.32331383 -0.2175904 0.3542192 -0.036208574
0.17278884 -0.40118644 -0.09978136 -0.1494137 0.07390662 0.44543767 0.21616912 0.21119626
-0.20306583 0.11895889 0.09984435 -0.38912395 -0.46670738 0.13365193 -0.104761794 0.012750681
0.33838594 0.32549912 -0.39484826 -0.39602572 -0.00037319947 -0.28692982 0.11680113 0.16211624
-0.05499302 -0.014489782 0.2826329 0.023868054 0.16897565 0.23097561 0.20056315 0.21866563
-0.3225111 0.32580188 0.31546846 0.31911787 0.2746772 0.2812006 -0.23366296 -0.16050112
0.12032524 -0.2597099 0.25889888 -0.06265209 -0.055398494 -0.25862962 0.3050304 -0.14917175
-0.34877557 -0.23910883 0.0892804 -0.26184863 0.17938046 -0.08946845 -0.22394238 0.31840137
-0.41527203 -0.17786402 -0.25930506 -0.18273231 0.22803055 0.1014437 0.21229543 -0.12162721
0.2928753 -0.3836671 0.34548414 -0.3676191 -0.337273 -0.2937344 -0.35843703 -0.30591473
-0.054386675 -0.05472785 -0.12924716 0.10550312 0.030840058 0.03699399 0.35386845 0.08396768
-0.3921978 0.2672705 0.0014564604 -0.36207566 0.25139394 -0.29098377 0.13452445 -0.37118146
0.16066031 0.4680202 -0.3295469 0.07280959 -0.041921854 0.16552706 0.45290908 0.3178448
-0.29868838 -0.17256907 0.13743639 -0.16066566 0.21915098 0.10810785 -0.30636004 0.24816883
0.22105594 -0.34139594 0.001713426 -0.23207691 0.088535056 0.14620957 0.17169823 -0.04213456
0.2200048 0.09769338 -0.38720873 0.30220035 -0.37592456 0.2254013 0.0892663 0.047487985
0.11436545 0.23811458 -0.42259175 0.41792098 0.08330972 -0.43577355 0.38925123 0.39611414
0.39766902 0.098395035 -0.028651843 0.26716542 0.34151757 -0.26343995 0.34240654 -0.33173588
-0.0077583985 0.07193042 0.29786682 0.13394977 -0.11616018 -0.3257809 -0.25493568 -0.26779634
-0.24022655 0.3743884 0.2444277 0.21749835 -0.29992846 0.4169714 -0.09538435 -0.23978525
-0.059270225 -0.08429671 0.26806852 -0.034572337 0.051538266 0.19138123 0.29385263 0.25221822
0.29943755 -0.07370304 -0.24513453 -0.36235234 0.073939666 0.34092024 0.059409425 -0.27895442
0.26397088 -0.2975738 -0.32742363 0.07415501 0.28238586 -0.36567485 0.10307656 0.37366086
-0.091857575 0.029532364 -0.3675437 -0.41476074 -0.18237543 -0.024310766 -0.02576641 -0.16416389
0.010785924 -0.3894137 0.3975446 0.3023413 -0.054668475 0.33916304 0.23902117 -0.21050914
0.10553858 0.38240913 -0.33154532 -0.44151112 -0.29899526 -0.20131062 -0.25341976 -0.4250061

controller.controller.lstm.bias_ih_l0 f4 [400]
00000000: 7f79 45bc 78f9 573c 03f7 a13c 91a1 593d
00000010: 1cda ef3c 62d0 a73c 9459 b33d 2a5a 0bbc
00000020: 48be 143e d1e2 71bb 7294 183d 0586 993d
00000030: ce6e 613d b9c5 993d d36f 2dbd c011 a23d
00000040: 1a02 1d3e c3f1 033d 7f1f 9abc a9a4 51bb
00000050: c5a8 c13d 4f8b 823c 8bb5 8b3b 5a9a 903c
00000060: f8fc 813c 8623 af3c f1d9 d43b 027d 7b3d
00000070: e86c b53c 51f1 51bd 5ae4 813d 7cd7 e83c
00000080: 25bc 2a3d bcac 0e3d 3f4b df3c 6111 a53d
00000090: 9802 f33d 4f5e 0d3d 4e16 c4bc 4d87 ee3b
000000a0: 753d b03c 1d02 fbba 64e9 4f3c fc79 913d
000000b0: 7139 813d 300a 5c3d d70f c338 67b0 173c
000000c0: 41ab 0abc ff0d 523c 2745 1f3d d5ea 613c
000000d0: 6454 3e3b 4250 7939 289d 0c3d 589b f13b
000000e0: 26b7 8e3d 2ca0 d23c 3336 1b3d 91a8 b03c
000000f0: 5be0 61bc f651 113d c910 f1ba 1e0f d23c
00000100: d9aa b9bb d55f 513c c7ae 773b 03a4 efbb
00000110: b9d5 523d ad87 3f3c 5eb4 a6bb 6ee6 e53c
00000120: d16b cd3c 23a0 eb3b a36a 843d 0333 a63d
00000130: 8331 883c 4746 b43d 4adc 2c3d debe 0d3c
00000140: 7a9a d43c cfee 5d3d ad98 f83c 18ab 0f3e
00000150: 10bc 213d 6ec4 7e3d 6e75 15bc d701 8ebc
00000160: fa45 073d a8b8 a53c 535d 003d 7334 943d
00000170: e633 2abd 330f ce3d a87b 1a3c 3e50 553c
00000180: 2166 853d 9fad 293c 3ae4 b43d e398 0abd
00000190: bdaf 8dbc 5562 b83c 78d9 bfbc 9989 56bd
000001a0: 080e d4bc 3ea1 573c 27a5 c0bc d64e 12bd
000001b0: cae3 38bc 2c8e eebb d85a 8bbd c4ba 5a3c
000001c0: d5bf 103d cbe0 2b3c e496 72bc f011 51bc
000001d0: 0937 67bd c4a6 25bd fd86 abbc aa2e 5dbb
000001e0: 0f2a 1f3d 4242 63bd 1ebe 81bc 07be d1bc
000001f0: 9780 f0bc ba5e 263b 0b50 69bd ae3b 06bc
00000200: 4745 48bc 28ac b1bc 8a41 bfbc eeed de3b
00000210: 4d6c 373a 8e26 823c 6114 f5bc 56b6 66bd
00000220: 4f84 e0bc 6b40 ab3c ed78 6cbd 8b4b d8bc
00000230: ed34 ccbb 0f8d 89bc 9f1d 53bd b15c 54bd
00000240: 4fd3 06bd a0aa 22bd 6ec5 e6bc 660b fdbc
00000250: 0f20 0ebd d120 9cbc 874b 1a3d a634 24bc
00000260: 8c0a a5bc f9c9 acbc 8a82 9e3c fb9c 00bd
00000270: 91b1 cd3b 3275 593c 7896 303d 6ea4 86bd
00000280: 0290 993b 97e6 333d d032 11bd 196d 613d
00000290: 8f54 a5bd b6f1 1dbd bf87 93bc 63a1 9d3c
000002a0: 71d8 5dbd d956 1fbd fedc 68bd f958 34bd
000002b0: d8f2 67bc 6061 93bc 94f7 9abd e112 99bb
000002c0: 06bc a63c 019e 023c c38f c939 3679 1dbd
000002d0: 5612 353c e57d 7d3c ded2 163d ace6 9ebd
000002e0: dc42 8a3c e5c9 5abc fa5f 0abd 8d29 85bc
000002f0: d6ca 27bd c88f b13c 8a73 e4bc c989 6f3d
00000300: b46a 92bd 6774 13bd 498d 02bd 180f 193c
00000310: 703a 3cbd c199 0a3c 5748 32bc ded2 86bd
00000320: 858e 963c 48df 92bc 90a6 e83c 6c13 e8ba
00000330: bfe1 e6bc dcfb d7bb 89c1 a83b 3873 2f3c
00000340: aee4 23bd de6f 4dbc f36f 14bc 6194 4cbd
00000350: 7c4e 05bc 19ae 41bc 073e 3ebd 309b 8d3c
00000360: 4f8a 613b 5205 1abc 197a 70bb e377 5a3c
00000370: f8a7 453c dff0 463b 1d61 d2bb cd5a 98bb
00000380: b072 103d 8479 b73b 9b40 543b 8d8e 2bbc
00000390: 8766 b9bc 3b91 39bc c76b 0bbc 66b6 c1bb
000003a0: eae5 b4bc d4be 0b3d f659 6bbb c031 933b
000003b0: a077 b53b 62d0 a23c c8d0 98bc 64a3 58bc
000003c0: eb51 393c 9329 e23b 3db1 e6bc f02b b33b
000003d0: 2b29 d1ba 6d39 c03c cc5d b33b 9424 6e3c
000003e0: e7c5 b7bc fbef fdbc 783a 453d 89ae 033d
000003f0: 31b1 48bc d072 533a 6af2 68bc 3648 bbbc
-0.012052893 0.013182037 0.019771105 0.053132597 0.029278807 0.020485107 0.0875732 -0.0085053835
0.14525712 -0.0036908875 0.037250943 0.07496265 0.055037312 0.07508416 -0.042342972 0.07913542
0.15332833 0.032212984 -0.018813847 -0.0031989014 0.09456018 0.015935568 0.004263585 0.017651726
0.015867695 0.021379244 0.006495707 0.061398514 0.022146657 -0.051255528 0.06342383 0.028423063
0.041683335 0.0348327 0.02725756 0.080599554 0.11865729 0.034513768 -0.023936417 0.0072793127
0.02151368 -0.001915041 0.012689922 0.07103345 0.06309784 0.053720653 9.301275e-05 0.009258366
-0.008463682 0.01282072 0.03888431 0.0137888985 0.0029042 0.00023776389 0.034329563 0.0073732547
0.069685265 0.025711142 0.037893485 0.021564754 -0.013786401 0.035478555 -0.0018391843 0.025641974
-0.0056661186 0.012779196 0.0037793384 -0.007313253 0.051473353 0.0116900625 -0.0050874194 0.028063979
0.025075825 0.0071907206 0.06465652 0.081151985 0.016625172 0.08802467 0.04220227 0.008651463
0.025952566 0.054182824 0.030346239 0.14030111 0.03948599 0.06219905 -0.009122236 -0.017334862
0.03302572 0.020229653 0.031339 0.072365664 -0.0415534 0.10061493 0.009428896 0.0130196195
0.0651362 0.010356336 0.08832593 -0.03383721 -0.017295713 0.022507826 -0.023419127 -0.052377317
-0.025885597 0.013161002 -0.02351625 -0.035719715 -0.011284778 -0.007280132 -0.068044364 0.013350192
0.035339195 0.010490607 -0.014806483 -0.012760624 -0.05644897 -0.040442243 -0.02093839 -0.0033749738
0.03885847 -0.05548311 -0.015837725 -0.025603307 -0.029358191 0.0025386051 -0.0569611 -0.00819294
-0.012223548 -0.021688536 -0.023346681 0.006803266 0.0006997034 0.015887525 -0.029916944 -0.056326233
-0.02740684 0.02090474 -0.05773251 -0.02640321 -0.006231895 -0.016790895 -0.05154192 -0.05184621
-0.032916363 -0.039713502 -0.028170314 -0.030889224 -0.034698542 -0.019058617 0.037669685 -0.010022318
-0.02014663 -0.021092402 0.019349355 -0.03139971 0.006277271 0.01327257 0.04311225 -0.06574331
0.0046863565 0.04392108 -0.03544885 0.055035684 -0.08072769 -0.03856059 -0.018009065 0.019241994
-0.054161493 -0.038901184 -0.05685138 -0.044030163 -0.01415702 -0.017990768 -0.07566753 -0.00467144
0.020353328 0.007972241 0.00038444818 -0.038445674 0.011051735 0.01547191 0.036822192 -0.07758841
0.016877584 -0.0133537995 -0.033782937 -0.016255165 -0.040964924 0.021675006 -0.027887125 0.05848101
-0.07149258 -0.03599968 -0.03187302 0.009341978 -0.045954168 0.008459509 -0.010881505 -0.065831885
0.018378505 -0.017928734 0.028399736 -0.0017705983 -0.028183816 -0.0065913033 0.0051500243 0.010708623
-0.040013008 -0.012538878 -0.009059894 -0.049946193 -0.008136388 -0.011821293 -0.046445873 0.017285913
0.0034414714 -0.0094006825 -0.003669387 0.013334247 0.012063973 0.0030355973 -0.006420268 -0.004649496
0.035265625 0.0055992026 0.003238714 -0.0104709985 -0.022631897 -0.01132613 -0.008509583 -0.005911636
-0.022082288 0.034117535 -0.0035911775 0.0044920146 0.005537942 0.019874755 -0.018654242 -0.013222549
0.011311035 0.0069019287 -0.028160686 0.0054678842 -0.0015957704 0.023464883 0.005473828 0.014535088
-0.022433234 -0.03099822 0.048151463 0.03214887 -0.012249277 0.00080661196 -0.014217952 -0.022861581
