model_real.pkl (torch, 207716 bytes, 38 tensors)

init_gate f4 [1, 3]
0.3333 0.3333 0.3334
00000000: 4ca6 aa3e 4ca6 aa3e 68b3 aa3e

mkaarma.models.0.Phi f4 [21, 1]
0.0 1.0 0.0 1.0 1.0 0.0 1.0 0.0
0.0 1.0 0.0 1.0 0.0 1.0 1.0 0.0
1.0 0.0 1.0 0.0 1.0
00000000: 0000 0000 0000 803f 0000 0000 0000 803f
00000010: 0000 803f 0000 0000 0000 803f 0000 0000
00000020: 0000 0000 0000 803f 0000 0000 0000 803f
00000030: 0000 0000 0000 803f 0000 803f 0000 0000
00000040: 0000 803f 0000 0000 0000 803f 0000 0000
00000050: 0000 803f

mkaarma.models.0.initial_state f4 [1, 4]
0.417022 0.7203245 0.000114374816 0.30233258
00000000: e883 d53e 3067 383f 83dc ef38 56cb 9a3e

mkaarma.models.0.A f4 [21, 4]
0.12005611 -0.15357016 0.417122 0.34597066 0.34348693 0.37823504 0.24861692 0.34497213
-0.04112426 -0.043253746 -0.032112744 0.04837894 -0.07878175 -0.06736434 -0.079425484 0.19899726
0.21157022 0.3365567 0.033440918 0.215762 0.0034673903 -0.010270669 0.018790059 0.40931353
0.4034033 0.59073627 0.12267286 0.73722416 -0.4304988 -0.55899197 -0.21344373 -1.1058016
-0.55493784 -0.8714261 -0.1008246 1.5021728 -0.3712723 -0.3495879 -0.33718932 -1.1418579
-0.029883385 -0.022555834 -0.03359035 0.7002976 -0.661301 -0.80083853 -0.39471775 -1.0188063
0.3022278 0.7014214 -0.20718598 -0.17684951 0.12750378 -0.013675081 0.27033055 0.4498207
-0.016381046 -0.023797413 -0.005201708 0.34665692 -0.078769244 -0.10311077 -0.038094264 -0.13802667
0.35023913 0.45050296 0.17858717 1.1533375 0.4035936 0.64716977 0.05783485 -0.11267734
0.30892208 0.2557503 0.32115576 0.81362194 -0.096161835 -0.11711902 -0.056627102 -0.67349917
-0.06444532 -0.098116435 -0.015271332 -0.030960035
00000000: fadf f53d 7f41 1dbe 0491 d53e 1123 b13e
00000010: 85dd af3e 06a8 c13e 6f95 7e3e 30a0 b03e
00000020: e971 28bd d72a 31bd a788 03bd ff28 463d
00000030: 5358 a1bd 51f6 89bd d4a9 a2bd f0c5 4b3e
00000040: dda5 583e 2951 ac3e 58f9 083d b7f0 5c3e
00000050: 283d 633b 4f46 28bc 9ced 993c 8b91 d13e
00000060: e18a ce3e 7e3a 173f e93b fb3d b9ba 3c3f
00000070: 576a dcbe 191a 0fbf fe90 5abe e88a 8dbf
00000080: 6810 0ebf c815 5fbf 217d cebd 3347 c03f
00000090: 6717 bebe 2ffd b2be 14a4 acbe 6628 92bf
000000a0: 00ce f4bc 03c7 b8bc 0996 09bd b446 333f
000000b0: 064b 29bf c103 4dbf 7218 cabe 3f68 82bf
000000c0: 9abd 9a3e 5a90 333f 9028 54be 0a18 35be
000000d0: 5a90 023e 720d 60bc c468 8a3e e64e e63e
000000e0: 8b31 86bc cbf2 c2bc 1773 aabb 047d b13e
000000f0: c551 a1bd bd2b d3bd bb08 1cbd dd56 0dbe
00000100: 8b52 b33e 53a8 e63e 8edf 363e 90a0 933f
00000110: d2a3 ce3e ebac 253f 3ce4 6c3d 61c3 e6bd
00000120: 092b 9e3e b4f1 823e 876e a43e 8749 503f
00000130: 7ff0 c4bd 19dc efbd d2f1 67bd 716a 2cbf
00000140: e8fb 83bd 45f1 c8bd 9c34 7abc e69f fdbc

mkaarma.models.0.S f4 [21, 4]
0.417022 0.7203245 0.000114374816 0.30233258 0.417022 0.7203245 0.000114374816 0.30233258
0.01986125 0.01249667 0.025207577 0.046766557 0.02037283 0.013406073 0.025177967 0.047604654
0.040902253 0.060350228 0.0119138565 0.4692171 0.041041475 0.060671512 0.011820518 0.47088122
-0.19894081 -0.27093223 -0.08406183 0.4241377 -0.20053798 -0.27286237 -0.085019775 0.43362853
0.17967138 0.29089364 0.022529216 0.7982653 0.20452157 0.31684205 0.04215185 0.7819165
-0.29639646 -0.37770587 -0.15522617 0.03699764 -0.25419956 -0.32582653 -0.13093944 -0.003969518
0.30602202 0.30709064 0.25603995 0.45164064 0.33945492 0.32473788 0.30238816 0.4768505
-0.47688925 -0.60795313 -0.24947445 -0.256341 -0.47623497 -0.6067039 -0.24961178 -0.26876894
0.34625402 0.47552335 0.1417216 1.1356647 0.34299645 0.46855506 0.14327079 1.1248218
-0.10461462 -0.15178572 -0.033442076 0.8256174 -0.07662999 -0.123589925 -0.010159144 0.83981544
-0.49143615 -0.6503357 -0.22953843 0.22548681
00000000: e883 d53e 3067 383f 83dc ef38 56cb 9a3e
00000010: e883 d53e 3067 383f 83dc ef38 56cb 9a3e
00000020: 0fb4 a23c d5be 4c3c 1f80 ce3c 4a8e 3f3d
00000030: ece4 a63c 25a5 5b3c 0642 ce3c 19fd 423d
00000040: 1f89 273d cd31 773d 5632 433c 393d f03e
00000050: 1b1b 283d b182 783d d9aa 413c 5817 f13e
00000060: 24b7 4bbe a1b7 8abe 9c28 acbd 9428 d93e
00000070: d459 4dbe 9eb4 8bbe d91e aebd 8f04 de3e
00000080: c6fb 373e 03f0 943e 318f b83c 1d5b 4c3f
00000090: 1a6e 513e 1f39 a23e 6ba7 2c3d ae2b 483f
000000a0: 47c1 97be aa62 c1be 9cf3 1ebe d68a 173d
000000b0: 7226 82be bcd2 a6be fd14 06be bb12 82bb
000000c0: ebae 9c3e fc3a 9d3e ab17 833e 713d e73e
000000d0: 09cd ad3e 0b44 a63e 9fd2 9a3e c025 f43e
000000e0: d42a f4be d1a2 1bbf 3b76 7fbe 213f 83be
000000f0: 12d5 f3be f250 1bbf 3b9a 7fbe 159c 89be
00000100: 3548 b13e cc77 f33e 781f 113e 765d 913f
00000110: 3b9d af3e 73e6 ef3e 94b5 123e 29fa 8f3f
00000120: 3140 d6bd b76d 1bbe 8ffa 08bd a95b 533f
00000130: 2ff0 9cbd b71c fdbd 8a72 26bc 25fe 563f
00000140: 859d fbbe 677c 26bf 1f0c 6bbe 04e6 663e

mkaarma.models.1.Phi f4 [36, 1]
0.0 0.0 1.0 1.0 0.0 1.0 0.0 0.0
0.0 1.0 1.0 1.0 1.0 0.0 0.0 1.0
0.0 1.0 1.0 0.0 0.0 1.0 1.0 0.0
0.0 1.0 1.0 1.0 0.0 0.0 1.0 0.0
1.0 1.0 0.0 0.0
00000000: 0000 0000 0000 0000 0000 803f 0000 803f
00000010: 0000 0000 0000 803f 0000 0000 0000 0000
00000020: 0000 0000 0000 803f 0000 803f 0000 803f
00000030: 0000 803f 0000 0000 0000 0000 0000 803f
00000040: 0000 0000 0000 803f 0000 803f 0000 0000
00000050: 0000 0000 0000 803f 0000 803f 0000 0000
00000060: 0000 0000 0000 803f 0000 803f 0000 803f
00000070: 0000 0000 0000 0000 0000 803f 0000 0000
00000080: 0000 803f 0000 803f 0000 0000 0000 0000

mkaarma.models.1.initial_state f4 [1, 4]
0.417022 0.7203245 0.000114374816 0.30233258
00000000: e883 d53e 3067 383f 83dc ef38 56cb 9a3e

mkaarma.models.1.A f4 [36, 4]
0.3600592 0.08970806 0.61496097 -0.45151314 0.45634016 1.2088135 -0.4855121 4.3537693
-1.2736977 -0.9897351 -1.3986082 1.3360919 -0.06012183 -0.56296957 0.5305556 0.58145744
-0.43853885 -1.2129251 0.526241 -1.3216019 0.9859634 0.8731262 0.95930594 -0.29223737
-0.3158447 0.04609153 -0.6838348 0.10776205 -0.2729621 0.013251587 -0.5600804 -2.5933144
0.8524963 0.9759326 0.5738994 -0.069279015 -0.14217928 -0.9041657 0.76096505 -0.1208318
-0.48540244 -0.8313824 -0.008299914 0.7066561 0.08951512 0.6606599 -0.58438396 2.0893853
0.16212133 0.35763952 -0.089825414 0.70783174 -0.19129758 -0.27975407 -0.058655526 -0.3447981
-0.16728875 -0.12001914 -0.19484134 -0.0076271626 0.6709592 0.53695613 0.71896243 -3.3730948
-0.10892472 -0.119526625 -0.07934436 -0.17975602 -0.19206023 -0.1830287 -0.17170946 -0.89989513
-0.45991188 -0.5864108 -0.24051216 -0.00096281094 0.06556185 0.4851511 -0.42968205 1.1643634
0.144558 -0.036065973 0.3303073 0.2426776 0.25658453 0.6331223 -0.21939048 -0.51333517
-0.0024987513 0.18187441 -0.21515276 -0.23051265 0.09729824 0.12372085 0.051267643 0.2969921
-0.07113544 -0.13468231 0.013680925 0.023302749 -0.07367367 0.31334698 -0.5091596 -0.237368
-0.04969152 0.0005796667 -0.09986934 -0.289032 0.09567678 0.10593716 0.068580344 -0.07153299
-0.09665972 -0.11977307 -0.054554783 -0.08816111 -0.068734646 -0.07142571 -0.054675456 0.6894668
0.017588768 0.02918987 0.0013867004 0.13760488 0.10989622 -0.05401269 0.2818201 0.025076414
-0.048193615 -0.048560005 -0.040095404 0.15665972 -0.116863124 -0.34214947 0.16206947 -0.14427479
-0.00026587278 0.0079623135 -0.009729115 -0.0114790555 -0.16399825 -0.020798746 -0.30334195 -0.19017208
00000000: ae59 b83e dcb8 b73d 156e 1d3f bb2c e7be
00000010: 6ba5 e93e 67ba 9a3f 0b95 f8be 1452 8b40
00000020: 8708 a3bf 485f 7dbf 9805 b3bf 0f05 ab3f
00000030: 4f42 76bd c61e 10bf 7ed2 073f 65da 143f
00000040: 2a88 e0be 2141 9bbf bbb7 063f 402a a9bf
00000050: 1968 7c3f 3385 5f3f 1395 753f 23a0 95be
00000060: 66b6 a1be 79ca 3c3d cc0f 2fbf 5ab2 dc3d
00000070: b0c1 8bbe 2f1d 593c 6e61 0fbf ddf8 25c0
00000080: 333d 5a3f b8d6 793f 12eb 123f 28e2 8dbd
00000090: 7297 11be 6777 67bf 9bce 423f aa76 f7bd
000000a0: ab86 f8be 7ad5 54bf 5dfc 07bc 6ae7 343f
000000b0: b453 b73d 0221 293f 309a 15bf 7db8 0540
000000c0: 2203 263e 871c b73e 63f6 b7bd 7634 353f
000000d0: 83e3 43be ed3b 8fbe c740 70bd 6089 b0be
000000e0: be4d 2bbe 98cc f5bd 7d84 47be 47ed f9bb
000000f0: fbc3 2b3f f575 093f ec0d 383f c9e0 57c0
00000100: ec13 dfbd 60ca f4bd 4c7f a2bd f611 38be
00000110: 70ab 44be e06b 3bbe 9bd4 2fbe 875f 66bf
00000120: 9279 ebbe 051f 16bf d248 76be 2665 7cba
00000130: 4b45 863d ba65 f83e 49ff dbbe dc09 953f
00000140: 0307 143e eab9 13bd 0a1e a93e 7a80 783e
00000150: 0c5f 833e 4e14 223f e6a7 60be ef69 03bf
00000160: 17c2 23bb 493d 3a3e 0151 5cbe 820b 6cbe
00000170: 4d44 c73d 5b61 fd3d 05fe 513d 590f 983e
00000180: 75af 91bd 29ea 09be f525 603c 68e5 be3c
00000190: 39e2 96bd 046f a03e 4958 02bf 9910 73be
000001a0: 5689 4bbd c6f4 173a 4c88 ccbd 01fc 93be
000001b0: 30f2 c33d 95f5 d83d da73 8c3d e37f 92bd
000001c0: 88f5 c5bd 954b f5bd d674 5fbd d08d b4bd
000001d0: c0c4 8cbd a547 92bd 5ff3 5fbd e580 303f
000001e0: 5216 903c 981f ef3c f2c1 b53a 4be8 0c3e
000001f0: 4511 e13d 693c 5dbd b94a 903e 0d6d cd3c
00000200: ab66 45bd dbe6 46bd 143b 24bd 686b 203e
00000210: ef55 efbd 372e afbe 8af5 253e c5bc 13be
00000220: d764 8bb9 5d74 023c de66 1fbc a612 3cbc
00000230: 28ef 27be 2262 aabc a34f 9bbe 78bc 42be

mkaarma.models.1.S f4 [36, 4]
0.417022 0.7203245 0.000114374816 0.30233258 0.14675589 0.09233859 0.18626021 0.34556073
0.05356589 0.03370358 0.06798496 0.12612964 0.417022 0.7203245 0.000114374816 0.30233258
-0.021193689 0.13401522 -0.19716954 0.28023213 -0.017477065 0.17863436 -0.24131 0.3652179
-0.14110859 -0.034394044 -0.24194477 0.66717535 0.089122936 0.04458328 0.12639377 -0.0686754
-0.18233003 0.1634669 -0.55287135 0.45941862 -0.24704258 -0.02312284 -0.46644095 0.55064255
-0.12055387 0.33808687 -0.6313281 0.47337103 0.26405212 0.19476336 0.30205053 -0.11673438
-0.016388189 -0.2620116 0.27004847 -0.087519266 -0.054585956 -0.32748944 0.26945734 -0.07518755
0.33714324 0.22016138 0.4186044 -0.029281033 0.27181897 0.22209778 0.28597352 0.34489542
-0.374413 -0.22069518 -0.4924039 0.49220645 -0.11318885 -0.6132066 0.4826235 -0.05590582
0.45507845 0.20390084 0.6728027 -0.03853134 -0.16098738 -0.6933977 0.4798679 -0.05177672
-0.25155723 0.27735102 -0.8226603 0.76616913 -0.2877322 0.24603398 -0.8586864 0.7775562
-0.19069463 -0.3770374 0.055011705 0.21526222 -0.23962766 -0.35052738 -0.07329902 0.24392912
0.07405201 0.41684258 -0.33384427 0.57960755 0.08145466 0.42776525 -0.33168444 0.70537007
0.48635963 0.55767775 0.32639474 0.050703064 -0.23880626 -0.036668174 -0.43434042 0.120165564
0.04724956 0.49194437 -0.47410217 0.9714785 -0.24400565 -0.017210606 -0.46720472 0.08019376
-0.05850948 0.4339555 -0.6182549 0.9828376 -0.44570884 0.14159949 -1.0533606 1.0391567
-0.49617094 0.097443655 -1.1030633 1.0085508 -0.2466547 0.23446505 -0.76319975 0.10243775
-0.40565345 -0.09131404 -0.7042413 0.83742553 -0.2823018 0.21798904 -0.81504864 0.046004
00000000: e883 d53e 3067 383f 83dc ef38 56cb 9a3e
00000010: 2d47 163e 041c bd3d ffba 3e3e 56ed b03e
00000020: e867 5b3d c40c 0a3d b33b 8b3d 2128 013e
00000030: e883 d53e 3067 383f 83dc ef38 56cb 9a3e
00000040: 639e adbc 493b 093e d0e6 49be 967a 8f3e
00000050: 102c 8fbc edeb 363e f819 77be d7fd ba3e
00000060: c57e 10be c5e0 0cbd 5fc0 77be 01cc 2a3f
00000070: 1686 b63d f59c 363d 5e6d 013e b0a5 8cbd
00000080: b9b4 3abe de63 273e fa88 0dbf eb38 eb3e
00000090: bbf8 7cbe 1c6c bdbc 59d1 eebe e9f6 0c3f
000000a0: f3e4 f6bd b919 ad3e b89e 21bf b05d f23e
000000b0: d731 873e 0c70 473e 5ea6 9a3e 6f12 efbd
000000c0: 8640 86bc 6226 86be cb43 8a3e 4d3d b3bd
000000d0: 8695 5fbd b2ac a7be 50f6 893e eefb 99bd
000000e0: 0a9e ac3e fc71 613e 5153 d63e c7de efbc
000000f0: db2b 8b3e 9a6d 633e 1f6b 923e 2296 b03e
00000100: 10b3 bfbe ebfd 61be 5d1c fcbe 7c02 fc3e
00000110: 8ecf e7bd 1cfb 1cbf 6d1a f73e 80fd 64bd
00000120: 0b00 e93e 62cb 503e cc3c 2c3f 0ad3 1dbd
00000130: e0d9 24be 8382 31bf 3fb1 f53e d313 54bd
00000140: 1ccc 80be f400 8e3e de99 52bf a923 443f
00000150: a351 93be 55f0 7b3e dfd2 5bbf ec0d 473f
00000160: 7445 43be 0c0b c1be f453 613d b36d 5c3e
00000170: f460 75be 5378 b3be cc1d 96bd 8ec8 793e
00000180: 95a8 973d 646c d53e a3ed aabe 2961 143f
00000190: b3d1 a63d 0c04 db3e 8bd2 a9be 2293 343f
000001a0: 2104 f93e f8c3 0e3f 361d a73e 04ae 4f3d
000001b0: a189 74be 5e31 16bd de61 debe 5d19 f63d
000001c0: c188 413d 22e0 fb3e 85bd f2be d1b2 783f
000001d0: 9edc 79be 42fd 8cbc 7535 efbe a03c a43d
000001e0: a3a7 6fbd 6a2f de3e f445 1ebf 3f9b 7b3f
000001f0: f333 e4be 75ff 103e 85d4 86bf 1603 853f
00000200: 1e0a febe 8a90 c73d 2e31 8dbf 3118 813f
00000210: 0d93 7cbe 9b17 703e 0f61 43bf e2ca d13d
00000220: cfb1 cfbe db02 bbbd 2849 34bf 8561 563f
00000230: dd89 90be 8538 5f3e 07a7 50bf b16e 3c3d

mkaarma.models.2.Phi f4 [13, 1]
0.0 1.0 1.0 0.0 1.0 0.0 0.0 1.0
0.0 1.0 0.0 1.0 0.0
00000000: 0000 0000 0000 803f 0000 803f 0000 0000
00000010: 0000 803f 0000 0000 0000 0000 0000 803f
00000020: 0000 0000 0000 803f 0000 0000 0000 803f
00000030: 0000 0000

mkaarma.models.2.initial_state f4 [1, 4]
0.417022 0.7203245 0.000114374816 0.30233258
00000000: e883 d53e 3067 383f 83dc ef38 56cb 9a3e

mkaarma.models.2.A f4 [13, 4]
0.028732387 -0.3756261 0.49141172 0.27461106 -0.12734413 0.11898268 -0.3917007 -0.37595677
0.40344933 -0.06632622 0.8820252 -0.84354633 0.043009814 0.18371803 -0.12643634 1.7531503
-0.15326586 0.09683159 -0.41785055 2.180595 -0.22734688 0.16898054 -0.64910555 -1.6840852
0.41458824 -0.090921916 0.9326854 0.45097396 -0.12480046 0.09010745 -0.35325766 -0.86112255
0.0007923773 0.045344863 -0.05081619 0.3846449 0.098934606 -0.060971823 0.26795387 -0.29441038
-0.05806798 -0.023135243 -0.08918442 -0.4162798 -0.03514437 0.08910422 -0.17312074 0.5491662
0.01350825 0.034365013 -0.012744633 -0.041088402
00000000: 2f60 eb3c 1052 c0be 519a fb3e d299 8c3e
00000010: 8066 02be 31ad f33d ff8c c8be 687d c0be
00000020: e990 ce3e 0bd6 87bd 67cc 613f a7f2 57bf
00000030: 0f2b 303d 9420 3c3e 8778 01be 3b67 e03f
00000040: baf1 1cbe a44f c63d 82f0 d5be de8e 0b40
00000050: 9fcd 68be 3c09 2d3e c82b 26bf 1b90 d7bf
00000060: e944 d43e 4535 babd 78c4 6e3f 0fe6 e63e
00000070: 6297 ffbd 418a b83d 30de b4be 8772 5cbf
00000080: 8ab7 4f3a 89bb 393d a324 50bd 2df0 c43e
00000090: 3a9e ca3d 97bd 79bd 4031 893e f5bc 96be
000000a0: b1d8 6dbd 1f86 bdbc 52a6 b6bd a022 d5be
000000b0: 8bf3 0fbd 467c b63d 9046 31be 2896 0c3f
000000c0: b551 5d3c 54c2 0c3d ddce 50bc 504c 28bd

mkaarma.models.2.S f4 [13, 4]
0.417022 0.7203245 0.000114374816 0.30233258 0.417022 0.7203245 0.000114374816 0.30233258
0.01986125 0.01249667 0.025207577 0.046766557 0.019947235 0.012646647 0.025205921 0.051473852
0.15710503 0.11473551 0.18103915 0.402042 0.15730481 0.115495175 0.18056013 0.4088001
0.09314827 0.19136661 -0.035185244 0.75855327 0.0933034 0.19096743 -0.034414276 0.76462114
0.07113533 0.3199051 -0.22766042 0.36131847 0.07007173 0.31361493 -0.22251506 0.3016956
0.23136835 -0.025746891 0.49162102 0.16862187 0.24507672 0.002604184 0.4862252 0.14190835
0.05132524 0.1976115 -0.12589088 1.170031
00000000: e883 d53e 3067 383f 83dc ef38 56cb 9a3e
00000010: e883 d53e 3067 383f 83dc ef38 56cb 9a3e
00000020: 0fb4 a23c d5be 4c3c 1f80 ce3c 4a8e 3f3d
00000030: 6268 a33c e233 4f3c a67c ce3c 3fd6 523d
00000040: 24e0 203e 73fa ea3d 5462 393e 73d8 cd3e
00000050: 8314 213e bc88 ec3d c1e4 383e 3f4e d13e
00000060: 85c4 be3d 9cf5 433e 671e 10bd 8c30 423f
00000070: da15 bf3d f78c 433e fcf5 0cbd 36be 433f
00000080: 66af 913d 9aca a33e d01f 69be bcfe b83e
00000090: c481 8f3d 2392 a03e fdda 63be d877 9a3e
000000a0: d3eb 6c3e 25eb d2bc c0b5 fb3e 36ab 2c3e
000000b0: 64f5 7a3e f5aa 2a3b 82f2 f83e 6c50 113e
000000c0: 6a3a 523d ab5a 4a3e 8ae9 00be 93c3 953f

mkaarma.trajectories.0.w f4 [6, 4]
-0.40651616 -0.4980711 -0.23596445 -0.00037436932 0.38674876 0.48670095 0.20964068 1.002014
0.16293302 0.27411824 0.008500993 0.9956255 -0.120993406 -0.12360489 -0.0987007 0.9936452
-0.41450864 -0.46169493 -0.2939535 -0.00025990605 0.18405798 0.06543949 0.29181722 0.88767725
00000000: e322 d0be 2d03 ffbe aaa0 71be 0047 c4b9
00000010: ef03 c63e de30 f93e 0cac 563e ff41 803f
00000020: ead7 263e 3a59 8c3e c047 0b3c 50e1 7e3f
00000030: 64cb f7bd 9024 fdbd 9823 cabd 885f 7e3f
00000040: 7a3a d4be 4763 ecbe 1381 96be 0044 88b9
00000050: b279 3c3e 2405 863d 1169 953e d13e 633f

mkaarma.trajectories.1.w f4 [8, 4]
-0.11015552 -0.5490579 0.41458032 0.0037491024 -0.38052455 0.123576336 -0.90190756 0.009710148
-0.1881628 0.43157634 -0.87382805 0.996333 0.05474645 0.01734342 0.08924088 -0.069359556
-0.47336683 0.109125726 -1.0704832 1.003675 0.2971794 0.08141168 0.4991972 0.10301058
-0.4221253 0.056916043 -0.90786266 0.93156934 -0.5156629 0.15659334 -1.2097769 1.0429057
00000000: 3899 e1bd 0f8f 0cbf df43 d43e 80b3 753b
00000010: 1dd4 c2be 9715 fd3d 6ae3 66bf 5017 1f3c
00000020: c0ad 40be 93f7 dc3e 32b3 5fbf ae0f 7f3f
00000030: d03d 603d ca13 8e3c ecc3 b63d 620c 8ebd
00000040: 235d f2be 4f7d df3d 9805 89bf 6c78 803f
00000050: e627 983e 2bbb a63d c796 ff3e 36f7 d23d
00000060: cf20 d8be cc20 693d b069 68bf 547b 6e3f
00000070: 7c02 04bf 015a 203e f8d9 9abf ef7d 853f

mkaarma.trajectories.2.w f4 [4, 4]
0.07689628 0.1396412 -0.0078590065 1.0001704 0.26383954 0.030923165 0.49095464 -0.00024715066
-0.07233216 0.123051964 -0.28658617 7.665157e-05 0.057194732 -0.2517789 0.40511835 0.2894042
00000000: cc7b 9d3d 1afe 0e3e 10c3 00bc 9505 803f
00000010: fa15 873e 9452 fd3c 685e fb3e 0094 81b9
00000020: e222 94bd ab02 fc3d 6cbb 92be 00c0 a038
00000030: 0645 6a3d 2ae9 80be ac6b cf3e ca2c 943e

controller.read0_bias f4 [1, 20]
-0.016272146 0.011988478 0.009590191 0.00694656 0.00024983773 -0.00083847187 -0.008769175 -0.0030374455
0.010406643 -0.009534341 -0.002781715 0.0024134128 -0.0087573845 -0.0034945554 0.0069482094 0.010287379
0.023724787 0.014553029 -0.0011051036 -0.013104702
00000000: 2a4d 85bc 526b 443c 2d20 1d3c f89f e33b
00000010: a7fc 8239 e5cc 5bba 96ac 0fbc e10f 47bb
00000020: a080 2a3c ed35 1cbc 6f4d 36bb 592a 1e3b
00000030: 227b 0fbc e904 65bb cead e33b 658c 283c
00000040: 7c5a c23c d46f 6e3c 20d9 90ba 1bb5 56bc

controller.controller.lstm_h_bias f4 [2, 1, 50]
0.0024739006 -0.063318156 0.1308738 0.077203855 -0.30913624 -0.06955232 -0.091250375 -0.006709282
0.36948165 -0.16234393 -0.17385253 0.3946576 -0.032555103 0.13867557 0.11676805 0.026062269
0.11422264 0.018908449 -0.17379871 -0.26584238 0.17392145 -0.36114627 -0.16916995 -0.18351163
0.004064382 0.25293282 -0.069508806 -0.15171093 -0.24370272 0.016243137 0.2375963 0.43374893
-0.21191344 0.028447025 0.2338468 0.13586977 -0.21016204 0.11189056 -0.06337593 -0.2597545
-0.049532216 -0.16579935 0.075475104 0.00982938 0.041095287 -0.13538834 -0.26606613 0.13521473
0.008145802 -0.11067265 0.030421045 -0.077052884 0.051873624 -0.1761247 -0.2064707 0.1482158
0.071306236 0.41758886 0.16584904 0.06118014 0.2962628 0.0038353654 0.25525647 -0.23265462
-0.38148308 0.0010626765 0.17824847 -0.2169346 -0.07836657 0.36638325 -0.028258067 -0.09095647
0.17349291 -0.119070694 -0.083699465 0.08568474 -0.0027752877 -0.16465886 -0.41228184 -0.32301795
0.06094498 0.33760446 -0.056599617 0.048522405 -0.022889385 0.010925521 -0.04352775 -0.025221117
0.2970047 -0.22834863 0.12554157 0.21600586 0.03410171 0.059232574 -0.23516642 0.71747416
-0.036523864 -0.043761395 -0.6576975 -0.33626443
00000000: 2a21 223b f3ac 81bd c803 063e 0e1d 9e3d
00000010: 1b47 9ebe 7271 8ebd 7ae1 babd 89d9 dbbb
00000020: b32c bd3e 7d3d 26be 6606 32be 9010 ca3e
00000030: 8058 05bd f800 0e3e 1624 ef3d 8a80 d53c
00000040: 8fed e93d e4e5 9a3c 4af8 31be 7e1c 88be
00000050: 7718 323e 2ae8 b8be e33a 2dbe 79ea 3bbe
00000060: 822e 853b 6980 813e a25a 8ebd 1c5a 1bbe
00000070: 358d 79be 5410 853c 724c 733e 5714 de3e
00000080: d6ff 58be bc09 e93c 8975 6f3e 7221 0b3e
00000090: b834 57be e126 e53d 3dcb 81bd 8bfe 84be
000000a0: 4be2 4abd 4ec7 29be b192 9a3d 680b 213c
000000b0: 8853 283d 3ea3 0abe d239 88be bb75 0a3e
000000c0: f875 053c 58a8 e2bd 8e35 f93c e7cd 9dbd
000000d0: 7079 543d 095a 34be 0e6d 53be e2c5 173e
000000e0: 0109 923d 35ce d53e 55d4 293e 0798 7a3d
000000f0: c2af 973e c15a 7b3b fab0 823e 033d 6ebe
00000100: c051 c3be 8249 8b3a c486 363e 1b24 5ebe
00000110: a77e a0bd 9696 bb3e 767d e7bc 6347 babd
00000120: 20a8 313e 56db f3bd a06a abbd 7b7b af3d
00000130: 9ae1 35bb 559c 28be 9b16 d3be 9c62 a5be
00000140: 71a1 793d 7eda ac3e 00d5 67bd 6ebf 463d
00000150: 8582 bbbc f500 333c 274a 32bd 849c cebc
00000160: 0011 983e 39d4 69be f88d 003e a430 5d3e
00000170: 3cae 0b3d db9d 723d 77cf 70be 63ac 373f
00000180: 0c9a 15bd 263f 33bd dd5e 28bf da2a acbe

controller.controller.lstm_c_bias f4 [2, 1, 50]
-0.09377407 0.23007245 0.044046547 -0.13421465 -0.2607102 0.270138 -0.09060428 0.3762836
-0.16313471 0.24550365 0.02390548 0.32722956 0.39585093 -0.14846414 -0.090646476 0.058849275
0.32922894 -0.036566224 0.20175406 0.028061718 -0.13990104 -0.08278834 -0.25926104 -0.14893931
-0.10011662 -0.091343075 -0.009454452 0.2518036 -0.028285332 -0.11873684 -0.092366286 0.2541509
0.01766164 0.048140503 0.2693169 0.120986976 -0.10380704 0.22740236 0.099312395 -0.36680683
-0.21501066 -0.020462845 0.18415383 -0.08023168 -0.09351685 -0.1580899 -0.23158468 0.27258164
-0.2836177 0.30784127 -0.32951722 0.09437992 -0.10405994 -0.041431747 0.21743484 0.18908004
0.09724655 0.00078062597 0.25243294 -0.6106974 -0.046611346 -0.28538904 -0.15732194 -0.15687606
-0.23008385 0.02680615 -0.15905777 0.20189309 -0.20808542 0.3883281 0.46376598 0.1328193
-0.08027613 -0.5501216 -0.0048851366 -0.17941459 -0.0013733802 -0.2783933 -0.21930331 -0.043247152
-0.17276451 -0.14316553 -0.20792961 -0.069481656 -0.1311073 -0.08413561 0.43610963 -0.57244253
-0.030644625 0.12524219 0.21534868 -0.051494975 -0.11821285 0.063781336 -0.17685886 0.12382797
-0.14531839 -0.32746753 -0.3053517 -0.07947541
00000000: 9f0c c0bd 1d98 6b3e 276a 343d 916f 09be
00000010: cf7b 85be 874f 8a3e bd8e b9bd 3ea8 c03e
00000020: c90c 27be 4f65 7b3e 6dd5 c33c a28a a73e
00000030: f9ac ca3e fc06 18be dca4 b9bd f00b 713d
00000040: b290 a83e 77c6 15bd 9e98 4e3e b0e1 e53c
00000050: 3842 0fbe ef8c a9bd ddbd 84be 8c83 18be
00000060: f109 cdbd 1412 bbbd d9e6 1abc 67ec 803e
00000070: a4b6 e7bc 4d2c f3bd 892a bdbd 1120 823e
00000080: 25af 903c fa2e 453d e8e3 893e 05c8 f73d
00000090: c998 d4bd 2adc 683e 4c64 cb3d 1bce bbbe
000000a0: c12b 5cbe b2a1 a7bc d292 3c3e 8250 a4bd
000000b0: c385 bfbd 52e2 21be 8924 6dbe d28f 8b3e
000000c0: 5736 91be 5f9d 9d3e 7bb6 a8be 424a c13d
000000d0: 611d d5bd 56b4 29bd 3da7 5e3e 339e 413e
000000e0: 3329 c73d eca2 4c3a e43e 813e aa56 1cbf
000000f0: 8aeb 3ebd 831e 92be 0119 21be 1ea4 20be
00000100: 1a9b 6bbe 9298 db3c 0ae0 22be 10bd 4e3e
00000110: 5814 55be f1d2 c63e bc72 ed3e c801 083e
00000120: d067 a4bd c5d4 0cbf 7f13 a0bb 75b8 37be
00000130: fe02 b4ba 9189 8ebe 0c91 60be ed23 31bd
00000140: 2ee9 30be fc99 12be 80eb 54be 664c 8ebd
00000150: fe40 06be 4a4f acbd c349 df3e 988b 12bf
00000160: 700a fbbc 7d3f 003e 5d84 5c3e 65ec 52bd
00000170: 9419 f2bd ca9f 823d 7d1a 35be 8599 fd3d
00000180: 58ce 14be d3a9 a7be 0f57 9cbe 01c4 a2bd

controller.controller.lstm.weight_ih_l0 f4 [200, 39]
0.36072513 0.4966735 0.2221833 0.04683928 -0.13194789 -0.26135087 0.7209567 0.28564242
-0.27836987 -3.4437515e-05 -0.24977092 -0.24583705 -0.7187866 0.38408202 0.12427759 0.5981124
0.1530209 -0.35671812 0.21771729 -0.008771861 -0.504436 0.29215023 -0.2568209 -0.0015072298
0.13790204 -0.62593734 -0.4893229 -0.10159152 -0.39106128 -0.0357299 0.01897248 -0.12230911
0.42005846 -0.5501303 0.58482146 -0.42422014 0.17497134 0.59414124 -0.4494425 0.01408584
-0.037668787 -0.46103224 -0.1552443 0.045556396 0.46249875 0.53162956 -0.033337813 -0.54939616
0.31909564 0.14592914 0.18436985 0.5749953 0.29496637 0.39807832 -0.3935372 -0.6117335
0.39295527 -1.0503731 -0.16405986 -0.16970317 0.16059493 0.30668652 0.31721607 0.5109109
-0.19005372 -0.42693457 -0.38604194 0.2584925 -0.047637586 0.035075072 0.5970066 0.012539206
-0.4402953 0.17026459 0.3830487 -0.045160867 -0.56279266 0.33167958 0.2528483 -0.2793717
-0.58745855 0.36066735 -0.58822864 -0.117834866 -0.17725538 0.13713333 0.45174825 -0.1623117
0.2543376 0.07095229 -0.3547706 -0.3197755 -0.12808225 0.041398093 0.03826641 0.20801644
-1.0446092 -0.13389534 -0.63488764 0.48535848 0.4351067 0.11811218 0.036750957 0.1749851
0.7636406 0.65268296 0.83134985 0.1112664 -0.73015326 0.15428089 -0.67314625 0.3750808
-0.46909094 0.08796518 -0.022114817 -0.4054864 -0.6458552 0.1324678 0.39071298 -0.39428186
0.5170634 -0.6124877 0.1505373 -0.113655135 -0.7231635 0.31454486 0.50476575 0.51881784
-0.5292595 0.3912036 0.12331454 0.09780938 -0.20972586 -0.113694176 0.4024176 0.45691657
0.022850892 0.22025435 0.61224335 0.13447608 0.40877306 -0.2585427 -0.19498424 0.6690383
-0.00687984 -0.32891184 0.068506666 -0.10110992 0.021264315 -0.62960756 0.0029252232 0.058410577
0.661149 -0.029935362 0.106644765 -0.14867492 0.30891898 -0.16648708 -0.36670706 -0.5090945
0.970992 0.052694414 0.35228777 -0.02687341 -0.37614855 0.27833018 -0.5160005 -0.39128032
0.072941594 0.0043606637 -0.24582328 -0.22762856 0.31122464 -0.6272626 -0.30413336 0.6613928
-0.44706228 0.2777026 0.13271692 -0.3774442 -0.28984353 0.16745684 -0.08700998 -0.23198706
-0.03915093 0.5604724 -0.4230851 0.20965037 0.5369586 -0.025894403 -0.26909456 -0.11076151
-0.20396261 0.32491 0.25619012 0.30301923 0.19142245 0.06620024 -0.7153897 -0.024933709
-0.077682056 0.7864347 1.1136018 0.475529 -0.5525005 0.3161933 -0.38780934 0.8851894
0.07258581 0.13195993 0.040126693 -0.057412535 0.2248689 -0.5077714 -0.09332219 0.5300548
0.004500955 0.19211254 0.48438367 0.15792015 -0.0532673 0.18186428 -0.16118315 0.013408594
0.40040508 -0.1629662 -0.20255971 -0.05338569 0.5642734 0.3531463 0.042737745 -0.24071088
0.28081983 -0.078505784 0.36965942 0.10522925 0.22113726 -0.38475588 0.24320765 -0.5125963
1.0751067 0.10448228 0.20129672 -0.3589296 0.021376964 -0.5841463 -0.017108722 0.35661802
-0.14292784 -0.3874803 0.021594772 -0.472702 0.98166925 0.31271923 0.09391538 -0.43185696
00000000: f7b0 b83e fd4b fe3e 0584 633e 8bda 3f3d
00000010: 591d 07be c8cf 85be 9e90 383f b93f 923e
00000020: 7f86 8ebe 0071 10b8 f3c3 7fbe b5bc 7bbe
00000030: 6602 38bf 66a6 c43e 4085 fe3d e51d 193f
00000040: 83b1 1c3e c2a3 b6be 48f1 5e3e dab7 0fbc
00000050: b822 01bf b794 953e 077e 83be 3d8e c5ba
00000060: 3136 0d3e 6e3d 20bf 8888 fabe 370f d0bd
00000070: 2f39 c8be 8459 12bd 2d6c 9b3c 337d fabd
00000080: e711 d73e 57d5 0cbf dcb6 153f 6233 d9be
00000090: b02b 333e a419 183f 541d e6be 4cc8 663c
000000a0: 964a 1abd 6b0c ecbe 5df8 1ebe 5899 3a3d
000000b0: a3cc ec3e e018 083f 3b8d 08bd 3aa5 0cbf
000000c0: 8160 a33e 736e 153e 73cb 3c3e e432 133f
000000d0: d505 973e ecd0 cb3e b57d c9be 919a 1cbf
000000e0: 6f31 c93e a072 86bf 4fff 27be abc6 2dbe
000000f0: ff72 243e 0406 9d3e 256a a23e 0fcb 023f
00000100: 719d 42be 2b97 dabe 4aa7 c5be 2159 843e
00000110: a11f 43bd e1aa 0f3d 6dd5 183f 3e71 4d3c
00000120: 636e e1be d759 2e3e f61e c43e 9afa 38bd
00000130: 2e13 10bf e8d1 a93e 5575 813e cf09 8fbe
00000140: af63 16bf 64a9 b83e 2796 16bf 6853 f1bd
00000150: 6f82 35be ae6c 0c3e 8c4b e73e 0a35 26be
00000160: 8a38 823e 6f4f 913d 7ea4 b5be 9db9 a3be
00000170: fe27 03be 0c91 293d 3dbd 1c3d 4302 553e
00000180: c1b5 85bf dc1b 09be ff87 22bf e880 f83e
00000190: 4ec6 de3e cce4 f13d 2c88 163d 4b2f 333e
000001a0: f37d 433f 3b16 273f 58d3 543f a3df e33d
000001b0: 53eb 3abf cffb 1d3e 5053 2cbf 970a c03e
000001c0: b02c f0be 1727 b43d 222a b5bc ea9b cfbe
000001d0: c456 25bf a4a5 073e 880b c83e 50df c9be
000001e0: 445e 043f fecb 1cbf 7326 1a3e 06c4 e8bd
000001f0: 3e21 39bf 060c a13e 5438 013f 3fd1 043f
00000200: 8d7d 07bf d74b c83e 558c fc3d 4950 c83d
00000210: 60c2 56be 7ed8 e8bd ae09 ce3e f8f0 e93e
00000220: cb31 bb3c 5b8a 613e fbbb 1c3f 19b4 093e
00000230: b44a d13e b55f 84be f3a9 47be 1846 2b3f
00000240: 4870 e1bb 2267 a8be 394d 8c3d b812 cfbd
00000250: 8032 ae3c f62d 21bf 1ab5 3f3b ee3f 6f3d
00000260: 1041 293f 013b f5bc 9268 da3d 3d3e 18be
00000270: a12a 9e3e 977b 2abe 07c1 bbbe 0454 02bf
00000280: ef92 783f 19d6 573d 105f b43e a025 dcbc
00000290: 8b96 c0be 4b81 8e3e 9c18 04bf e555 c8be
000002a0: 6762 953d e6e3 8e3b 19b9 7bbe 7617 69be
000002b0: d658 9f3e 4894 20bf 5eb7 9bbe 0a51 293f
000002c0: 59e5 e4be 092f 8e3e f2e6 073e 5e40 c1be
000002d0: 5f66 94be ce79 2b3e 4a32 b2bd 048e 6dbe
000002e0: ba5c 20bd 1f7b 0f3f 9c9e d8be 96ae 563e
000002f0: 1e76 093f 8020 d4bc c3c6 89be eed6 e2bd
00000300: 93db 50be 9b5a a63e 5a2b 833e 5625 9b3e
00000310: 3f04 443e fe93 873d c823 37bf c741 ccbc
00000320: c517 9fbd c953 493f 818a 8e3f 8978 f33e
00000330: ac70 0dbf 17e4 a13e f28e c6be c69b 623f
00000340: dfa7 943d 8120 073e e35b 243d 6829 6bbd
00000350: 0844 663e 4efd 01bf b41f bfbd acb1 073f
00000360: bf7c 933b 26b9 443e 2301 f83e d2b5 213e
00000370: d02e 5abd a13a 3a3e 320d 25be b8af 5b3c
00000380: e501 cd3e 9de0 26be d06b 4fbe f4aa 5abd
00000390: 3974 103f 98cf b43e c60d 2f3d ea7c 76be
000003a0: 9ec7 8f3e a4c7 a0bd 0044 bd3e 6f82 d73d
000003b0: ce71 623e b9fe c4be 6d0b 793e 8339 03bf
000003c0: 199d 893f cefa d53d ba20 4e3e 9fc5 b7be
000003d0: be1e af3c 9d8a 15bf 9727 8cbc a396 b63e
000003e0: ad5b 12be d163 c6be 85e7 b03c ff05 f2be
000003f0: ad4e 7b3f bc1c a03e b556 c03d 5b1c ddbe

controller.controller.lstm.weight_hh_l0 f4 [200, 50]
0.058636438 -0.076946884 0.10069188 -0.08789019 0.5097093 -2.102215e-05 0.1508104 -0.28677666
-0.16061191 0.6094944 -0.22555546 0.2911655 0.18615003 -0.4513494 0.23971061 -0.71219033
0.09600396 -0.53756326 0.29399985 0.41928038 0.08398558 -0.20793329 0.45213217 0.23583108
0.30371037 -0.75400496 -0.43120307 -0.15588468 -0.15984862 -0.93210375 -0.15353131 0.13523899
0.9920578 -0.7628761 -0.530896 0.43585223 -0.6473544 -0.72569776 -0.616432 -0.5187028
0.29108766 0.26405904 0.53789556 0.5870567 0.18595223 0.23293939 0.20854081 -0.19032468
0.1466148 -0.23369408 0.18596496 0.42398497 -0.22189005 0.098929346 0.024226807 0.5281492
0.47735694 -0.48085278 0.037937406 0.32271665 0.65159637 0.09663601 -0.12410919 0.74664384
-0.4067439 0.16108993 -0.26670197 -0.02703669 -0.04370411 0.058341168 -0.15512744 0.56874377
0.118448146 0.31083715 -0.28274703 -0.19156784 0.737379 -0.022066742 0.2464194 -0.24578895
-0.7820256 -0.4608829 -0.04209016 -0.08369385 0.2655591 -0.7438238 0.48980686 -0.14783095
0.31616303 0.2833225 0.7676574 -0.44773266 -0.44189352 -0.61053634 0.3054291 0.59156114
0.39488342 0.09060694 0.25714582 -0.2665975 0.030254286 -0.20132498 0.3876521 -0.34244528
0.12113041 -0.16130026 -0.005940241 -0.8500169 0.58104354 -0.18424597 0.12397228 0.43484372
-0.12360791 -0.3096051 -0.34530318 -0.2337222 0.28451353 0.8140532 0.30070442 0.17606302
0.46944422 0.290843 -0.059483107 0.32038164 -0.32433215 -0.36797485 0.549271 -0.20561245
-0.0005996585 0.1128173 -0.074856974 0.18872131 -0.15673608 -0.16770744 0.0075966567 -0.3273124
-0.33903036 0.7390245 -0.31348708 -0.01934154 -0.48248532 -0.20741645 0.27283838 -0.28010872
-0.2634298 0.36070853 -0.13059832 -0.75519997 0.46293953 0.29388708 -0.3819453 0.6790239
-0.31082472 0.32491112 0.46384743 -0.09675733 -0.035716176 0.44702804 -0.122810215 0.53917205
-0.21561642 -0.40708426 0.013471023 0.3527407 0.56360555 0.27108318 0.19487841 0.7341132
0.49517712 -0.4846505 -0.08424845 -0.26747915 0.52927864 -0.04231072 -0.6056202 -0.6198108
-0.007027355 0.45432082 -0.3334175 0.45382717 -0.46576914 0.1698052 0.48037106 0.16056624
0.5110167 0.3444894 0.18667673 0.12830567 0.30381596 0.5945887 -0.21796988 -0.3739253
-0.10539958 -0.1066775 -0.4353873 -0.29501885 0.24063398 0.020758895 0.029137865 -0.5548973
0.00082153484 0.25062525 0.20350467 0.415 0.59913003 0.021131838 0.1552453 -0.11025119
0.37244904 0.31139335 0.092277855 -0.6144927 -0.19918683 0.37239522 0.4261984 0.20501849
0.20172743 -0.8419018 0.4447947 -0.041615047 -0.07411033 -0.33914343 0.5515736 0.086116046
0.080860816 0.054157384 -0.25003365 -0.21351883 -0.41568103 -0.13840926 0.12089122 -0.65287745
0.28246403 -0.4567195 0.82283473 -1.0545206 0.31619066 0.4878505 -0.39892524 0.095293224
0.095082976 0.42542323 -0.5010819 -0.18643726 -0.3894235 -0.27299473 -0.14152402 -0.3916656
-0.67133796 -0.36789364 -0.4666804 -0.45083392 0.3258025 -0.03792534 0.06732478 -0.102129005
00000000: c32c 703d 5496 9dbd 8b37 ce3d c6ff b3bd
00000010: 4f7c 023f b958 b0b7 0b6e 1a3e 64d4 92be
00000020: 7377 24be d307 1c3f 03f8 66be a513 953e
00000030: 1d9e 3e3e 4517 e7be b376 753e 1b52 36bf
00000040: b99d c43d bf9d 09bf 2687 963e ebab d63e
00000050: a200 ac3d 77ec 54be de7d e73e b47d 713e
00000060: ed7f 9b3e 7806 41bf a6c6 dcbe 3ca0 1fbe
00000070: 5baf 23be 5a9e 6ebf 5037 1dbe 177c 0a3e
00000080: 80f7 7d3f d94b 43bf cde8 07bf 0628 df3e
00000090: 05b9 25bf 54c7 39bf 7dce 1dbf b5c9 04bf
000000a0: 7109 953e bf32 873e 86b3 093f 5949 163f
000000b0: 436a 3e3e aa87 6e3e b98b 553e 79e4 42be
000000c0: 3122 163e 804d 6fbe 996d 3e3e 8f14 d93e
000000d0: 2537 63be 789b ca3d 4c77 c63c c934 073f
000000e0: 2168 f43e 5632 f6be 4164 1b3d 1e3b a53e
000000f0: 05cf 263f 1ae9 c53d f62c febd 0d24 3f3f
00000100: bd40 d0be c2f4 243e 298d 88be 0c7c ddbc
00000110: 1503 33bd 26f7 6e3d bad9 1ebe 3199 113f
00000120: f194 f23d 0c26 9f3e 38c4 90be 5c2a 44be
00000130: dfc4 3c3f 50c5 b4bc 5e55 7c3e 19b0 7bbe
00000140: d432 48bf d8f8 ebbe bb66 2cbd ae67 abbd
00000150: 5df7 873e 3d6b 3ebf f7c7 fa3e ff60 17be
00000160: 1fe0 a13e a60f 913e 3285 443f 373d e5be
00000170: de3f e2be 1c4c 1cbf 3461 9c3e 8d70 173f
00000180: 292e ca3e 2290 b93d 9ea8 833e 787f 88be
00000190: d6d7 f73c 2328 4ebe 567a c63e fd54 afbe
000001a0: 3813 f83d e52b 25be 5aa6 c2bb b59a 59bf
000001b0: 45bf 143f faaa 3cbe 2ee5 fd3d d6a3 de3e
000001c0: 2526 fdbd 8f84 9ebe 94cb b0be df54 6fbe
000001d0: c2ab 913e ca65 503f eef5 993e dd49 343e
000001e0: fe5a f03e 60e9 943e 8fa4 73bd 1009 a43e
000001f0: dd0e a6be 3367 bcbe 069d 0c3f 128c 52be
00000200: 6732 1dba c20c e73d 9d4e 99bd 2940 413e
00000210: 6c7f 20be 80bb 2bbe 60ed f83b 7e95 a7be
00000220: 6395 adbe b630 3d3f 6181 a0be 2672 9ebc
00000230: 5108 f7be fa64 54be 79b1 8b3e 696a 8fbe
00000240: 45e0 86be caae b83e 91bb 05be c954 41bf
00000250: 6906 ed3e 5e78 963e 568e c3be 83d4 2d3f
00000260: 6b24 9fbe c05a a63e 697d ed3e b528 c6bd
00000270: 204b 12bd dce0 e43e ec83 fbbd 2e07 0a3f
00000280: 8dca 5cbe 596d d0be 91b5 5c3c 6e9a b43e
00000290: 7448 103f 6acb 8a3e 358e 473e d8ee 3b3f
000002a0: db87 fd3e 1c24 f8be 748a acbd 07f3 88be
000002b0: ce7e 073f 014e 2dbd ed09 1bbf ecab 1ebf
000002c0: ba45 e6bb bd9c e83e b3b5 aabe 095c e83e
000002d0: 4b79 eebe 6ae1 2d3e 32f3 f53e 7a6b 243e
000002e0: fed1 023f ea60 b03e 2f28 3f3e 9062 033e
000002f0: c48d 9b3e f736 183f 7f33 5fbe 2373 bfbe
00000300: bcdb d7bd bc79 dabd 16eb debe b60c 97be
00000310: c168 763e 8f0e aa3c 88b2 ee3c c00d 0ebf
00000320: 455c 573a f451 803e 8763 503e e17a d43e
00000330: 9660 193f ad1c ad3c a0f8 1e3e 60cb e1bd
00000340: a4b1 be3e f36e 9f3e 2cfc bc3d 654f 1dbf
00000350: a2f7 4bbe 96aa be3e ad36 da3e 5ef0 513e
00000360: a391 4e3e e086 57bf 22bc e33e 8a74 2abd
00000370: 28c7 97bd 35a4 adbe ed33 0d3f 9c5d b03d
00000380: 5b9a a53d 22d4 5d3d 6904 80be aea4 5abe
00000390: 25d4 d4be 28bb 0dbe d195 f73d fa22 27bf
000003a0: 209f 903e 23d7 e9be 4ca5 523f 88fa 86bf
000003b0: bee3 a13e 8ac7 f93e ee3f ccbe 1829 c33d
000003c0: ddba c23d 13d1 d93e e746 00bf 69e9 3ebe
000003d0: 8462 c7be f7c5 8bbe aceb 10be 6588 c8be
000003e0: cedc 2bbf 8e5c bcbe bcf0 eebe b4d3 e6be
000003f0: 96cf a63e 9a57 1bbd 93e1 893d 0329 d1bd

controller.controller.lstm.bias_ih_l0 f4 [200]
0.37137076 -0.04430767 -0.11138824 0.112606004 0.10491885 0.0568278 -0.12092701 0.09911212
0.34358117 -0.18724886 -0.21368393 -0.27830216 0.43082157 -0.27761504 -0.4191435 -0.28727436
0.019193137 -0.060328685 -0.46063817 -0.2511097 0.46016407 0.31304252 0.2190468 0.007347676
-0.030976651 0.31222877 0.039155174 -0.3917596 -0.061271116 -0.059020486 -0.24778035 -0.13526644
0.20600247 -0.09098943 -0.27895445 -0.11856154 0.034963716 0.024618978 0.0440832 -0.07805503
0.31998202 -0.13833901 -0.43371403 0.03166869 0.231984 -0.23191908 0.012449152 -0.22835054
-0.03257794 0.0535898 0.2714687 -0.20684639 -0.12849766 -0.077373095 -0.30330148 -0.5091083
-0.0046858424 -0.18622223 -0.34579134 -0.09804953 -0.25196686 -0.19514175 0.1793199 -0.2887518
-0.27914047 -0.35527152 -0.15718435 -0.230564 -0.42322007 -0.10040365 -0.6803115 0.26634213
-0.018343864 -0.28549892 -0.37224245 -0.4948297 -0.04213067 -0.49623093 -0.27839765 -0.15687504
-0.28164762 -0.26205316 0.17947175 -0.42596588 0.09533069 -0.34580627 -0.5226171 -0.07124173
0.21123599 -0.107626654 -0.16188262 -0.17648973 -0.22096859 -0.47480768 -0.26466036 -0.13522069
-0.14414807 -0.034833547 -0.09016905 -0.1735336 -0.07509926 0.39002696 0.14879006 0.08044632
0.058317654 0.031333093 0.14811961 0.086938806 0.09616483 -0.037499778 0.029678473 0.14372353
0.4774372 -0.052299175 0.05179713 -0.16436651 0.0004466008 -0.26783472 -0.15971802 0.2634516
-0.07006271 -0.29905975 -0.069136016 0.20065503 0.010157398 0.04550078 -0.32653514 -0.03194391
-0.15862952 -0.07889645 -0.083715975 0.049769547 0.30387336 -0.11998096 0.022687685 -0.16039862
-0.01753213 0.04608338 -0.29111677 -0.1252154 0.15135561 0.1503273 0.20716259 -0.0007021621
-0.054106437 0.202689 -0.21434331 -0.15218861 -0.031573396 0.09753881 0.108092904 -0.15829924
-0.27499712 0.018190505 0.055072118 0.28487954 0.04064299 -0.10178229 0.32645229 -0.24035941
-0.47246152 -0.26994655 -0.24198191 -0.3508094 -0.4800084 -0.2219621 -0.08997349 -0.14625748
-0.39484125 -0.15276489 0.2960753 -0.031764224 0.24995571 -0.019439328 -0.015925588 0.32976192
-0.20315327 -0.37750733 -0.07060201 -0.012917504 -0.3245434 -0.231648 -0.12562458 -0.0502875
-0.25403094 -0.10309625 -0.1385289 -0.20770675 -0.08340235 -0.060943544 0.10758532 -0.37236097
-0.236005 -0.01206358 0.16330278 -0.31114295 0.19629444 -0.23619823 -0.030236544 0.042255662
00000000: 4f24 be3e f67b 35bd 841f e4bd fa9d e63d
00000010: b2df d63d 44c4 683d 95a8 f7bd 4cfb ca3d
00000020: dfe9 af3e 2abe 3fbe f6cf 5abe 9f7d 8ebe
00000030: a594 dc3e 8f23 8ebe fa99 d6be a015 93be
00000040: ed3a 9d3c 361b 77bd c4d8 ebbe 7391 80be
00000050: a09a eb3e 1c47 a03e ce4d 603e c6c4 f03b
00000060: bfc2 fdbc 73dc 9f3e 2d61 203d b794 c8be
00000070: 6cf7 7abd 77bf 71bd 22ba 7dbe 4983 0abe
00000080: 50f2 523e ab58 babd 1ed3 8ebe 65d0 f2bd
00000090: 1d36 0f3d bdad c93c 9690 343d 51db 9fbd
000000a0: afd4 a33e bea8 0dbe c40f debe 07b7 013d
000000b0: 378d 6d3e 327c 6dbe 87f7 4b3c b9d4 69be
000000c0: 7270 05bd fa80 5b3d f2fd 8a3e 8acf 53be
000000d0: e494 03be c975 9ebd 554a 9bbe ec54 02bf
000000e0: b28b 99bb 0ab1 3ebe 900b b1be 31ce c8bd
000000f0: cd01 81be 3dd3 47be a39f 373e 47d7 93be
00000100: 80eb 8ebe 26e6 b5be eff4 20be f818 6cbe
00000110: 4db0 d8be 6ea0 cdbd e528 2ebf ff5d 883e
00000120: df45 96bc ea2c 92be 9096 bebe 525a fdbe
00000130: 3691 2cbd fb11 febe 238a 8ebe daa3 20be
00000140: 1e34 90be d52b 86be 71c7 373e 3318 dabe
00000150: bd3c c33d 850d b1be 3cca 05bf 2fe7 91bd
00000160: 3f4e 583e 5d6b dcbd 8fc4 25be b9b9 34be
00000170: 9745 62be fe19 f3be 9081 87be 4b77 0abe
00000180: 8d9b 13be 9fad 0ebd 8daa b8bd cbb2 31be
00000190: a4cd 99bd 9db1 c73e 6c5c 183e 0ac1 a43d
000001a0: 7ede 6e3d 2157 003d abac 173e f90c b23d
000001b0: 11f2 c43d 5e99 19bd 4520 f33c 432c 133e
000001c0: a672 f43e a937 56bd 3a29 543d b24f 28be
000001d0: bf25 ea39 a221 89be 1f8d 23be 21e3 863e
000001e0: 0a7d 8fbd 5c1e 99be 2f97 8dbd 8378 4d3e
000001f0: 376b 263c 075f 3a3d 9d2f a7be 9ed7 02bd
00000200: c76f 22be 7694 a1bd 4873 abbd 27db 4b3d
00000210: 4a95 9b3e 94b8 f5bd 86db b93c 893f 24be
00000220: 8b9f 8fbc edc1 3c3d 420d 95be 7738 00be
00000230: f7fc 1a3e 66ef 193e 6e22 543e 4d11 38ba
00000240: b69e 5dbd b58d 4f3e d07c 5bbe 55d7 1bbe
00000250: 1b53 01bd 6dc2 c73d d05f dd3d 3219 22be
00000260: 6ccc 8cbe 4104 953c 4d93 613d bbdb 913e
00000270: 4479 263d 3c73 d0bd c124 a73e c720 76be
00000280: 7ae6 f1be 6f36 8abe 1bca 77be 4a9d b3be
00000290: a9c3 f5be 084a 63be 0544 b8bd 85c4 15be
000002a0: a228 cabe 666e 1cbe 2f97 973e 341b 02bd
000002b0: 64f4 7f3e 3a3f 9fbc 6176 82bc 8ed6 a83e
000002c0: 6907 50be a448 c1be c997 90bd f0a3 53bc
000002d0: 8d2a a6be 2235 6dbe bba3 00be 44fa 4dbd
000002e0: 5810 82be 2024 d3bd 85da 0dbe 14b1 54be
000002f0: dace aabd f09f 79bd b155 dc3d 19a6 bebe
00000300: 4bab 71be 52a6 45bc d838 273e 214e 9fbe
00000310: 6901 493e f3dd 71be a1b2 f7bc 4614 2d3d

controller.controller.lstm.bias_hh_l0 f4 [200]
0.37137076 -0.04430767 -0.11138824 0.112606004 0.10491885 0.0568278 -0.12092701 0.09911212
0.34358117 -0.18724886 -0.21368393 -0.27830216 0.43082157 -0.27761504 -0.4191435 -0.28727436
0.019193137 -0.060328685 -0.46063817 -0.2511097 0.46016407 0.31304252 0.2190468 0.007347676
-0.030976651 0.31222877 0.039155174 -0.3917596 -0.061271116 -0.059020486 -0.24778035 -0.13526644
0.20600247 -0.09098943 -0.27895445 -0.11856154 0.034963716 0.024618978 0.0440832 -0.07805503
0.31998202 -0.13833901 -0.43371403 0.03166869 0.231984 -0.23191908 0.012449152 -0.22835054
-0.03257794 0.0535898 0.2714687 -0.20684639 -0.12849766 -0.077373095 -0.30330148 -0.5091083
-0.0046858424 -0.18622223 -0.34579134 -0.09804953 -0.25196686 -0.19514175 0.1793199 -0.2887518
-0.27914047 -0.35527152 -0.15718435 -0.230564 -0.42322007 -0.10040365 -0.6803115 0.26634213
-0.018343864 -0.28549892 -0.37224245 -0.4948297 -0.04213067 -0.49623093 -0.27839765 -0.15687504
-0.28164762 -0.26205316 0.17947175 -0.42596588 0.09533069 -0.34580627 -0.5226171 -0.07124173
0.21123599 -0.107626654 -0.16188262 -0.17648973 -0.22096859 -0.47480768 -0.26466036 -0.13522069
-0.14414807 -0.034833547 -0.09016905 -0.1735336 -0.07509926 0.39002696 0.14879006 0.08044632
0.058317654 0.031333093 0.14811961 0.086938806 0.09616483 -0.037499778 0.029678473 0.14372353
0.4774372 -0.052299175 0.05179713 -0.16436651 0.0004466008 -0.26783472 -0.15971802 0.2634516
-0.07006271 -0.29905975 -0.069136016 0.20065503 0.010157398 0.04550078 -0.32653514 -0.03194391
-0.15862952 -0.07889645 -0.083715975 0.049769547 0.30387336 -0.11998096 0.022687685 -0.16039862
-0.01753213 0.04608338 -0.29111677 -0.1252154 0.15135561 0.1503273 0.20716259 -0.0007021621
-0.054106437 0.202689 -0.21434331 -0.15218861 -0.031573396 0.09753881 0.108092904 -0.15829924
-0.27499712 0.018190505 0.055072118 0.28487954 0.04064299 -0.10178229 0.32645229 -0.24035941
-0.47246152 -0.26994655 -0.24198191 -0.3508094 -0.4800084 -0.2219621 -0.08997349 -0.14625748
-0.39484125 -0.15276489 0.2960753 -0.031764224 0.24995571 -0.019439328 -0.015925588 0.32976192
-0.20315327 -0.37750733 -0.07060201 -0.012917504 -0.3245434 -0.231648 -0.12562458 -0.0502875
-0.25403094 -0.10309625 -0.1385289 -0.20770675 -0.08340235 -0.060943544 0.10758532 -0.37236097
-0.236005 -0.01206358 0.16330278 -0.31114295 0.19629444 -0.23619823 -0.030236544 0.042255662
00000000: 4f24 be3e f67b 35bd 841f e4bd fa9d e63d
00000010: b2df d63d 44c4 683d 95a8 f7bd 4cfb ca3d
00000020: dfe9 af3e 2abe 3fbe f6cf 5abe 9f7d 8ebe
00000030: a594 dc3e 8f23 8ebe fa99 d6be a015 93be
00000040: ed3a 9d3c 361b 77bd c4d8 ebbe 7391 80be
00000050: a09a eb3e 1c47 a03e ce4d 603e c6c4 f03b
00000060: bfc2 fdbc 73dc 9f3e 2d61 203d b794 c8be
00000070: 6cf7 7abd 77bf 71bd 22ba 7dbe 4983 0abe
00000080: 50f2 523e ab58 babd 1ed3 8ebe 65d0 f2bd
00000090: 1d36 0f3d bdad c93c 9690 343d 51db 9fbd
000000a0: afd4 a33e bea8 0dbe c40f debe 07b7 013d
000000b0: 378d 6d3e 327c 6dbe 87f7 4b3c b9d4 69be
000000c0: 7270 05bd fa80 5b3d f2fd 8a3e 8acf 53be
000000d0: e494 03be c975 9ebd 554a 9bbe ec54 02bf
000000e0: b28b 99bb 0ab1 3ebe 900b b1be 31ce c8bd
000000f0: cd01 81be 3dd3 47be a39f 373e 47d7 93be
00000100: 80eb 8ebe 26e6 b5be eff4 20be f818 6cbe
00000110: 4db0 d8be 6ea0 cdbd e528 2ebf ff5d 883e
00000120: df45 96bc ea2c 92be 9096 bebe 525a fdbe
00000130: 3691 2cbd fb11 febe 238a 8ebe daa3 20be
00000140: 1e34 90be d52b 86be 71c7 373e 3318 dabe
00000150: bd3c c33d 850d b1be 3cca 05bf 2fe7 91bd
00000160: 3f4e 583e 5d6b dcbd 8fc4 25be b9b9 34be
00000170: 9745 62be fe19 f3be 9081 87be 4b77 0abe
00000180: 8d9b 13be 9fad 0ebd 8daa b8bd cbb2 31be
00000190: a4cd 99bd 9db1 c73e 6c5c 183e 0ac1 a43d
000001a0: 7ede 6e3d 2157 003d abac 173e f90c b23d
000001b0: 11f2 c43d 5e99 19bd 4520 f33c 432c 133e
000001c0: a672 f43e a937 56bd 3a29 543d b24f 28be
000001d0: bf25 ea39 a221 89be 1f8d 23be 21e3 863e
000001e0: 0a7d 8fbd 5c1e 99be 2f97 8dbd 8378 4d3e
000001f0: 376b 263c 075f 3a3d 9d2f a7be 9ed7 02bd
00000200: c76f 22be 7694 a1bd 4873 abbd 27db 4b3d
00000210: 4a95 9b3e 94b8 f5bd 86db b93c 893f 24be
00000220: 8b9f 8fbc edc1 3c3d 420d 95be 7738 00be
00000230: f7fc 1a3e 66ef 193e 6e22 543e 4d11 38ba
00000240: b69e 5dbd b58d 4f3e d07c 5bbe 55d7 1bbe
00000250: 1b53 01bd 6dc2 c73d d05f dd3d 3219 22be
00000260: 6ccc 8cbe 4104 953c 4d93 613d bbdb 913e
00000270: 4479 263d 3c73 d0bd c124 a73e c720 76be
00000280: 7ae6 f1be 6f36 8abe 1bca 77be 4a9d b3be
00000290: a9c3 f5be 084a 63be 0544 b8bd 85c4 15be
000002a0: a228 cabe 666e 1cbe 2f97 973e 341b 02bd
000002b0: 64f4 7f3e 3a3f 9fbc 6176 82bc 8ed6 a83e
000002c0: 6907 50be a448 c1be c997 90bd f0a3 53bc
000002d0: 8d2a a6be 2235 6dbe bba3 00be 44fa 4dbd
000002e0: 5810 82be 2024 d3bd 85da 0dbe 14b1 54be
000002f0: dace aabd f09f 79bd b155 dc3d 19a6 bebe
00000300: 4bab 71be 52a6 45bc d838 273e 214e 9fbe
00000310: 6901 493e f3dd 71be a1b2 f7bc 4614 2d3d

controller.controller.lstm.weight_ih_l1 f4 [200, 50]
-0.45782745 0.20360959 -0.76192045 0.7407148 -0.023854122 0.24346924 -0.0671766 0.18825582
-0.4097613 0.6227472 0.09380797 1.249879 0.72346896 -0.2812592 -0.25906134 0.6096991
-0.0648568 -0.18357453 0.37867594 -0.28234306 0.0032616057 0.30891576 0.75472313 -0.04193654
-0.4972941 -0.9368762 0.4402261 0.5376378 -0.5318117 0.32589814 -0.2871621 -0.19709058
0.3503833 0.2295077 0.6648015 -0.07916404 0.17987195 0.31075266 -0.5230467 -0.60461414
-0.67641944 0.61449087 0.07873621 -0.117760815 0.74325573 -0.29655495 0.08292383 0.4903847
-0.31698275 -0.19540702 -0.1806674 0.47564247 0.30603883 -0.29376218 0.206404 0.47713184
0.08095427 0.14024308 -0.15973143 -0.28254873 -0.23288032 0.48179907 0.4725367 -0.25450358
-0.010886037 0.29178604 0.6352783 -0.14702503 0.40617785 -0.027337372 0.59516567 -0.60039014
-0.14649421 0.16014887 -0.12508756 0.20459573 0.27678108 0.05125246 -0.682542 -0.1326149
-0.34137523 -0.13030231 -0.2789905 0.18725877 0.3809126 0.05803088 -0.55918777 0.30874735
-0.47731277 -0.5179365 -0.54456306 -0.01244526 -0.119540125 -0.8116543 -0.44230404 -0.12965135
-0.096060604 0.2774681 0.52845424 0.2949517 -0.18912843 -0.2594897 0.6663576 -0.25368157
0.3052469 -0.43980834 -0.27012748 -0.25984535 0.09923901 -0.8319232 0.38856003 0.12892939
-0.285135 -0.39637676 0.16314684 0.23445931 -0.35536766 -0.06845177 -0.46800452 0.3012963
0.9095571 0.47709343 0.32336462 0.6193436 -0.12096218 0.15214936 0.44815588 0.21352918
0.004362425 0.3264389 -0.5526639 0.2901577 0.11806903 -0.09894737 0.50862175 -0.6372807
-0.26966614 0.11602671 -0.05967284 0.15707874 0.01726002 0.5522798 0.16976386 -0.2022227
0.015586184 0.36773828 0.5191836 0.061377626 0.21931766 0.19072679 0.390551 0.34895402
0.22068404 -0.21760216 0.04038547 -0.33910325 0.49291945 -0.80374664 0.4048212 -0.21315189
-0.42783836 -0.121326886 -0.10105574 0.3386035 -0.11682772 -0.4320104 -0.5494176 -0.06195486
0.31395602 -0.52272344 0.10356233 -0.24850115 0.6512139 0.26988557 0.19316414 0.71808136
0.08067248 0.8711246 0.092531115 0.5915661 0.33627236 0.36319193 0.37664744 -0.6536911
0.15122664 0.18911049 -0.45987654 -0.034243073 -0.26306364 0.23713052 -0.3742332 0.33558437
-0.24877779 0.036969602 0.6427494 -0.49399155 -0.2936818 -0.35793564 0.63028514 0.17768338
-0.5024156 0.26419052 0.2377652 -0.018466784 -0.31944996 0.06816261 -0.3184024 0.39618012
0.38111705 0.08321915 -0.51191735 0.66041946 0.3778245 0.258561 0.5422321 -0.33348566
0.17590243 -0.3849161 -0.056081768 0.06962303 0.3272304 -0.032527078 0.25477573 -0.16231333
0.4587912 0.060443718 -0.7587491 -0.11196705 0.70262164 -0.7731329 0.03424123 -0.113511994
0.0037144818 -0.66544634 -0.12035672 0.2294885 0.1736549 0.16601214 -0.614332 -0.08844245
0.36739904 0.2439014 -0.005929613 -0.02476109 -0.550222 -0.55897903 -0.07010614 -0.5744717
0.26769292 0.87445897 -0.9397049 0.89045763 -1.0161741 0.37427646 0.13441084 0.32838106
00000000: 5c68 eabe 087f 503e 380d 43bf 7c9f 3d3f
00000010: b869 c3bc 0050 793e e393 89bd 22c6 403e
00000020: 3ccc d1be 5c6c 1f3f 651e c03d 09fc 9f3f
00000030: 4335 393f 3501 90be b0a3 84be 3d15 1c3f
00000040: a4d3 84bd f6fa 3bbe d0e1 c13e 458f 90be
00000050: aac0 553b 352a 9e3e 8935 413f a6c5 2bbd
00000060: 559d febe 1ed7 6fbf 5165 e13e a2a2 093f
00000070: d024 08bf 1fdc a63e e906 93be 1dd2 49be
00000080: 7165 b33e 1104 6b3e 6e30 2a3f c220 a2bd
00000090: 5a30 383e f91a 9f3e 63e6 05bf fec7 1abf
000000a0: d329 2dbf 464f 1d3f 7340 a13d 952c f1bd
000000b0: 0246 3e3f 0dd6 97be f8d3 a93d b413 fb3e
000000c0: 904b a2be c718 48be e000 39be 6987 f33e
000000d0: 1fb1 9c3e ff67 96be 925b 533e a04a f43e
000000e0: 5acb a53d e29b 0f3e a390 23be 3aaa 90be
000000f0: 2e78 6ebe 5eae f63e 55f0 f13e 4b4e 82be
00000100: 595b 32bc fb64 953e 99a1 223f bb8d 16be
00000110: 8bf6 cf3e a0f2 dfbc c75c 183f 2bb3 19bf
00000120: 9402 16be 11fe 233e f416 00be 8b81 513e
00000130: 40b6 8d3e 19ee 513d 13bb 2ebf 33cc 07be
00000140: bcc8 aebe f86d 05be d8d7 8ebe c3c0 3f3e
00000150: fa06 c33e cab1 6d3d ee26 0fbf 2214 9e3e
00000160: 5762 f4be 7d97 04bf 7c68 0bbf 34e7 4bbc
00000170: 74d1 f4bd 94c8 4fbf ad75 e2be 53c3 04be
00000180: 6cbb c4bd 4c10 8e3e c748 073f e903 973e
00000190: e2aa 41be d5db 84be 6996 2a3f 8de2 81be
000001a0: 5249 9c3e 8f2e e1be 264e 8abe 730a 85be
000001b0: d23d cb3d ebf8 54bf 57f1 c63e 1106 043e
000001c0: 37fd 91be e5f1 cabe f70f 273e 1a16 703e
000001d0: c0f2 b5be 7130 8cbd 4a9e efbe 8243 9a3e
000001e0: bcd8 683f 9745 f43e 0c90 a53e 4d8d 1e3f
000001f0: 05bb f7bd 0bcd 1b3e b074 e53e 65a7 5a3e
00000200: acf2 8e3b 0023 a73e 627b 0dbf 8d8f 943e
00000210: 2dce f13d eba4 cabd 0935 023f d424 23bf
00000220: ae11 8abe 699f ed3d 826b 74bd 40d9 203e
00000230: e364 8d3c 3562 0d3f 94d6 2d3e 7813 4fbe
00000240: 325d 7f3c 3148 bc3e 37e9 043f 1b67 7b3d
00000250: cf94 603e e24d 433e 4df6 c73e 1aaa b23e
00000260: fffa 613e 1ad3 5ebe 3c6b 253d f19e adbe
00000270: f05f fc3e 57c2 4dbf b944 cf3e 7d44 5abe
00000280: a10d dbbe 3b7a f8bd 50f6 cebd 705d ad3e
00000290: 5f43 efbd 7830 ddbe a2a6 0cbf 61c4 7dbd
000002a0: d8be a03e 34d1 05bf 7d18 d43d 1677 7ebe
000002b0: f4b5 263f 712e 8a3e d2cc 453e 2ed4 373f
000002c0: 9d37 a53d 0602 5f3f f480 bd3d e070 173f
000002d0: e42b ac3e 4bf4 b93e efd7 c03e 4d58 27bf
000002e0: 28db 1a3e 2ea6 413e f074 ebbe 7742 0cbd
000002f0: 47b0 86be 58d2 723e 7e9b bfbe b7d1 ab3e
00000300: 9bbf 7ebe 706d 173d 3a8b 243f 76ec fcbe
00000310: 765d 96be 5743 b7be 5e5a 213f a2f2 353e
00000320: 4f9e 00bf fb43 873e b878 733e a747 97bc
00000330: f28e a3be d798 8b3d a405 a3be 1fd8 ca3e
00000340: c621 c33e cd6e aa3d 040d 03bf 4011 293f
00000350: 3672 c13e 1b62 843e b9cf 0a3f a2be aabe
00000360: c41f 343e b913 c5be ffb5 65bd 8596 8e3d
00000370: be8a a73e 1d3b 05bd f771 823e 7735 26be
00000380: aee6 ea3e d593 773d 623d 42bf fb4e e5bd
00000390: 03df 333f 0aec 45bf 8840 0c3d fa78 e8bd
000003a0: aa6e 733b b15a 2abf 967d f6bd 09ff 6a3e
000003b0: 97d2 313e 16ff 293e dd44 1dbf 5121 b5bd
000003c0: ba1b bc3e 4ac1 793e 334d c2bb c5d7 cabc
000003d0: 59db 0cbf 4019 0fbf cf93 8fbd 9410 13bf
000003e0: 0c0f 893e 8bdc 5f3f 8090 70bf 08f5 633f
000003f0: fe11 82bf 2aa1 bf3e ffa2 093e 9021 a83e
